Model/1000sam16batch_cpu (1).pth (torch, 120162 bytes, 79 tensors)

conv1.lin_node_msg_compact.ue.0.0.weight f4 [16, 1]
00000000: 1a77 ad3e 7bcf 823e 4ba8 8c3f a37e 1c3f
00000010: fdc7 b03e df33 c13e 0235 76bf 5e2e 693f
00000020: 6054 1bbe b66c 353f 6e86 703d aefb e33e
00000030: 353a f33e 00b9 92bc 9d8e 473f fc76 383f
0.3387993 0.2554892 1.0988859 0.6113073 0.3452758 0.37734887 -0.96174634 0.91086376
-0.15168905 0.70869005 0.058721952 0.44527954 0.47505346 -0.01791048 0.77951986 0.72056556

conv1.lin_node_msg_compact.ue.0.0.bias f4 [16]
00000000: a923 2c3f 10c2 483e ef6a 5fbe a0ff 663e
00000010: 1cf2 58be 4933 c23e 2ce4 c33e 99ca 9cbe
00000020: 1021 57bf 8ffc 763f 3e15 3a3f 53fc 193f
00000030: d5c5 6d3f 00de 0abe 2bc1 8a3e 9604 663e
0.67241913 0.19605279 -0.21818136 0.2255845 -0.21186107 0.37929752 0.3826002 -0.3062332
-0.84034824 0.96479124 0.72688663 0.6015064 0.9287999 -0.13561249 0.271005 0.22462687

conv1.lin_node_msg_compact.ue.1.0.weight f4 [32, 16]
00000000: df49 97be 83f4 683d 3899 3fbe 2394 953d
00000010: 8cdf 8d3d 54d1 343e 2844 af3d 033b 83be
00000020: 6a7d 6b3e 0a6a f53d ecfa 1ebd 4936 1fbe
00000030: 325a 903d 3e0c 573e e8f7 143e 3e70 3b3e
00000040: 58f7 db3d d82f 6dbd 9c16 9dbd ec1d 45be
00000050: 925a 6bbe e8e5 cbbd 72ac 30be fa26 28be
00000060: 902e 35bd 600d 3bbe a8f5 d53d bc4d 0e3e
00000070: a8a4 79bd f87f 29bd 429b 323e 408f 1ebe
00000080: 18db e43d 9c23 39be e8ad 943d d0c2 98bd
00000090: 7a05 6cbe ae3c 6e3e 46b0 37be 30be e0bc
000000a0: 68cf 413e c0c6 81bd 9c6f 84bd 80fc 7d3e
000000b0: d824 8cbd 7e8e 7d3e 5cb8 a4bd c0e7 713c
000000c0: 08b4 583d be82 3bbe a081 89bc 52b2 163e
000000d0: c265 70be 0400 35be 8079 19bb 9299 2fbe
000000e0: 80b9 3abe 88c1 b3bd 2e72 203e 008a f5bd
000000f0: da0a 673e 12b1 183e 2cb0 bf3d 2035 29be
00000100: c6f2 6fbe 6ca0 6f3e d050 98bd 5a39 69be
00000110: 80cb bbbb 6005 773e d685 1b3e 4a1c 2dbe
00000120: 7811 1d3d 7cd7 ffbd 1aeb 3bbe e461 e7bd
00000130: 940b c1bd 84d1 4d3e 8cb0 f13d 185a 133d
00000140: 4e14 b5bd 0b33 603e e71b 03bd 6b78 3b3e
00000150: 9c47 14be 3213 e1bd 00e5 38bd 4828 8a3d
00000160: 6052 8fbc 3d92 c93c 7893 3b3e 97ff 27bd
00000170: 49a6 20be 90c4 7e3e 7c2a 1dbd 790c b1bc
00000180: 7240 07be 30f5 40bd 5877 e8bd 509b 07be
00000190: c840 53bd 5402 b6bd e463 313e 24b4 3bbe
000001a0: b043 6e3d b87a 6e3d 560c 063e 80dd 70bd
000001b0: 64c3 073e a617 55be 981b 15bd c098 4ebc
000001c0: 5ae2 36be d0c8 e6bc b2eb 1ebe 34b2 6c3e
000001d0: 1c5d d1bd 44db 043e ac0d a6bd 3251 19be
000001e0: 9ee8 203e cc3a 7dbe 9243 5e3e 08e9 df3d
000001f0: f4d2 9f3d c0c4 f03c 849b bcbd 8edc 553e
00000200: ea0c 19be 1517 e7bc 4d54 21bd 6a8e 5e3e
00000210: 9394 9fbc 20da 493d 248b c5bd 6956 fa3a
00000220: 96c4 393e 9275 05be ca99 b13b 8217 063e
00000230: 207f 1e3e de6f 2abe 5f28 05be 520f e2bd
00000240: fc66 97bd e0f1 2dbc 88a4 393e 26ee 0ebe
00000250: 6e6c 7cbe 205c 1ebc 10c3 fd3d 4e4a 72be
00000260: bc90 b83d 160e 113e 9af5 16be c066 6b3c
00000270: ae6c 1d3e 4e6f 1f3e a0d4 a13d a894 d9bd
00000280: 0f67 383e caf4 bcbd 3d66 dabc d885 b2bd
00000290: e65b d53d 3deb 4e3e 38d8 54bd f909 31be
000002a0: 887e 7f3d b0c4 d43d 49fb ddbd 7bcf 4f3d
000002b0: 4e19 e2bd 187d 34be 5a32 7abe 6132 643e
000002c0: 181c 9d3d 58cf b0bd 804f c43c aed7 04be
000002d0: 2090 073c 40b9 4b3c 88d3 763e eec4 76be
000002e0: 903a aa3d 0a20 2fbe 7082 903d 2493 41be
000002f0: 809c 51bc 56b5 0a3e b697 4e3e 40cd a13b
00000300: 6886 ad3c 5680 a4bd f28b 563d 465e 573e
00000310: ef7c e3bd cc67 583c 3470 7e3e d519 3fbe
00000320: d61f 3c3e cba2 153d ef6e 6f3e 778f 3ebe
00000330: b7f0 3cbd 50a7 e5bd 6105 40be eccb 0a3e
00000340: 0ca8 56be 1c29 6fbe 5646 17be 8c52 b23d
00000350: 386a 14be d871 0f3d 38cc 0c3e 5866 6cbd
00000360: 6ae6 41be 86be 023e c088 4fbd 12f8 22be
00000370: 241d 37be 30d7 fabc 0003 0c3c 5cf8 0b3e
00000380: c0b5 85bd 4c4b 75be 7adb 3ebe f481 07be
00000390: 1094 2a3e ba5e 5c3e ccfb 0a3e d0b9 723e
000003a0: 7026 1c3d 8017 21bc 129a 0dbe b0e6 9ebc
000003b0: 708e e2bd f851 e9bd c0ba e8bb 384a febd
000003c0: ee72 2a3e c01a bfbb 4e0c 0dbe 903b b53c
000003d0: 10f2 a33d d63b 703e 28f5 e83d fa1b 58be
000003e0: 2cda a3bd 00ac 54ba 14f2 9fbd e0a4 033c
000003f0: cc71 a9bd 4246 7fbe f8e4 f33d 944d 45be
-0.29548547 0.05687381 -0.18710792 0.073036455 0.06927404 0.17657977 0.08557922 -0.2563096
0.2299706 0.11983116 -0.038813516 -0.15548052 0.070484534 0.21000764 0.14547694 0.18304536
0.107405365 -0.057906955 -0.07670328 -0.19249696 -0.22983769 -0.099559605 -0.17253283 -0.16421118
-0.04423386 -0.18266821 0.10447246 0.13896841 -0.060948044 -0.041381806 0.17442039 -0.15484333
0.11174601 -0.1807999 0.072597325 -0.074590325 -0.23048964 0.23265335 -0.17938337 -0.027434438
0.18926775 -0.06336737 -0.064666 0.24803352 -0.06842965 0.24761388 -0.08042976 0.014764726
0.052906066 -0.18311593 -0.016785443 0.14716461 -0.23476318 -0.17675787 -0.0023418367 -0.17148426
-0.18234825 -0.087771475 0.15668556 -0.11989212 0.22562733 0.14911297 0.09359774 -0.16524172
-0.23432454 0.2340104 -0.07437289 -0.22775784 -0.005731046 0.24123144 0.15187773 -0.16905323
0.038346738 -0.12492272 -0.18351403 -0.11297968 -0.094260365 0.20099455 0.11801252 0.035974592
-0.088417634 0.21894471 -0.03200903 0.18307655 -0.14480442 -0.10989989 -0.045140266 0.06745964
-0.017495334 0.024605865 0.18317974 -0.041015234 -0.15688433 0.2487967 -0.038370594 -0.021612393
-0.13208178 -0.04710883 -0.11350888 -0.13242841 -0.051575452 -0.08887163 0.17323261 -0.18330437
0.05817002 0.058222502 0.13090643 -0.05880499 0.1325813 -0.20809802 -0.03640327 -0.012609661
-0.17859784 -0.028171927 -0.15519598 0.23114854 -0.10222837 0.12974268 -0.081080765 -0.1497238
0.15713736 -0.2472946 0.21705464 0.10933119 0.07803908 0.029390693 -0.0920935 0.20884916
-0.14946333 -0.028209249 -0.039387036 0.21734014 -0.019480025 0.049280286 -0.096456796 0.0019099239
0.18141398 -0.13033131 0.0054199444 0.13094905 0.15478182 -0.16644236 -0.13003682 -0.11038078
-0.073926896 -0.0106167495 0.1812917 -0.13958034 -0.24650738 -0.009665519 0.12390721 -0.23661157
0.09011981 0.1416553 -0.14742127 0.014367759 0.1537349 0.15569803 0.07901883 -0.10624057
0.18008064 -0.09226377 -0.02666008 -0.08716935 0.10417919 0.20206924 -0.051964015 -0.1728896
0.06237653 0.10389078 -0.108389445 0.05073498 -0.11039983 -0.17625844 -0.2443327 0.22284843
0.07671374 -0.08633298 0.02396369 -0.129729 0.008274108 0.012434304 0.2410413 -0.2409856
0.08311951 -0.17102066 0.07056129 -0.18903786 -0.01279366 0.13545737 0.2017506 0.004937798
0.021182254 -0.08032291 0.052379556 0.21032056 -0.111078136 0.013208341 0.2484749 -0.18662198
0.1837152 0.036532205 0.23382162 -0.18609415 -0.046128 -0.11213553 -0.18752052 0.13554353
-0.20962542 -0.23355526 -0.14772925 0.08707151 -0.14493644 0.03502068 0.13749778 -0.05771479
-0.18935552 0.12767991 -0.050667524 -0.15914944 -0.1788221 -0.030620188 0.008545637 0.1366896
-0.06528807 -0.23954505 -0.18638411 -0.13233167 0.16658044 0.2152051 0.13572615 0.23703694
0.038122594 -0.009832263 -0.13828304 -0.01939711 -0.11062324 -0.113925874 -0.0071023405 -0.124165
0.16645405 -0.0058320463 -0.13774225 0.022123128 0.08005154 0.23460326 0.11374885 -0.21104422
-0.08000597 -0.0008112788 -0.078098446 0.008034915 -0.08273658 -0.24929145 0.11908907 -0.19267875

conv1.lin_node_msg_compact.ue.1.0.bias f4 [32]
00000000: 0cf7 68be 6064 1a3d b89a 173d 44be 74be
00000010: 1057 7bbd 42f2 3f3d e41e 013e b085 3a3e
00000020: 762a 143c b021 c23c f75e babd 08f0 09bd
00000030: 0e82 1f3e c87e 53bd f871 19bd 02f6 0cbe
00000040: 7fee 9cbe 5333 55be 28c0 e4bd 0e35 923c
00000050: 9ca4 913d b125 0d3d 07d7 243e def7 6cbe
00000060: d470 033e b83c 1f3d 300f 243e 90e2 2d3d
00000070: 5fd8 6b3d 1d07 ca3d a5df 183d d069 783d
-0.22750491 0.03769338 0.037012786 -0.23900706 -0.061362326 0.046861894 0.1260944 0.1821506
0.009043327 0.023697704 -0.09100144 -0.033676177 0.15576956 -0.05163458 -0.037462205 -0.1376572
-0.30650708 -0.2082036 -0.111694634 0.017847564 0.07111475 0.034459773 0.16097651 -0.23141429
0.1283601 0.038876265 0.16021419 0.042452395 0.057579394 0.09864638 0.03732266 0.060647786

conv1.lin_edge_compact.ue__uplink__ap.0.0.weight f4 [16, 1]
00000000: eace 06bf a830 48be 6e76 a7bd 84d5 babe
00000010: ecc2 debe d022 70bf 2464 7ebf d6fb fe3e
00000020: b5e3 1a3f de59 3b3f 21e6 15be adea c83e
00000030: 20a5 7fbe c607 e6be 456b 093f d4cf f1be
-0.52659476 -0.19549811 -0.081768855 -0.36491024 -0.4350809 -0.9380312 -0.9937155 0.4980151
0.60503703 0.73184 -0.14638568 0.39241543 -0.24965334 -0.44927806 0.53679305 -0.47228873

conv1.lin_edge_compact.ue__uplink__ap.0.0.bias f4 [16]
00000000: e09c 0ebe 0bd5 da3e e425 b43e 28dc 1bbf
00000010: d09c 04bf 76b3 193f 9ae6 4ebf 516d 28bf
00000020: b2fb 033f 363a a53e 1640 9c3e c15f 23bf
00000030: 4867 09be 2a4f 8a3f 0193 203e 10ba 3abf
-0.1392703 0.42740664 0.35185158 -0.60882807 -0.51801777 0.6003946 -0.8082062 -0.65791804
0.5155593 0.32270974 0.30517644 -0.63817984 -0.13418305 1.0805409 0.15681078 -0.7294016

conv1.lin_edge_compact.ue__uplink__ap.1.0.weight f4 [32, 16]
00000000: d4bc c3bd 344a d3bc 4506 1cbe f067 06bd
00000010: 0071 95bc ec89 f83d 4c62 abbd ffb5 fc3d
00000020: 87ba 5dbe 292f 793d 019f 74be dc55 88be
00000030: f0b0 9d3c 0d46 42be 54dd 02bd 369a 1f3e
00000040: 10e9 1e3d ebd8 4abe 35a5 0d3e b428 a93d
00000050: fcfa 123e e057 2f3e 780d 3f3e eb5c 9c3d
00000060: 1c16 f2bd 5495 923c 8122 f43d 822d 7dbe
00000070: 283f 72be 3247 56be 8274 b43d 8020 8abb
00000080: c66c 0bbe e515 4ebe 0fe9 343e 50cd f93d
00000090: 041b 1fbe 98ca 7a3d e035 133e a0d4 073e
000000a0: f3f1 d8bd 21e2 9e3d d7f9 5f3e e84f 5ebc
000000b0: b013 f03d 1524 81be 5b30 08be 20f3 973d
000000c0: e057 04bd b112 4c3d b6b2 81bd 803e d5bd
000000d0: 30fe a43c 4cc6 44be b839 3fbe 26a8 e43d
000000e0: f825 87be 86c9 d93d c9fd 78be 6fe9 1fbd
000000f0: a8ec 58be 6a72 bbbe 31e1 623d 900a d0bc
00000100: b0ee 3d3e 1b30 d7be 7555 a6be c0d3 75bd
00000110: baaf 7cbe 805e bbbc 02d0 563e e117 ad3d
00000120: abb8 7f3c f383 c83d 5ccd 82be 476d 10bd
00000130: a888 8fbd 63aa 0bbe 7290 283e fcf6 2fbe
00000140: 84f3 523e 2154 08be 9258 b6bc 4e98 6ebe
00000150: d80b 7a3d 3224 b7bd 96f8 0dbe 89e3 d2bb
00000160: 79cf e33d 1d9b 1ebe 3c72 843d 4e7f 0bbe
00000170: d49b 413e ab02 263d 9858 6b3d e426 febd
00000180: 2ee5 42be 3816 b0bd ba6e 6f3e 98da 5d3d
00000190: 4cda 3c3e d4ac 943d f2d8 6abe 6045 b23c
000001a0: 34b0 f2bd ae10 77be 5a00 263e 4424 9fbd
000001b0: 1e74 56be dc41 c83d 582b aabd e0e3 1cbd
000001c0: 1a79 54be b003 093e 4605 c3bd a0b4 283e
000001d0: a85c 1f3e f85f e03d 80cc 6e3b 8c73 673c
000001e0: c1ef 75be a62d d93c 5053 96bd aec4 013e
000001f0: 429c 0c3e ec41 82bd 97ca 913d 348e 05be
00000200: 34eb c43d da77 ba3c 1d19 d83c 7807 50be
00000210: 9c50 f93d 97d9 2f3c 2a98 7dbe 8bd6 d9be
00000220: 9d0a 893e 159a 4cbe 81b5 953e c4e4 c2be
00000230: 74b0 3fbe b427 8f3e e344 333b 08fe da3d
00000240: e43e 103e ebc4 b43e 8517 543e 1697 6abe
00000250: 5609 1e3e 0e61 22bd aab5 2bbe 9051 d1be
00000260: 9fa0 163e 9e98 a4bd c26d 233e 6277 f5be
00000270: fc3f 1a3e d2ee ab3e 58a8 e53c a8ca 4cbe
00000280: fc37 5e3e 3755 07bd 4e02 373e ca51 083e
00000290: 3ca7 c83d a88e 963e 5cd4 ee3d 48d2 693e
000002a0: d10b 593e 3553 debd 1d8f 20bd 2724 66bd
000002b0: 165a 423e 36c4 a63e fa05 303e 948e 023e
000002c0: d411 933d d09f 78bd 886e 41bd 9ce1 d33d
000002d0: 0e14 7f3e 0024 67bc 68a9 d43d f0c7 6dbd
000002e0: d4ee d4bd c867 4fbd 1274 7a3e 70f9 a93d
000002f0: 2c53 933d e838 40be b4a6 bbbd 24f6 b83d
00000300: 4a60 66be 0c28 92bd fc2e 3a3e f4f9 a93d
00000310: 08e7 b73d 6c82 c3bd e08f 463c 9451 83be
00000320: b7a7 bcbd b811 bebd 7b0d aa3d 80c5 e8bb
00000330: a8af 48be 0617 513c 3c93 a23d 102a 58bd
00000340: 04bf 5a3e e059 c73d 82a9 14be e039 2e3c
00000350: e4de ea3d 006b a03c 6ccb 85bd ab17 b2bd
00000360: ad43 b63d da78 25be 1047 65bd 62bc 1d3e
00000370: 648c 2b3e 6074 44be c2d4 c23c 9c79 263e
00000380: 7c5a 1abe 4002 cd3d 27ad 613d 06de 1cbe
00000390: ba53 01be f6c9 4abe 905b 68bd 6686 983d
000003a0: 83a1 1d3d 989d 8cbe 4031 35bc ffb0 3f3e
000003b0: 84e8 9cbd 38e7 45be c96f cf3d 92cb 4b3e
000003c0: 7255 04be 80a8 08be 49ab bfbc a066 15bd
000003d0: fccf 06be d94d f2bd 105c 0e3d 5dcf 09bd
000003e0: 6199 ec3d 1efc 1abd 4c55 54be 0a7f 62be
000003f0: 5475 ff3d ef96 55be a5bf 20bb 88c5 86bd
-0.095575005 -0.025792219 -0.15236767 -0.032813966 -0.01824236 0.121356815 -0.08368358 0.123394005
-0.21653186 0.06083599 -0.2388878 -0.26628006 0.01924941 -0.18972035 -0.031949356 0.1558617
0.038796484 -0.1980931 0.13832553 0.08259717 0.14353555 0.17123365 0.18657482 0.0763491
-0.11820623 0.01789347 0.119206436 -0.24724391 -0.23656905 -0.20925596 0.088112846 -0.0042153
-0.13615713 -0.2012554 0.1766703 0.121973634 -0.1553765 0.061228365 0.1437602 0.13264704
-0.10593023 0.077579744 0.2187265 -0.013568856 0.11722505 -0.2522284 -0.13299696 0.07419419
-0.032310367 0.049822513 -0.063329145 -0.104123116 0.020140737 -0.19216269 -0.18674362 0.11164884
-0.26396155 0.10634141 -0.24315561 -0.03904098 -0.21184027 -0.36610729 0.05539054 -0.025395662
0.18548083 -0.4202889 -0.32487074 -0.060016394 -0.2467641 -0.02287221 0.20977786 0.0845182
0.015607993 0.09790792 -0.25547302 -0.035260465 -0.07008487 -0.13639216 0.16461352 -0.17184061
0.20600706 -0.13313343 -0.02225903 -0.23300287 0.06104645 -0.089424506 -0.1386436 -0.0064358157
0.11123557 -0.15488859 0.06467101 -0.13622782 0.189071 0.040529888 0.057457536 -0.124097615
-0.19032738 -0.08597988 0.23382083 0.054163545 0.18442649 0.07259527 -0.2293432 0.021761596
-0.11850014 -0.24127457 0.16211072 -0.07770589 -0.20942733 0.09778187 -0.083090484 -0.038303256
-0.20749322 0.13380313 -0.0952249 0.16475153 0.1556269 0.109558046 0.003643781 0.01412667
-0.2401724 0.026511025 -0.07340109 0.12672684 0.13731483 -0.0636023 0.07118719 -0.13042527
0.09615174 0.022762228 0.026379162 -0.20315349 0.12173578 0.01073303 -0.24765077 -0.42546496
0.2676591 -0.19980653 0.2924004 -0.3806516 -0.18719655 0.2795998 0.0027354292 0.10692984
0.14086491 0.35306486 0.20712097 -0.22909197 0.15433249 -0.03964334 -0.16768518 -0.4088254
0.1470971 -0.08036922 0.15959838 -0.47942644 0.1506347 0.33580643 0.028034374 -0.19999182
0.21701044 -0.03304025 0.17871973 0.1331245 0.097975224 0.29405713 0.11661598 0.22834122
0.21195914 -0.10855714 -0.039198983 -0.05618682 0.18979678 0.32571572 0.1718978 0.12749702
0.07181135 -0.060699284 -0.04722455 0.10345766 0.24909994 -0.014107704 0.10383874 -0.058052003
-0.10397115 -0.050636083 0.2445834 0.082995296 0.07193598 -0.18771708 -0.091626555 0.090313226
-0.22497669 -0.071365446 0.18181986 0.08299628 0.089796126 -0.095463604 0.012119263 -0.25648177
-0.092116766 -0.09280723 0.083033524 -0.007103622 -0.19598258 0.012761837 0.07938239 -0.05277449
0.21361929 0.09733939 -0.14517787 0.010633916 0.11468294 0.019582272 -0.0653294 -0.086959206
0.08899627 -0.16159382 -0.055975974 0.15403894 0.16752774 -0.19185019 0.023783091 0.16257328
-0.1507358 0.10010195 0.05509677 -0.1531907 -0.12629595 -0.19803604 -0.056727946 0.074475095
0.038484108 -0.27463984 -0.011059105 0.18719862 -0.07661536 -0.19326484 0.10128743 0.19901875
-0.1292322 -0.13345528 -0.023397105 -0.036474824 -0.13165277 -0.118312545 0.034755766 -0.033645023
0.11552692 -0.037838094 -0.20735663 -0.22118774 0.124735504 -0.20858358 -0.0024528292 -0.06580645

conv1.lin_edge_compact.ue__uplink__ap.1.0.bias f4 [32]
00000000: 0813 3d3e 82c3 ab3c c434 6bbe 8ecc bfbc
00000010: 8eff 3fbe 380b 9abc d830 6cbe 41e7 4abe
00000020: 88ca 513e 0b7f 553e 37ef 43be 10fb fc3c
00000030: 4bb8 81bd 9fe4 e1bd 604b 74be a14a 153e
00000040: a303 75be f05e a5bd 021b b03e 3fa5 d4be
00000050: 3a2d 933b 504c eabd b096 9f3e 7463 493c
00000060: 3491 8abe 98c2 d03c 9bed 00bd 10cb a6be
00000070: 29ca 5fbd d4a6 253e b4e0 27be 47b2 c13c
0.18464291 0.020967249 -0.22969347 -0.023412969 -0.1874983 -0.018804178 -0.23065507 -0.19814779
0.20487416 0.20849244 -0.19134222 0.030881435 -0.06333979 -0.11029934 -0.23856878 0.1457925
-0.23927169 -0.080747485 0.34395605 -0.41532323 0.0044914754 -0.11440337 0.31169653 0.012291778
-0.27063906 0.025483415 -0.0314766 -0.325768 -0.054636154 0.16176921 -0.16394311 0.02364458

conv1.lin_edge_compact.ap__downlink__ue.0.0.weight f4 [16, 1]
00000000: 126f e4be a56f 9bbd bbdd e73d f83b f0be
00000010: f699 67bf 7ec6 6dbe 34af 1bbf 4660 60bf
00000020: b440 39bf 05ef 1d3e c4a3 b13d 5835 093d
00000030: 0d49 9c3e fab2 353f a28c 82be 7f09 f43e
-0.4461599 -0.07589654 0.113215886 -0.46920753 -0.904693 -0.2322025 -0.60814214 -0.876469
-0.72364354 0.1542321 0.08673814 0.03349814 0.30524483 0.7097622 -0.2549792 0.47663495

conv1.lin_edge_compact.ap__downlink__ue.0.0.bias f4 [16]
00000000: 43b2 913f ca9c 6b3f 2c12 1bbf c054 0dbe
00000010: 0a3c 73bf c1c3 ff3e da28 17bf 38fd eabe
00000020: d07c f6bd ff0b 553f 0ac8 8c3f 5198 3e3f
00000030: 9747 4dbf 924b ec3e 9e37 1e3f 1454 8abc
1.1382526 0.92036116 -0.60574603 -0.13801861 -0.9501349 0.49954036 -0.5904671 -0.45896316
-0.12035525 0.8322143 1.0998547 0.74451166 -0.8018736 0.46151406 0.61803615 -0.016885795

conv1.lin_edge_compact.ap__downlink__ue.1.0.weight f4 [31, 16]
00000000: eb3e 923e 56fa 1ebd aff3 0cba 3c72 723e
00000010: c4ea a8bd 8030 ce3e 5ad1 19be 400a 9abd
00000020: 60c0 1fbd 01f9 88bd 9b66 1e3e bcfb aabd
00000030: 54dd adbe 9285 bdbd 148a 333d 98dc c5bd
00000040: ce3e 53be e483 843d b436 5dbe fc2f 5d3e
00000050: 5473 353e dea7 3bbe 0020 a7b8 aa4a 56be
00000060: 6051 8d3d 90a5 0dbe a0cd 023e 50cc 5dbd
00000070: 7894 1cbd b012 bbbd 003b 913c fca4 78be
00000080: 6aa4 d03e ca4b 4a3e 2770 82be 541d a1bd
00000090: 4454 c83d e6c1 263f 0cb5 033e 8e13 64be
000000a0: 4ca7 10be 4572 3f3e 5c32 823e 5b10 d63d
000000b0: 212b d0be 5a80 2ebe 88ba 8c3e aaa3 13bd
000000c0: 568b cf3d a029 81bd 7609 92be 6224 44be
000000d0: 94c7 19be 6037 43be c0be 88bb 6073 8c3d
000000e0: 9889 613d 9273 933d d670 283d d9c1 a2bc
000000f0: e4bd ec3c 9890 073d 7ee0 4a3e 6902 9ebd
00000100: 185c 2cbe 5a46 143c d8be 9cbd 6e26 233e
00000110: b6e7 2f3e 3cce 183e c6ee 213e ae0b 3bbe
00000120: 38be 6dbd df4d b13d 2383 e6bd 3a1f e73d
00000130: b23b 9fbd 531c 4fbe 33ff 023d e677 b2bd
00000140: 88b5 2ebd 288a 103d 3a76 103e c201 453e
00000150: f068 ad3d 36b9 0d3e 8645 26be d074 0fbe
00000160: 507d 5c3d 40ee a6bc bcec 243e 08d8 6cbe
00000170: 7801 16bd 88de 7bbe ba74 4ebe 9075 84bc
00000180: 7dd8 293e 30ca 6cbd 5768 ad3d a803 f23d
00000190: fce3 7b3e 1ec0 6ebe a8d7 923d ec9d dcbd
000001a0: 9611 523e 9114 5abe 83f1 32be 7a9c 213b
000001b0: 7e8b 19be f686 103e ec03 2ebd 4071 c8bd
000001c0: 2605 35be 1241 06be 54fe 35be fc9d 4bbe
000001d0: 4e90 543e cc2f d63d 1068 a1bc aae4 39be
000001e0: 9cb4 613e 84c0 4f3e f698 043e 18be 4e3d
000001f0: e276 53be ac09 48be a4d0 cabd 147b 97bd
00000200: 58c1 2f3e 1d25 04be b65e b63c 8ed9 39be
00000210: 40c6 a7bc b401 3fbe 5828 6a3e 5887 3d3e
00000220: ec4f b33d 5525 53bb a11e 9a3e a951 6b3d
00000230: dccf c1bd e1a5 633e 91c0 873c 8084 2e3e
00000240: be0c 17be 685a 4abd 1802 d03d bc03 ec3d
00000250: f84d 06bd 8091 1c3b 4a79 7bbe 16fd 7dbe
00000260: 8815 943d 649b b8bd 70c3 c43c 8c2e 0d3e
00000270: ded5 2f3e ae2d 25be 60bb 0d3e 5044 74bd
00000280: 2c9f 083e 50b3 e9bc d84d 863d e2b1 363e
00000290: c0df 01bc 40da 5bbc 666a 11be 783b 7fbd
000002a0: 4811 763e f666 013e 4811 08bd b826 663e
000002b0: 306a 5a3e d045 dbbd 7828 69be 18bb 5dbe
000002c0: 7ca6 123e 10e4 0ebe 10ab a3bc 2c75 d3bd
000002d0: 70d3 bf3d 2e94 7cbe fc81 ffbd d0de bcbc
000002e0: 2099 943c 88a7 0abe 22ba 083e 00a6 83bc
000002f0: e0d7 0b3d 0838 a6bd 70f4 793d 1803 743d
00000300: cb72 213e 60f2 a7bd 3dfe 1f3e b020 aa3d
00000310: 8cc8 bbbd b833 53be 6c7a cabd 6c4d 0cbe
00000320: 4040 fcbc 1a9d 193e 85e2 90be bb8a 093e
00000330: 83d9 88bd 7a42 a4bd ca4f d6bc 99ae d13d
00000340: 0e0d 273f e880 603e b74d e83d be5d 473e
00000350: d83c 623d 86b8 853e d4e7 5fbe 804d 0a3d
00000360: d8c5 e93d 149b 07be 5395 1e3e 065b 3cb8
00000370: 71c7 ebbe 51d4 7a3d c1d1 063f 6974 81be
00000380: 7ddd fcbd 6d86 56be 674c a2bd 580f 793e
00000390: c087 33be eb2c d9bd acc4 43be de42 023e
000003a0: ea4e 01be 9c01 55be 1fea dfbd 6408 3f3e
000003b0: 2f9e 95bc 19c5 cebd 5e58 e5bc abf3 393e
000003c0: a0bb 5c3c 262c 5ebe da0e 64be 0887 9cbd
000003d0: 10ca 583d 40c9 3a3d e0d1 7abd f8d1 38be
000003e0: 9c92 263e 58d2 12bd 8646 7fbe 30c3 263e
000003f0: 629e 5abe e66e 643e 0292 65be 4294 79be
0.28563628 -0.038812958 -0.0005376888 0.2367639 -0.08247903 0.40271378 -0.15021268 -0.07521486
-0.039001822 -0.06688119 0.15468828 -0.08348796 -0.33957922 -0.09253992 0.043832853 -0.096612155
-0.20629427 0.06470469 -0.21602899 0.21600336 0.17719775 -0.18325755 -7.969141e-05 -0.2092692
0.06900287 -0.13832688 0.12773752 -0.054149926 -0.03822753 -0.09134424 0.017728329 -0.24281687
0.40750438 0.19755474 -0.2547619 -0.07866922 0.097816974 0.65139616 0.12862033 -0.22273085
-0.14126319 0.18695934 0.25429046 0.10452338 -0.40657905 -0.1704115 0.27486062 -0.036044754
0.10133998 -0.063067675 -0.28522843 -0.19154504 -0.1501754 -0.19064093 -0.00417313 0.068579435
0.05506286 0.07199778 0.041123234 -0.019867824 0.02889914 0.03309688 0.198122 -0.077153035
-0.16832006 0.009049976 -0.07653588 0.15932629 0.17178234 0.14922422 0.15813741 -0.18266174
-0.058042735 0.08657431 -0.11255481 0.11285253 -0.07775058 -0.20225649 0.03198166 -0.08714275
-0.04265359 0.035288006 0.141076 0.19238952 0.08467281 0.13840184 -0.16237459 -0.14009404
0.053830445 -0.020377278 0.16105932 -0.23129284 -0.036622494 -0.24596608 -0.20161715 -0.01616934
0.1658649 -0.05781001 0.08467167 0.118171036 0.24598688 -0.23315474 0.071700394 -0.10772309
0.20514521 -0.21296908 -0.17474942 0.0024659918 -0.14994618 0.14113984 -0.04248421 -0.09787226
-0.17677745 -0.1311076 -0.177728 -0.19884485 0.20758173 0.10458335 -0.019702941 -0.18153635
0.22041553 0.20288283 0.12948975 0.050474256 -0.20650819 -0.1953494 -0.09903076 -0.07396522
0.17163599 -0.12904783 0.022261959 -0.18149397 -0.020480275 -0.18652993 0.22866952 0.18508661
0.08755478 -0.0032218297 0.30101493 0.057450924 -0.09463474 0.22231247 0.016571315 0.17042732
-0.14750955 -0.049402624 0.10156649 0.1152415 -0.0327892 0.0023890436 -0.24557987 -0.24803576
0.07230669 -0.090140134 0.024018973 0.13787287 0.17171428 -0.16130707 0.13841009 -0.05963546
0.13341969 -0.028527886 0.06557816 0.17841294 -0.007926881 -0.013418734 -0.14200744 -0.062312573
0.2403003 0.12636933 -0.033219606 0.22475708 0.2132957 -0.10706675 -0.22769344 -0.21653402
0.14321321 -0.13954186 -0.01997903 -0.10325083 0.093665004 -0.24665901 -0.124759644 -0.023055464
0.018139422 -0.1354047 0.13352254 -0.016070366 0.03414142 -0.08116156 0.06102413 0.059573263
0.15766446 -0.08200526 0.15624328 0.08307016 -0.09169111 -0.20625198 -0.09886631 -0.13701409
-0.030792356 0.15001336 -0.2829782 0.13431828 -0.06682112 -0.08020492 -0.026161093 0.1023838
0.65254295 0.21924174 0.11342948 0.19469354 0.055233806 0.26117343 -0.21865779 0.033765316
0.11414689 -0.13242751 0.1548665 -4.4907465e-05 -0.460506 0.061237637 0.5266381 -0.25284126
-0.12346933 -0.20949717 -0.07924729 0.2432226 -0.17532253 -0.106042705 -0.19117993 0.1272082
-0.1262776 -0.20801395 -0.10933327 0.18655545 -0.018263904 -0.10096187 -0.027996238 0.18159358
0.013472468 -0.21696529 -0.2227129 -0.07642943 0.052927077 0.045602083 -0.06123531 -0.18048847
0.16266865 -0.03584513 -0.24929246 0.16285396 -0.21349481 0.2230793 -0.22418979 -0.24372962

conv1.lin_edge_compact.ap__downlink__ue.1.0.bias f4 [31]
00000000: a63e a83e 88dc 623e f7fa 1c3e 9bda 43be
00000010: da96 123e 328d 0fbe b70e 0f3e dad1 0abe
00000020: b0db aa3d 102d 32be ba1b 62be b02c 73be
00000030: 9d24 44be 5c62 a63e df8d 0c3e 80d3 ce3c
00000040: fb2b 82be fddd 7dbc 6037 a43d 9b12 f23d
00000050: 1418 533e b38f a3bd 9eb2 093e 6926 ec3e
00000060: e77a b6bd b0f1 823d 561a a73e 63c6 193e
00000070: 3a63 e83d f34c 51bd 3d4f 8c3d
0.32860297 0.22154438 0.1533011 -0.1912636 0.14315358 -0.14018705 0.13970457 -0.13556615
0.08342683 -0.17400002 -0.2208089 -0.23747516 -0.19154592 0.32496917 0.13725995 0.025247335
-0.2542418 -0.015494821 0.080183744 0.11819955 0.20614654 -0.07986393 0.13447043 0.46123055
-0.089101605 0.063937545 0.3263728 0.15017085 0.11347051 -0.051098775 0.06851051

conv1.lin_node_upd.ue.0.0.weight f4 [16, 1]
00000000: bece 1cbf a09a 223e 488e 06be e83b 54bf
00000010: 80dc 8dbe cd87 7a3c 28d1 11be 2540 e73e
00000020: 9c86 383f 20ec f53e 9015 b8bd 5cbb 86be
00000030: 7860 0dbf a5cb f33e 72d4 7d3f 680b e73e
-0.61252964 0.15879297 -0.13140213 -0.8290391 -0.2770729 0.0152911665 -0.14239943 0.45166126
0.720804 0.48031712 -0.08988488 -0.2631482 -0.55225325 0.47616306 0.9915229 0.4512589

conv1.lin_node_upd.ue.0.0.bias f4 [16]
00000000: 30f9 81bd 6302 933e eeb8 2dbf ded2 12bf
00000010: e6d4 013f 5164 b9be 90bf fb3d aab9 f23e
00000020: af80 26be ce5a 883f 047b d3be 706f 06bf
00000030: a85e 333f 6b92 b2be 97b2 1c3f b1da 2bbf
-0.06346357 0.28712758 -0.67860305 -0.5735301 0.5071548 -0.36209348 0.12292397 0.47407275
-0.16260026 1.0652711 -0.4130479 -0.5251379 0.7006631 -0.34877333 0.61210006 -0.6713057

conv1.lin_node_upd.ue.1.0.weight f4 [31, 16]
00000000: d0db 3bbe 0841 46be 363a 153e 007b 513c
00000010: 40a0 91bd 6617 513e 127e 663e 6b49 1dbd
00000020: b141 bb3d 88dc 783e e4d7 4fbe 4686 3bbe
00000030: 4036 d5bd cd4f e83d 6e18 023d ddd3 b0bd
00000040: 1cb1 fbbd d213 75be 3845 91bd 8067 30bd
00000050: a20b 583e 364f 5cbe 003f 9ebc e01c 283d
00000060: 1209 26be d00f 0b3d 94b1 103e f6dc 7d3e
00000070: ee9d 023e 40b2 113d 90ff b6bc 6e67 283e
00000080: 0094 2bba 4e08 183e 80f5 723b b4a5 40be
00000090: ace2 6a3e 8471 bdbd ac48 9ebd 72c5 4f3e
000000a0: c1f7 693e ef68 c03d a8cf 6f3e ccd9 a2bd
000000b0: 08f3 c13d 40ad a63e 2c2d 6a3e 8d1b ac3e
000000c0: 2867 d53d 6f86 39be 98c9 0dbe d2b5 4abe
000000d0: b2bc 503e d7f5 9f3c 880e 543d 4e35 033e
000000e0: 9507 78be 6211 e83d 94b8 3c3e a055 f0bd
000000f0: a080 8b3d 9a56 283e 4dc1 c9bd 5617 553e
00000100: 0edc 6ebe a321 4abe 0431 c5bd 1053 5f3d
00000110: 6edf 223e dd72 68be e047 473c 7ebc 0a3e
00000120: e23e 6abd 531a 85be e852 543d 68d1 ad3d
00000130: 3845 9ebd bf48 f5bd f8fc 1c3e e8a5 ea3d
00000140: 60d0 a23c 0042 79ba a03c b03c 48b6 353d
00000150: 5a7a 233e 1a89 0fbe a44c b93d 84a8 fabd
00000160: b071 b93c dcbc 213e 3804 083e e853 28bd
00000170: 200f afbc 160c 23be 2464 49be c8d0 df3d
00000180: 8078 9dbd 73df 50be 824f 433e acb5 d33d
00000190: f2e2 0bbe 6931 953d b481 8fbd ea7f b43d
000001a0: 8aed b63d 457f 4bbe 04c0 563e 40e9 febb
000001b0: 0820 4fbe a26e a53d 98f5 543d 7628 0abe
000001c0: c6a1 35be 6802 c83d 00b9 27bc 588d 2d3d
000001d0: 285c d83d 98b9 c4bd 8a9d 643e eeb8 a83e
000001e0: 3156 953e d091 103e 882c bebd 4025 56bd
000001f0: 32ec 283e 2873 9c3e 56f2 783e a83a 8c3d
00000200: 2876 723e 1853 233e 5058 963d b0ea 613e
00000210: 482c 0a3d 2052 05be 6cda d43d 402d 3d3e
00000220: 9814 033e 44cb 48be a498 8bbd 40c6 913d
00000230: 5ee6 78be 5ca8 5ebe 2807 8e3d f64f 6ebe
00000240: 78ee 17bd a8cd f9bd 1423 dc3d 2864 3d3d
00000250: 6e27 70be 045c 123e 6883 e33d 408f 5b3d
00000260: d6d3 55be 44bc bebd 2437 ec3d a814 943d
00000270: 6098 ddbd 7cc6 0f3e 707b 2ebd 1e21 643e
00000280: 9cf1 2ebe 45cd 903d 6826 24bd 0e36 1ebe
00000290: 4034 a53c feff 9e3d fa29 1e3e 4c00 37be
000002a0: e9eb 893e 795b af3d 80e7 f8bc 5c5f 613e
000002b0: b68a 74be 1c04 cfbd 3707 923e 1b16 6cbd
000002c0: c4dd ccbd 9855 3f3d d60f 0fbe 4897 313e
000002d0: 9aff 483e 08c4 433d b03b 133d 80b0 aebc
000002e0: 1083 70be 2eb4 133e 6274 473e 3c7e 513e
000002f0: e48a 163e 7057 b5bd 0cd2 d5bd 60ba 9f3c
00000300: 342a e8bd d118 7dbe 54f7 adbd 14ad 1f3e
00000310: ca98 5d3e d8ed 253e ea1b 463e 48ec 9c3d
00000320: 98be 39be 1a46 62bc a2d1 133e 88f6 8f3d
00000330: c015 383d 6d2a a5bd 0e86 113d 5cbd 693e
00000340: b2d3 5bbe 2a91 823e 4299 183e b085 d13c
00000350: 004c d63b ecfa 073e d6b0 35be 8a79 8f3e
00000360: 37f6 dd3c 8572 873e d448 863d 8219 393e
00000370: 564d 5d3e 82c4 b33e 2d3b 9a3e 7366 9f3c
00000380: 5410 423e e423 363e d456 6ebe 046e 6e3e
00000390: a835 953d 8cd5 693e f8ab 0a3d 92e0 343e
000003a0: e661 32be 228b 15be 2429 d73d 80f6 423c
000003b0: 2671 15be 4679 023e 40ce c4bc 48ea 7ebd
000003c0: 982a 033e 38cf 4c3d bc4f 30be 2038 78be
000003d0: d4a7 b83d d82c 043d 607a f5bd d8a5 75bd
000003e0: 8af8 07be 1081 cebc ec6c a93d 62c9 2fbe
000003f0: ae90 05be 3c35 84bd 12e8 5dbe 9e8b 753e
-0.1834557 -0.19360745 0.14572987 0.012785673 -0.071106434 0.20419082 0.2250903 -0.038400095
0.09143389 0.24302876 -0.202972 -0.1831294 -0.10410738 0.11343346 0.03176158 -0.0863416
-0.1228964 -0.23933342 -0.070932806 -0.043067455 0.21098188 -0.21514592 -0.01931715 0.041043162
-0.16214398 0.033950627 0.1413024 0.24791321 0.12755558 0.035570383 -0.022338659 0.16445705
-0.0006545186 0.14846918 0.00370726 -0.1881321 0.22938031 -0.09250167 -0.07728705 0.20290163
0.22848417 0.093950145 0.23419058 -0.07951698 0.09470183 0.32554054 0.22868794 0.3361477
0.10420066 -0.18117689 -0.13846433 -0.19795921 0.20384482 0.019526405 0.05177167 0.12813303
-0.24221642 0.113314405 0.18429786 -0.11735082 0.06811643 0.16439286 -0.09851322 0.20809683
-0.23326132 -0.19739394 -0.096284896 0.054522574 0.15905544 -0.22700067 0.012163132 0.13548467
-0.057188876 -0.25996646 0.051836878 0.08487207 -0.07728046 -0.11976766 0.15330875 0.11457425
0.019874752 -0.0009508431 0.021513283 0.04436329 0.15964642 -0.14017144 0.09047821 -0.12239173
0.022637218 0.157947 0.1328286 -0.041095644 -0.021369517 -0.15922579 -0.19667107 0.10928494
-0.07688999 -0.20397739 0.19073299 0.103373855 -0.13660792 0.07284815 -0.07007161 0.0881346
0.08932026 -0.19872768 0.20971686 -0.0077792704 -0.20227063 0.08077742 0.05199203 -0.13491997
-0.17737493 0.09766084 -0.0102369785 0.042371124 0.105644524 -0.09605712 0.22325721 0.3295359
0.2916732 0.14118123 -0.092858374 -0.052281618 0.16496351 0.30556607 0.24311194 0.06847125
0.23677886 0.15949667 0.07341063 0.22062182 0.033733636 -0.1301961 0.10393223 0.18474293
0.12800825 -0.1960879 -0.06816223 0.07117891 -0.24306628 -0.21743912 0.06934959 -0.2327269
-0.037092656 -0.12197429 0.10748878 0.046238095 -0.23452541 0.14292914 0.11109048 0.05360341
-0.2088159 -0.093132526 0.11533955 0.07230502 -0.10820079 0.1404056 -0.042598188 0.22278258
-0.17084354 0.07070402 -0.04007569 -0.15450308 0.020166516 0.077636704 0.154457 -0.17871207
0.26937798 0.08562369 -0.030383825 0.22009033 -0.23881039 -0.10108206 0.2852113 -0.05763827
-0.10003236 0.046712488 -0.13970885 0.17342865 0.19628754 0.04779437 0.035945594 -0.021324396
-0.23487496 0.14424202 0.1947799 0.20458311 0.1470142 -0.08854568 -0.10440454 0.01949805
-0.113361746 -0.24716498 -0.0849444 0.15593368 0.21640316 0.16204011 0.19346586 0.076622546
-0.18139112 -0.013810659 0.14435437 0.07029444 0.044942617 -0.08064733 0.035528235 0.22826141
-0.21467474 0.25501376 0.14902213 0.025576442 0.0065398216 0.13279313 -0.17743239 0.28022414
0.027094943 0.2645456 0.065568596 0.18076137 0.21611533 0.3511086 0.30123273 0.019458031
0.18951541 0.17787129 -0.2327531 0.23284155 0.07285625 0.22835368 0.03385541 0.17663792
-0.17420158 -0.14603856 0.10505894 0.0118995905 -0.14593944 0.12741575 -0.024024129 -0.062235147
0.12809217 0.050002307 -0.17217916 -0.2424016 0.09016386 0.03226933 -0.11986232 -0.059972614
-0.13278404 -0.025208026 0.08272728 -0.17166665 -0.13043472 -0.06455466 -0.21670559 0.23979041

conv1.lin_node_upd.ue.1.0.bias f4 [31]
00000000: 5920 cc3d 7aa9 623e 25f9 a23e 52e4 3a3e
00000010: 0d18 5bbe c079 dabd edbb b6bd b9fb 5d3e
00000020: 0010 1239 9ee4 0b3e 421e 5f3e e0b8 503c
00000030: 7f6f 47be be1a 123e 688e 2f3e a0e4 bc3c
00000040: ac0a d43d e259 d5bd 94fc c23d a0e7 9c3d
00000050: f994 953d 86d7 573c c2df d1bd 0051 7a3c
00000060: 0c3c 44be c7d7 dbbc 340f 8cbd bf0d 25bd
00000070: 0881 903d 0a2a 54be 5e5f bc3d
0.09967107 0.22134963 0.31830707 0.1825116 -0.21395893 -0.10667753 -0.08922563 0.21678056
0.00013929605 0.1366143 0.21788886 0.01273939 -0.19476126 0.14268014 0.17144167 0.023058236
0.10353598 -0.104175344 0.09520832 0.076613665 0.07303805 0.013173943 -0.102477565 0.015278101
-0.19163531 -0.02683629 -0.06838837 -0.040296312 0.07055861 -0.20719162 0.09197877

conv1.lin_node_upd.ap.0.0.bias f4 [16]
00000000: 0000 0000 0000 0000 0000 0000 0000 0000
00000010: 0000 0000 0000 0000 0000 0000 0000 0000
00000020: 0000 0000 0000 0000 0000 0000 0000 0000
00000030: 0000 0000 0000 0000 0000 0000 0000 0000
0.0 0.0 0.0 0.0 0.0 0.0 0.0 0.0
0.0 0.0 0.0 0.0 0.0 0.0 0.0 0.0

conv1.lin_node_upd.ap.1.0.weight f4 [31, 16]
00000000: 64db dfbd 286f 1abe 30f0 703e ea60 603e
00000010: 60bb 793e 5621 633e 50c0 8bbd 4ac9 5c3e
00000020: 323a 0bbe 549b 8e3d d498 61be c0a1 7dbc
00000030: daf6 4f3e 1a34 69be bc21 c83d 3293 503e
00000040: 8c35 993d 9ecc 1fbe 0ad6 133e 509c 9e3c
00000050: 006c 263e 40cb f1bd 20e3 70bd 4cc5 b73d
00000060: 4071 183c 820e 5a3e 7aee 2b3e 8225 513e
00000070: 2e94 7c3e ecd6 40be 4042 b0bb 7424 0a3e
00000080: ae28 153e 4eef 19be 80eb 3e3c 0c39 6dbe
00000090: 509a 6b3d 1e20 3dbe 0cd1 333e 7e17 183e
000000a0: c08e 27bc e034 10bc f094 edbc 408c 413e
000000b0: 0088 d2bd 5c05 853d 6e34 0f3e fcab d23d
000000c0: 4cac 873d b88e 6abd d809 d0bd 5835 c1bd
000000d0: f44f c9bd 82ef 56be ee48 64be 727e 3a3e
000000e0: dc7d 75be 4027 ffbb 8850 683e 9af4 293e
000000f0: 38b1 0ebd 9098 603d 7884 08bd 0402 4b3e
00000100: 28d6 0b3e 602c 113d 4034 3a3e 14eb c4bd
00000110: 4c27 e3bd 4093 473e c282 183e 845b f83d
00000120: 407e c93d c0c2 65bc 04b7 ad3d 4859 7cbd
00000130: 0042 1bbd 8085 63bc d09e 59be 5cce ac3d
00000140: 52c0 4dbe c07f f0bd 80c1 ca3b 2c0d 9dbd
00000150: 9813 7d3e 18fe 64bd 10be da3d b460 ddbd
00000160: 3e32 583e 8c7a 353e 74d1 9b3d 2028 493c
00000170: 7667 073e 20e6 3fbc f09f 20bd 507b 913d
00000180: 0223 5abe d45e 8fbd eedd 13be 4027 833b
00000190: 7096 ea3d 46ac 18be e0b9 05be f83c 31bd
000001a0: c4e4 68be 8050 18bc 4034 8a3c 88d5 f23d
000001b0: c8a0 663d 3004 32be 0ccd 903d 268c 403e
000001c0: beff 20be 78f5 613d 5035 903d aa18 0cbe
000001d0: 5cc7 a83d 802e 103d e0e5 3d3e ccd5 d33d
000001e0: 3070 703d 804a fd3c e8e2 cebd 08ef 01be
000001f0: a034 15bc 2029 3c3e 228e 763e f09f 60bd
00000200: 88b3 56bd 94c3 433e 6e4f 0d3e 30d2 be3d
00000210: 108e 9a3d bcd0 d13d 1cc2 3b3e 50d9 8b3d
00000220: acad b33d f881 673e bc8c 5abe 8078 44bd
00000230: 9c39 cabd 0e10 2dbe 94aa dbbd 008d 583d
00000240: 8414 1c3e facd 19be c8d3 20be 7430 c73d
00000250: e099 edbd ec66 9c3d 2c1f fc3d e845 51bd
00000260: f0a0 413e 2a50 303e ea13 2b3e cac3 6dbe
00000270: b423 a03d 981b 3dbe 0cc2 2c3e b203 25be
00000280: 9467 c23d 2848 8e3d a43e 95bd a4d1 8a3d
00000290: 7cd7 183e 8c88 843d 4687 6b3e cae2 35be
000002a0: 60d6 713c 543d 173e 9e9c 443e aa32 683e
000002b0: 640c b9bd 8e3b 4e3e 6e0c 563e 005a 9f3d
000002c0: bc65 bdbd 2cdb 5d3e ee7a 21be 40be 15bd
000002d0: 6c2f 68be e4bc af3d 66fa 073e c0dd 26bd
000002e0: 9095 1e3e b893 18bd 1a09 2f3e 2028 563e
000002f0: a443 fd3d 8213 60be b830 0b3d c892 b6bd
00000300: c055 2ebe 8e3a 2bbe ee59 573e 6c4f cebd
00000310: e85b d03d 70f7 f2bc e0ee 24bc c60b 513e
00000320: 5c06 5ebe 7a53 583e 2843 9a3d 7cc2 13be
00000330: e843 e2bd 703e 6fbd e0cd 313c 6087 593d
00000340: 18c3 3a3e 6e67 22be a4e0 723e 426c 2ebe
00000350: 9ad0 13be 10cf 30bd 18fb 19bd 823e 783e
00000360: 6464 23be d887 eb3d 2676 41be 503c 50bd
00000370: 9678 773e d8a8 413e 3a29 043e 48e6 4f3d
00000380: 0663 393e 7202 653e a873 22be f0cd 903c
00000390: 5a6e 623e 8032 9cbd a245 7ebe 6477 c7bd
000003a0: 9cc2 28be c078 393e ce86 003e cea4 413e
000003b0: 1840 c63d 8ca2 2dbe c0b2 b73d 2016 1a3e
000003c0: 48f3 40bd 68a1 6fbe 92e7 0fbe f483 f0bd
000003d0: 002a cf3b 388e 303e b665 03be cccd 2a3e
000003e0: 98d7 233e 8a26 1dbe e0d8 a03c 88a9 bfbd
000003f0: 4284 7c3e c807 683e 1417 42be f833 323e
-0.10930517 -0.15081465 0.23529124 0.2191197 0.24387884 0.22180685 -0.0682379 0.2156116
-0.13596418 0.0696322 -0.22030956 -0.015480459 0.2030901 -0.22773781 0.09772059 0.2036865
0.074809164 -0.15605399 0.14437118 0.019361645 0.16252136 -0.11806345 -0.058810353 0.08973178
0.009304345 0.21294597 0.1679019 0.20424464 0.24665901 -0.18831986 -0.0053789914 0.13490468
0.145663 -0.15032694 0.011652827 -0.23166293 0.05752021 -0.18469283 0.17560214 0.14852712
-0.010226905 -0.008801669 -0.029001683 0.18901157 -0.10279846 0.06495163 0.13984844 0.1028671
0.0662466 -0.057265013 -0.101581275 -0.09434003 -0.09829703 -0.20989802 -0.22293445 0.18212298
-0.23973793 -0.0077866614 0.2268697 0.16597214 -0.034836978 0.054832995 -0.033329457 0.19824988
0.13655913 0.03544271 0.18183994 -0.0961515 -0.1109148 0.19489765 0.1489363 0.1212683
0.098385334 -0.014023483 0.08482173 -0.061608583 -0.03790474 -0.013886809 -0.21251988 0.084377974
-0.20092896 -0.117431164 0.006187618 -0.07668528 0.24714506 -0.055906385 0.10680783 -0.1080946
0.21112916 0.17722529 0.076083094 0.012277633 0.13223061 -0.011712581 -0.03921503 0.07103598
-0.21302417 -0.07000509 -0.14440128 0.0040024817 0.11454475 -0.14909467 -0.13059187 -0.043271035
-0.22743517 -0.009296536 0.016870618 0.11857134 0.056305677 -0.1738441 0.070703596 0.18803462
-0.15722558 0.055165738 0.070414186 -0.13681284 0.0824115 0.035200596 0.18544722 0.10343513
0.05870074 0.030919313 -0.10101873 -0.1268884 -0.009106785 0.18375063 0.24077657 -0.05484003
-0.052417308 0.19117576 0.13799831 0.09317434 0.075466275 0.10244891 0.18335766 0.068285584
0.0877336 0.22608173 -0.21342748 -0.04796648 -0.09874269 -0.16900656 -0.107258946 0.052868843
0.15242201 -0.1501998 -0.15705788 0.097260386 -0.11601615 0.07636818 0.12310633 -0.05109206
0.18909049 0.1721808 0.16706815 -0.23219219 0.0781931 -0.18467557 0.16870898 -0.16114691
0.09492412 0.069473565 -0.072873384 0.06778267 0.14925951 0.06471357 0.23000821 -0.17762294
0.014760584 0.14769489 0.1920037 0.22675577 -0.090355664 0.20139906 0.20903179 0.07780838
-0.0924792 0.21665639 -0.1576955 -0.03655839 -0.2267434 0.0858095 0.13279113 -0.04073882
0.15486741 -0.03725025 0.17093316 0.20913744 0.12366417 -0.21882442 0.03398201 -0.08914715
-0.17024899 -0.16721556 0.21030399 -0.10073742 0.1017378 -0.029659003 -0.010066718 0.20414647
-0.21682113 0.21125594 0.0753234 -0.14429659 -0.11048108 -0.058409154 0.010852307 0.05310762
0.18238485 -0.15859768 0.23718506 -0.17033485 -0.14435044 -0.04316622 -0.037592977 0.24242595
-0.15956265 0.115005195 -0.18892726 -0.05083877 0.24167094 0.18912065 0.12906352 0.050756723
0.1810418 0.22364214 -0.15864432 0.017676324 0.22112408 -0.076268196 -0.2483125 -0.09739569
-0.16480488 0.18112469 0.12551424 0.18910524 0.09680194 -0.16956538 0.08969641 0.15047503
-0.04710701 -0.23401415 -0.14053181 -0.11743918 0.0063221455 0.17241752 -0.12831768 0.16680068
0.16000211 -0.15346733 0.019634664 -0.093585074 0.24659827 0.22659218 -0.18954116 0.17402637

conv1.lin_node_upd.ap.1.0.bias f4 [31]
00000000: d885 42be 08f6 09bd 4c24 4f3e b27e 67be
00000010: b6c3 533e a01c 31be 086d 6bbe 10b8 d83c
00000020: 68dd 0f3e 6e0b 743e bc67 1f3e 8433 f3bd
00000030: 2614 523e 5e89 22be b02e dd3d b0e8 743d
00000040: 9458 a13d 148a 843d 1012 56be d075 6e3e
00000050: fc0a 6bbe 544c f0bd 0ae9 073e 727a 7c3e
00000060: 2024 003d 707b d03d 4aa7 2f3e 1cf0 91bd
00000070: fc86 d2bd 40ba c0bb 5ec9 3d3e
-0.1899637 -0.0336819 0.2022869 -0.22606924 0.20680127 -0.17296076 -0.22990811 0.026454955
0.14049304 0.23832485 0.15566915 -0.1187506 0.20515499 -0.15872714 0.107999206 0.05979222
0.07878223 0.06471649 -0.20905328 0.2328713 -0.22953409 -0.117333084 0.13272491 0.24656084
0.03128445 0.10179794 0.1715366 -0.07125875 -0.102796525 -0.0058815777 0.18533847

conv2.lin_node_msg.ue.0.0.weight f4 [16, 32]
00000000: e015 243d dcbb fa3d eb08 b7bd 4d17 233e
00000010: 315a 053e daaf bd3a e920 babd 7972 9e39
00000020: 1d9c ee3d 4afc 2a3e 6133 0a3a 0657 a3bd
00000030: 3bf3 6ebd e065 a93d 6c65 6cbd f126 abbc
00000040: 60d1 73bb cbd9 c7bd c859 aabd 4c59 2a3e
00000050: ae0a 133e 1f40 adbd 9895 683d cf09 bc3d
00000060: 5c39 273e bc78 ec3c 335e cebd 002c 0bbe
00000070: 1bd2 623c f5b8 c33d d2c0 d0bd c509 52bd
00000080: ad2d 033e ca65 ee3d 4b37 9639 00a2 abbd
00000090: 67a5 7bbd 18b9 d538 e5f7 ad3d 1d62 063d
000000a0: 6bc1 933d 861a 0fbe c600 4e3d b178 1e3e
000000b0: 60e0 d4bd bd33 9a3c 0448 8f3c 1d28 05be
000000c0: a4f3 323e 8fb5 55bc 030a d0bd 402a bbbd
000000d0: e7bb dd3d c345 ce3d 781e 04be 639f 34be
000000e0: 2fef 903d 50de 05be b1c3 bb3d 8a8b fd3c
000000f0: 2d30 c5bb c6b6 ea3d 4efb a93d 08d0 983d
00000100: bb1d 11bd 2b34 6c3d 46bf 993d b2ac 11be
00000110: a592 abbb f653 1ebe 0bc3 bd3d de4b 01bd
00000120: ecd5 f2bd bc10 bebd 1ce8 783d 6a35 5abd
00000130: 5562 dbbd aa90 cb3c 108c 9e3d f8c9 2e3e
00000140: 83d2 dcbd 211f 943d 2316 12be 9273 1dbe
00000150: 948f acbd 918a d53d 720b 203e aac0 9c3c
00000160: cb74 cc3d 7648 99bd 60d2 b13d e606 5a3d
00000170: 1e39 2ebe 029d 1cbe ee8e 0b3e 6df1 b43d
00000180: 9c05 fd3d 7433 0b3e 2d93 ab3d 950b 80bd
00000190: 5a96 2c3e 6e98 2fbe cfc1 603c 4d50 a8bd
000001a0: 3938 063e 3552 623c 5f22 203e 6880 93bd
000001b0: f617 01be 50ca 30be 6fca 13bd 513e 84bd
000001c0: 1268 ac3d 0d89 c53d f13f 2fbe 4d9d a6bd
000001d0: 4ccb 2c3d 4f4d a63b 85b4 98bd d59b 0bbe
000001e0: 6e4d cabc 9ef8 1abe ea86 a03d cf34 bcbd
000001f0: c106 43bd ea84 803d 9370 ddbc c948 2bbe
00000200: 13e7 dcbd 7515 b9bc 9348 cd3c 3fcd 2b3c
00000210: 538b ce3c f05b 2cbe a180 413d 8145 0b3e
00000220: ea8f 29be e6b7 01be 0278 703d f0a3 a0bd
00000230: b48b 4d3d ea9e e33d f649 7cbd ae9e 323e
00000240: 3f34 a73d bb89 9e3d 5728 583d 823f 103e
00000250: d48b 98bc 53b4 bbbb 6640 d73d 0fa5 8e3d
00000260: 1938 433d f809 06be 5b68 08be 7259 1cbd
00000270: 843f 963c a477 d7bd 425a aa3d 818c 89bc
00000280: a115 a7bd 959a 76bc cf4f 5cbd c105 c0bd
00000290: 2812 8abd c79e 0ebe c1e7 89bd e72c ce3d
000002a0: d288 1f3e 7eb5 1c3e 15ea 263e db23 6d3d
000002b0: 78fb 1bbe 7db9 0abe aaa8 babd f998 003e
000002c0: da2d f0bd a17e 043e 0886 cebd 1edc a7bb
000002d0: 25da eb3d d11e 61bd ae5f b3bd 4103 143e
000002e0: b381 0bbe b94e 763d b5cc 24be c65d 0d3e
000002f0: 374b 01be e758 8abd 95d0 ad3d 04c9 873b
00000300: a485 81bd ebf5 5f3d 0d7c 4a3c dcdf c9bd
00000310: ebb7 1f3d f574 db3c 7371 17bd e2cf 6dbd
00000320: d1f7 703d a8eb 613d dc61 02be dcde df3d
00000330: d600 83bd 5bb2 ff3d 0872 09be 6c63 85bd
00000340: 225e 0bbe eb0e 4e3d aeaa 933d 9d59 a23a
00000350: 4ad2 d0bc 7937 ca3d 94a4 b5bb 3f67 1f3e
00000360: 5096 163e 8930 eabd 1077 d23d a451 6d3c
00000370: d517 7a3c 21c0 e6bd 8d4b e93d fa4a ebbc
00000380: f3ad a0bd cb95 093e 9768 c9bd 9dae 2abe
00000390: 2277 ff3d 6780 253d 5ab2 29be 14c9 b63d
000003a0: de66 0c3e 9f45 2ebd 7a06 043e 0bee 13be
000003b0: 67f8 30be b62b 283e c663 e2bd 4f16 8d3d
000003c0: a0e2 893d f3e7 d33c 6c2d f63d 965d 5e3d
000003d0: 240b 043e 9555 333e 0a18 983c 4cc4 afbc
000003e0: 98cb 97bd e322 2a3e 8df4 2dbe 9696 cb3d
000003f0: 2b21 fcbd 2522 6bbd 8e27 13bc aac6 dd3d
0.040059924 0.122428626 -0.08937248 0.15926857 0.13022687 0.0014471964 -0.09088308 0.00030221397
0.1165087 0.16697803 0.0005271938 -0.07975583 -0.05833743 0.08271384 -0.05771391 -0.020892592
-0.0037203655 -0.097583376 -0.08317906 0.16635627 0.14359543 -0.08459496 0.05678329 0.09181558
0.16330475 0.028866164 -0.10076561 -0.13591003 0.013844038 0.09556762 -0.101930276 -0.05127885
0.12810393 0.116405085 0.00028651426 -0.083805084 -0.061437037 0.00010191108 0.08494548 0.032808412
0.07214626 -0.13974962 0.050293706 0.15475728 -0.10394359 0.018823499 0.017490394 -0.13003583
0.17475754 -0.013043775 -0.101581596 -0.09138918 0.10826855 0.100719 -0.12902248 -0.17638926
0.07076871 -0.13073087 0.091681845 0.030950326 -0.006017706 0.114606425 0.08299886 0.07461554
-0.035428744 0.05766694 0.07507186 -0.14226034 -0.0052359872 -0.15461716 0.09265717 -0.031566493
-0.118572086 -0.092805356 0.06076823 -0.053273596 -0.10712115 0.024849255 0.077415586 0.17069232
-0.107823394 0.072325 -0.14266257 -0.15376118 -0.08425823 0.1042682 0.15629366 0.019134838
0.09983214 -0.07484524 0.08682704 0.053229235 -0.17013976 -0.15294269 0.13628742 0.08835111
0.123545855 0.13593847 0.08377681 -0.06252209 0.1685423 -0.17147991 0.013718083 -0.08218441
0.13107385 0.013813545 0.15638112 -0.07202226 -0.12606797 -0.17264676 -0.036081728 -0.064571984
0.08418287 0.09645281 -0.17114235 -0.081354715 0.042186067 0.005075134 -0.07456306 -0.13633664
-0.024695124 -0.15133902 0.07838233 -0.0918976 -0.047613863 0.06275351 -0.027031219 -0.16726984
-0.107862614 -0.02259324 0.02505902 0.010485946 0.02521292 -0.16831946 0.04724181 0.13600732
-0.16558805 -0.12667808 0.0587082 -0.078437686 0.05018206 0.11114295 -0.061593972 0.17443344
0.08164262 0.07741114 0.052772846 0.14086726 -0.018621363 -0.0057282834 0.1051033 0.06965076
0.04766092 -0.1308974 -0.13321058 -0.03817124 0.018340833 -0.105208665 0.083179966 -0.01679063
-0.08158422 -0.015051504 -0.05378705 -0.093760975 -0.06741744 -0.13927756 -0.06733657 0.10067158
0.15579537 0.15303609 0.16300233 0.057895523 -0.15232646 -0.1354732 -0.09114201 0.12558354
-0.117274955 0.1293893 -0.10084158 -0.0051226756 0.11516217 -0.05496103 -0.08758484 0.14454366
-0.13623695 0.06013367 -0.16093715 0.13805303 -0.12626348 -0.06755238 0.084870495 0.004143836
-0.06324318 0.054677885 0.012358678 -0.09857151 0.038993757 0.026789168 -0.036973428 -0.05805958
0.058830086 0.05515638 -0.12732643 0.10931179 -0.06396644 0.124851905 -0.13422406 -0.06513104
-0.13610128 0.050307196 0.07210289 0.0012386326 -0.025490899 0.09873862 -0.005543301 0.15566729
0.14705777 -0.114350386 0.102766156 0.014484797 0.015264471 -0.112671144 0.11391363 -0.028722275
-0.07845678 0.13436048 -0.09834402 -0.16668172 0.12473895 0.040405657 -0.16571942 0.08925071
0.13711116 -0.042546865 0.12893096 -0.14446275 -0.17282258 0.16422924 -0.110541865 0.06889021
0.067326784 0.025867438 0.12020382 0.05428847 0.12894875 0.17513116 0.01856615 -0.021455906
-0.07411879 0.1661487 -0.1698782 0.09940831 -0.12311014 -0.05740561 -0.008981599 0.10828908

conv2.lin_node_msg.ue.0.0.bias f4 [16]
00000000: 386f d6bc 7781 e8bd 994f 343d aba2 1fbe
00000010: 02ef 8e3d 55de 00bc 62e5 e03c 30a9 05be
00000020: e35c a83d 8087 933d 2d5f 2c3c 051d 0ebe
00000030: 0cf7 2abe c15e a8bc 1947 2a3d cb93 11be
-0.02617608 -0.113528185 0.044021223 -0.15589397 0.06979181 -0.007865508 0.027453128 -0.13052821
0.08220842 0.07203579 0.010520739 -0.13878258 -0.16695803 -0.020552995 0.04157171 -0.14216535
