Model/1000sam16batch_gpu (1).pth (torch, 121314 bytes, 79 tensors)

conv1.lin_node_msg_compact.ue.0.0.weight f4 [16, 1]
000000 9e 2b fb 3e 20 72 3f be fa 4c 87 3f c0 0f e7 be
       0.49056715 -0.18695879 1.0570366 -0.45129204
000010 7c ec 0d 3f 25 0e 57 3f 18 f0 53 3f 52 ea 39 bf
       0.5543897 0.8400596 0.8278823 -0.7262317
000020 73 4c 0c 3f 18 04 6f be c0 0f 18 bd c4 15 35 bf
       0.5480415 -0.23341405 -0.037124395 -0.70736337
000030 40 a9 66 3f d8 7e 08 bf f2 11 75 bf f0 8f 03 be
       0.90102005 -0.5331855 -0.9573051 -0.12847877

conv1.lin_node_msg_compact.ue.0.0.bias f4 [16]
000000 ac ae 44 3f 48 2b 14 3e 8b c3 fa 3d 84 0e 4a bf
       0.7682903 0.14469635 0.12244328 -0.789284
000010 66 80 fa 3d 54 6a fd be ca 77 f9 be d6 fe 6c bf
       0.12231521 -0.49495184 -0.48724204 -0.9257635
000020 d2 78 29 3f 82 be 31 bf 58 d6 1f 3f c8 9b 14 be
       0.6619998 -0.69431317 0.6243644 -0.14512551
000030 60 bc 97 be a8 0a e8 be 92 08 27 3f 20 9e b7 3e
       -0.29635906 -0.4532063 0.6524745 0.35862827

conv1.lin_node_msg_compact.ue.1.0.weight f4 [32, 16]
000000 d7 04 2a be 80 91 32 3d 7b 9d 74 3e 04 cd a5 bd
       -0.16603409 0.04359579 0.23888199 -0.08095744
000010 63 a4 39 3e 9d 44 0f 3d ef 1d a1 3d c0 4d 74 3c
       0.18129115 0.034977544 0.078670375 0.014911115
000020 94 22 6f bd 4c 47 6e be 58 8e 89 3d 0e 00 14 3e
       -0.058382586 -0.23269385 0.06716603 0.14453146
000030 16 41 73 be 60 cb 32 bc fa 2c 08 be 10 6e de bd
       -0.23755297 -0.010912746 -0.13298407 -0.108608365
000040 ad c4 af 3d 4c 84 8f bd f5 6f 93 3e c6 0e 33 be
       0.08582435 -0.070076555 0.28796354 -0.17486104
000050 23 0c 0a 3d bc df 7f 3e 0f 11 93 3d 0a f7 55 be
       0.03370298 0.24987692 0.07180988 -0.20895019
000060 ce 35 86 3e 90 09 84 bc 0a ab 45 3e d0 90 9d bc
       0.26212925 -0.016117841 0.19303527 -0.019234091
000070 29 af ae 3d 20 08 56 3d c0 fe 01 3d 14 1e c7 bd
       0.08529503 0.052253842 0.03173709 -0.09722534
000080 e9 c6 4b be 4e 41 56 be 42 ae 28 be 50 32 fb 3c
       -0.19900097 -0.2092335 -0.16472724 0.03066364
000090 34 3f f8 3d 9a 46 df 3d db 13 11 3e e2 37 58 be
       0.1212143 0.10902138 0.1416773 -0.21115068
0000a0 00 0d 4f be 88 94 d9 bd 80 86 e9 bb 14 c9 65 3e
       -0.20219803 -0.10624033 -0.0071266294 0.22439986
0000b0 67 37 bd 3d c8 4e 87 3d 08 d3 1f 3e 30 0b 8d bc
       0.09239083 0.06606823 0.15607846 -0.017217249
0000c0 7e 07 57 be 30 57 3e 3e 60 a9 94 bc 10 87 e5 3d
       -0.20998952 0.18587947 -0.01814717 0.11207402
0000d0 80 5a 6c 3c 70 c5 4e be 40 94 12 be 20 fb d4 3c
       0.014425874 -0.20192504 -0.14314365 0.025998652
0000e0 60 ae 35 bc 9c 38 93 3d 12 ca 0c be d0 09 e5 3d
       -0.0110889375 0.07188532 -0.13748959 0.11183512
0000f0 40 d1 4d 3e b6 d6 5f 3e 80 3a 9c bd 6a b3 47 be
       0.20099354 0.2185925 -0.076283455 -0.19502035
000100 ac b6 52 3e 68 15 97 3d 4e ab 70 be f4 3c 00 be
       0.20577496 0.0737713 -0.23502848 -0.12523252
000110 26 28 4b be a6 1f 27 3e b8 9f de 3d 20 aa d6 bd
       -0.19839534 0.16320667 0.10870308 -0.104816675
000120 c0 b6 ce bc 8e c0 0b 3e 50 85 8e 3d c8 1d 7f 3e
       -0.025233626 0.13647673 0.06959021 0.24913704
000130 70 94 6e be 60 b0 27 3d 70 aa 5d be 20 fc db bc
       -0.23298812 0.04093969 -0.21647048 -0.026853621
000140 f9 aa 8c 3e e0 14 79 be 37 4d b4 3e 4a df 29 3e
       0.27474192 -0.2432437 0.3521516 0.16589084
000150 d9 4d 4a 3e 35 eb 31 bc 95 57 a1 3e 2c a2 f2 3d
       0.19756259 -0.0108593 0.31512132 0.11847338
000160 62 4c 3b 3d e0 c9 33 3c 1c 36 a4 3d e4 1f 20 be
       0.04572714 0.010973424 0.08018133 -0.15637165
000170 0c a4 cf 3d 00 b7 1c bd 80 a9 7a 3d a0 2d 0e 3c
       0.10138711 -0.03826046 0.061196804 0.00867787
000180 7e fe 7b 3e 48 6a 55 bd bb 8f ed 3e b6 21 0f 3e
       0.246088 -0.05210331 0.4639872 0.13977703
000190 8e 4e 52 3e 37 4e 07 3e cb d5 a0 3e bc 81 b9 3d
       0.20537779 0.1321343 0.3141311 0.09057948
0001a0 e1 df 92 3d 34 87 1b be fa 92 5c 3e d4 bc 51 be
       0.07171608 -0.15188295 0.21540442 -0.20482188
0001b0 dc 92 b7 3d 6e 85 65 3e 78 7d 1f 3e d4 52 4f be
       0.08963558 0.2241418 0.15575206 -0.2024644
0001c0 c2 01 7c 3e d0 cd 2d be e5 45 09 3e e8 4d 66 3d
       0.24610046 -0.16973042 0.13405569 0.05622664
0001d0 94 62 e9 3e 52 95 99 3e 84 ec 90 3e d8 97 85 bd
       0.45583022 0.29996735 0.28305447 -0.065231025
0001e0 6f d9 e2 3e c8 77 6c 3e 9c d7 96 bd ac f7 78 3e
       0.44306514 0.23092568 -0.07365343 0.2431323
0001f0 a8 b2 71 3e 10 be 75 bd 5a 3c 4b be 64 33 63 3e
       0.23603308 -0.05999571 -0.19847241 0.22187573
000200 e7 de be 3e 8e 85 2a be 31 6f 37 3d b8 f3 4e 3d
       0.37279436 -0.1665251 0.044783775 0.050525397
000210 d0 9a 6f 3e 9f 29 90 3d 82 8f 64 3e 80 20 d6 3c
       0.233989 0.070391886 0.22320369 0.026138544
000220 0c 76 45 3e e8 cb 41 be 44 a2 69 be 68 c9 cb bd
       0.19283313 -0.1892544 -0.22815806 -0.099505246
000230 3e 23 ac 3e c0 0d b9 3c 80 19 1d 3e de 70 5e 3e
       0.33620638 0.022589564 0.15341759 0.21722743
000240 98 41 29 bd f8 89 39 be 90 2d 1e 3e bc 11 0c 3e
       -0.04132232 -0.18119037 0.15447068 0.1367864
000250 4c bd a8 3c 56 e5 90 3e 0b 5f 9d 3e 66 5e 24 be
       0.020598076 0.2829997 0.30736575 -0.16051635
000260 23 f3 fd 3d 00 67 ad bd e6 aa 1b 3e f0 c2 3c 3e
       0.1239989 -0.08466911 0.15201911 0.18433738
000270 90 aa 0e 3e a8 b1 af bd 92 87 43 be b8 ce 95 3d
       0.13932252 -0.08578807 -0.19094685 0.07314819
000280 54 11 d2 3e be 02 3a be f5 4f 1f 3c a0 66 e4 3c
       0.41028845 -0.18165109 0.009723653 0.027880967
000290 65 0e 3f 3e 0a 01 da 3e 3a 76 b3 3e f8 33 43 be
       0.18657835 0.42578918 0.35051137 -0.19062793
0002a0 12 3d 91 3e 88 2b 18 3d 1a d0 7d 3e 80 e9 39 3c
       0.28366905 0.03715089 0.24786416 0.011347175
0002b0 2a bd b2 3e 8c 9c 98 3d 64 64 17 be 18 6c 8e 3d
       0.34909946 0.07451734 -0.1478439 0.06954211
0002c0 16 42 29 3e a0 2f 14 bc 40 cc 82 3d 00 88 07 3d
       0.16529116 -0.009044558 0.06386614 0.033088684
0002d0 40 1b dd 3d 3c 5b 78 3e ec 4c 6b be 70 c2 58 be
       0.10796213 0.24253553 -0.22978562 -0.21167922
0002e0 ca 12 58 be 6e cc 0a 3e 28 4e c2 3d 30 d2 53 3e
       -0.21100917 0.13554546 0.09487563 0.20685649
0002f0 5e aa 37 be 60 dd 07 3c 18 78 66 be e2 b1 72 be
       -0.17936084 0.008292526 -0.2250675 -0.2370067
000300 80 b7 14 3b 04 c1 53 3e 8a 4a 33 be 1c 7b 99 3d
       0.0022692382 0.20679098 -0.17508903 0.074941844
000310 98 ef 16 be bc be fc 3d 7a b9 06 be ce e4 02 3e
       -0.14739835 0.12341067 -0.13156691 0.12782595
000320 48 cc 2b 3d 50 4b 3c be f0 20 60 3e 4e 26 41 3e
       0.041942865 -0.18388104 0.21887565 0.18862268
000330 24 23 31 be 50 b0 d6 bd ec 9e 9e bd ca 17 0c 3e
       -0.17298561 -0.10482848 -0.07745156 0.1368095
000340 54 c7 dc 3d 90 94 f8 bc 58 4c b6 bd cc 97 3e be
       0.10780206 -0.030344278 -0.0890128 -0.18612593
000350 74 63 fd 3d e0 9c 1e be 80 91 01 bd b8 06 83 bd
       0.12372485 -0.1548953 -0.0316329 -0.06397766
000360 50 8d 9a 3c f4 33 ce bd 38 a2 be 3d 72 1e 0c 3e
       0.018866211 -0.10068503 0.093082845 0.13683489
000370 6c f4 75 be f0 1e b5 bd 80 5a bd bc 9e c8 6b 3e
       -0.24019021 -0.088437915 -0.023114443 0.23025748
000380 d8 65 b2 bd 30 37 91 3c 0e 0a 35 3e 0c 23 9e 3d
       -0.087108314 0.01772651 0.17679617 0.077215284
000390 52 4b 7d be c2 73 6a be 3c f1 70 be 66 89 0e 3e
       -0.24735764 -0.2289572 -0.23529524 0.13919601
0003a0 80 b4 2a 3e 48 fd 3a be ae 4c 46 3e 60 0e 65 bc
       0.16670418 -0.18260682 0.19365188 -0.013980478
0003b0 e6 5f 6a 3e b0 2f f8 3c 4c 21 09 3e a2 7f 48 be
       0.22888145 0.030296177 0.13391608 -0.19579938
0003c0 d4 ea c4 3b d8 0a c7 3d 51 d1 f1 3c 0c 67 57 be
       0.006009439 0.09718865 0.029518755 -0.21035403
0003d0 e4 4e 31 be 53 5b ec 3c cd ea f5 bd 80 4b 18 3d
       -0.1731525 0.02885214 -0.12007675 0.037181377
0003e0 95 cc 02 be 6c 29 39 3e 20 c5 b1 bd 00 5c c0 3b
       -0.12773354 0.18082207 -0.08680177 0.0058703423
0003f0 be 76 43 3e 10 a8 c6 3c 4a dc 74 be c8 d5 be 3d
       0.19088265 0.02425006 -0.23912159 0.09318119

conv1.lin_node_msg_compact.ue.1.0.bias f4 [32]
000000 b0 3f 4a 3e f4 9b 4e bd ab a7 b5 3d f8 fc 01 3d
       0.19750857 -0.050441697 0.08869871 0.03173539
000010 1c fe ad 3d 1c b4 8e 3e 4b 60 95 3e 01 a6 db 3e
       0.08495733 0.27871788 0.29175028 0.42900088
000020 a1 30 20 3e 3b 44 68 3e 74 a8 b4 bc 00 72 9f ba
       0.1564355 0.22682278 -0.022052981 -0.0012164712
000030 90 94 1a 3e 84 ea 0a 3e 7c 60 86 bd 80 eb 4c 3e
       0.15095735 0.13566023 -0.06561372 0.20011711
000040 52 ed 73 3e c0 37 b9 bb 40 ef a7 bd 34 7d d6 3e
       0.23821 -0.005652398 -0.0819993 0.41892397
000050 76 0d 80 3d 56 7c 8d 3e c0 28 05 be 9f c2 cd 3e
       0.062525675 0.27633923 -0.13003826 0.40187547
000060 48 b1 72 be e0 cf 13 3d 95 ff 30 3c 21 cc 3d 3e
       -0.2370044 0.036086917 0.010803123 0.185349
000070 be ad 4c be fe 4d 29 be 28 90 b4 bd d4 a0 cb 3e
       -0.19988152 -0.16533658 -0.08816558 0.3977114

conv1.lin_edge_compact.ue__uplink__ap.0.0.weight f4 [16, 1]
000000 88 db d9 3c c5 ae 2e 3f b0 f6 d4 be bf 54 d0 3e
       0.026593938 0.6823543 -0.41594458 0.40689656
000010 3a a2 59 3e 90 0c 5a 3f f4 95 98 be ca 0e 54 3f
       0.21253291 0.8517542 -0.29801905 0.82835066
000020 29 01 5c 3f 85 ff 3d 3f 5a 32 7f 3f 2c 76 28 bf
       0.8593927 0.74218017 0.99686205 -0.65805316
000030 4f 83 19 3f 88 b1 a4 be 19 2e 6f 3f 58 6e fd be
       0.59965986 -0.32166696 0.93429714 -0.49498248

conv1.lin_edge_compact.ue__uplink__ap.0.0.bias f4 [16]
000000 c1 09 5a 3e 5b d9 f0 bd 8a a9 7a bf d2 8c bd 3d
       0.21292783 -0.11760207 -0.97914946 0.09255375
000010 8e 3c e9 3d 2c c4 43 3f 4a e5 4e bf 36 c8 30 3f
       0.11388503 0.7647121 -0.8081862 0.690555
000020 1d e2 0a 3f 4a 90 f9 3e a9 e2 a7 be 94 80 62 bf
       0.5425127 0.48742896 -0.32790115 -0.88477445
000030 fd 2f ed be 7c fa f1 be 12 cd 33 3f e4 c8 b0 be
       -0.46325675 -0.47261417 0.7023479 -0.34528267

conv1.lin_edge_compact.ue__uplink__ap.1.0.weight f4 [32, 16]
000000 4b aa 81 be 24 47 4b 3e 94 29 3d 3e 2f d1 1f 3e
       -0.25325236 0.19851357 0.18472892 0.15607141
000010 27 9c dd bd 67 6a d4 3c 7e 70 79 3e 6e 48 77 bd
       -0.10820799 0.025929643 0.24359319 -0.06037181
000020 b7 d7 81 3e f4 f9 c1 3d 1e 7c a5 3d 14 93 44 be
       0.2535989 0.09471503 0.08080314 -0.19196731
000030 9e 04 4b 3e e0 8c 44 3d 80 c7 39 be 98 e1 eb 3d
       0.1982598 0.04798591 -0.1814251 0.11517638
000040 69 b1 35 be f7 ce 02 3e 8c 08 76 3e ea 74 f4 bd
       -0.17743458 0.12774263 0.24026698 -0.11936362
000050 0e e0 0e 3d 09 f7 c1 3d b8 0e d6 bd 8d 66 7a 3e
       0.034881644 0.09470946 -0.10452026 0.24453183
000060 9e 76 1e bc 09 f8 99 3e d6 bd 7e 3e 10 74 1b be
       -0.009671835 0.30072048 0.24877104 -0.15180993
000070 8c f9 8d 3d e4 4c 36 3e b3 f8 7c 3e 64 a5 de 3d
       0.06932363 0.17802769 0.24704246 0.108713895
000080 c4 09 59 be ed 45 88 be f2 e1 76 be 08 b5 13 be
       -0.21195132 -0.2661585 -0.24109629 -0.14424527
000090 1e ad 70 3d e9 7c a9 3d 5c d9 b3 bd ca c5 9f 3d
       0.058758847 0.08275778 -0.087816924 0.07801397
0000a0 93 2b 8d 3d bf c4 8c 3d 6b 45 43 3e 52 80 00 be
       0.06893077 0.06873464 0.1906945 -0.1254895
0000b0 90 ef 1c bd 42 57 73 be 2f 05 62 be 38 0b 0f 3d
       -0.038314402 -0.23763755 -0.2207229 0.03492281
0000c0 6d 20 08 be d9 dd 3b 3e a8 da db bd 5f 16 a1 3e
       -0.1329362 0.18346347 -0.10735065 0.3146238
0000d0 aa ab 0f bc 34 4f e7 3d 40 fb 02 be 68 d8 96 3e
       -0.008768955 0.11294404 -0.12791157 0.2946198
0000e0 e6 9e 44 bb 4f 11 4d bd a6 af e4 3d a0 bb 4f 3c
       -0.0030001937 -0.050065335 0.11166315 0.012679011
0000f0 5d 79 2b 3e b8 3c 45 3d 6e ac 62 bc 5c f0 ea 3d
       0.16745515 0.04815361 -0.013835056 0.11471626
000100 9e c0 0b 3e ef 8b 72 bc 90 9b c5 3c d3 8d 91 3e
       0.13647696 -0.014803871 0.02412203 0.28428516
000110 62 79 cd bc 07 65 8d 3e 9c 8b f5 3d 23 d2 ca bd
       -0.025082294 0.2761614 0.11989519 -0.09903362
000120 c3 6b a8 bd d0 45 a8 3c cc ec 84 3e d8 e3 31 bd
       -0.08223679 0.020541102 0.25961912 -0.04343018
000130 8d 50 fd bd 08 bf ff bd b1 f7 2a 3e 90 19 ee bc
       -0.123688795 -0.12487608 0.1669605 -0.029064924
000140 78 3c 2b 3d 38 a2 94 3e 82 64 70 be c9 a4 56 3e
       0.041805714 0.29030013 -0.2347584 0.20961298
000150 10 8c 2d 3d 8e f4 a7 3e 90 74 8c bc 1f 92 96 bd
       0.042369902 0.32803768 -0.017145425 -0.07352089
000160 38 91 23 3e 66 de 8b 3e 51 3a a1 3e aa 7a 58 3e
       0.15973365 0.27318114 0.31489804 0.21140543
000170 71 b9 4c bd 30 7a cf 3c bf fd 96 3e c0 6b e8 3d
       -0.04998154 0.025326818 0.29490468 0.11348677
000180 2c 36 b5 bd ba dc 0d be e0 8b 16 3d 26 6b 05 3e
       -0.08848223 -0.13853732 0.03675449 0.13029155
000190 36 fb 4d 3e 2e 72 1f be 18 c5 0d 3e 00 ad 7f bd
       0.2011536 -0.155709 0.13844717 -0.062420845
0001a0 14 81 8a bd f8 19 36 3d c2 dc 26 be 00 6c 7f 3e
       -0.06762901 0.04445836 -0.1629515 0.24943542
0001b0 98 b0 3e 3e 18 90 29 bd cc 06 fe bd 84 cf d6 bd
       0.18622053 -0.041397184 -0.1240364 -0.10488799
0001c0 44 28 3b 3e 6e 19 9e bd 88 a0 94 3d af 30 f4 bd
       0.18277079 -0.07719694 0.072571814 -0.11923348
0001d0 c2 0a 09 bd 17 88 50 be c4 db d8 3d 8d 5b 1f 3e
       -0.033457525 -0.20364414 0.10588792 0.15562268
0001e0 ed e7 e2 3d 3c 45 60 be 49 2e 6b 3d ca 3c 29 3e
       0.110793926 -0.21901411 0.057417188 0.16527095
0001f0 f0 7c f8 3b 2c be b5 bd 47 d0 1e 3e 78 51 8c bd
       0.007583253 -0.08874163 0.15509139 -0.068514764
000200 da 2a 9a 3e 8a 39 3c 3d 02 40 61 be 24 18 09 be
       0.30110818 0.04595331 -0.21997073 -0.13388115
000210 d6 89 80 3e 48 1f b6 bd bc 2f fa 3d ee fd 89 3e
       0.2510516 -0.08892685 0.12216136 0.26951545
000220 24 a6 35 3e fa f4 f5 3d cf 55 57 be e8 c9 6a 3d
       0.17739159 0.12009616 -0.21028827 0.05732146
000230 0c 89 e1 3d ec 9c 40 3e 9c 43 8d bc f2 b4 55 3e
       0.11012468 0.18809861 -0.017244153 0.20869806
000240 67 81 13 3e fb 14 e1 3d d0 0e 11 bd 5f 86 0a 3e
       0.14404832 0.1099033 -0.035414517 0.13527821
000250 93 f1 2b 3e df 8f 4b 3e 76 fb 57 be 56 f6 90 bc
       0.16791372 0.19879101 -0.21092018 -0.017695587
000260 e6 d5 a7 3e 51 3f 43 3c 4e 87 26 be c4 55 b5 bd
       0.3278038 0.011916951 -0.16262552 -0.08854249
000270 6b bf 5f bb 86 d9 34 be 4c 11 f4 3d 78 de 86 bd
       -0.0034141194 -0.17661104 0.119173616 -0.06585401
000280 3c c8 4c be d4 a9 59 be 4c 74 07 be 6e 09 1b 3e
       -0.19998258 -0.2125619 -0.13227957 0.15140316
000290 da b8 0a 3e c4 f2 cf bd 20 bb 43 3e fe 0b 21 3e
       0.13547078 -0.10153726 0.19114351 0.15727231
0002a0 b8 bd 26 be 82 c1 12 be 90 c7 5f bd d0 d9 2d 3e
       -0.1628331 -0.1433163 -0.054633677 0.1697762
0002b0 8e 9d 31 be 8c 2c 20 3e 20 e3 c3 3c a0 ba 74 3e
       -0.17345259 0.15641993 0.023912013 0.23899317
0002c0 a6 9e 40 3e 38 2b db bd 70 95 fb bc dc 80 92 bd
       0.1881052 -0.10701603 -0.030710906 -0.07153484
0002d0 c0 7e 8e bb 54 01 26 be 4c a2 d9 bd 40 ec 3e 3d
       -0.004348606 -0.16211444 -0.10626659 0.046612024
0002e0 56 8f 49 3e 28 a5 f0 bd 00 f2 6d 3d 0c 73 c0 3d
       0.19683585 -0.11750251 0.058092117 0.093969434
0002f0 a6 9d 54 be 6e ac 6e 3e 20 d7 ca bd 86 c2 72 be
       -0.20763263 0.23307964 -0.09904313 -0.23707017
000300 1a 8d 04 be d8 aa fd 3d 04 64 6b 3e e4 31 c3 bd
       -0.12944451 0.123861015 0.22987372 -0.09531
000310 f2 66 00 3e 8e cf 01 3e b2 8a 7d 3e 48 9e 7b bd
       0.1253927 0.12676832 0.2475994 -0.061430246
000320 56 67 70 be f2 c7 67 be 88 b6 06 bd b4 63 92 bd
       -0.2347692 -0.22634867 -0.03288892 -0.07147923
000330 c0 63 a1 bc 00 2a df ba 44 8f 9f bd 00 ff 06 3b
       -0.019700885 -0.0017026067 -0.077909976 0.002059877
000340 d5 2a 86 3e 30 7e 59 3e ec bb 0f be 22 49 a4 3d
       0.26204553 0.21239543 -0.1403653 0.080217615
000350 9e 3b db bd ac 6e c7 bc 40 2b c3 3c 05 2c fb 3d
       -0.107047305 -0.024344765 0.023824334 0.122642554
000360 c8 55 53 bd d2 04 11 3e c2 a2 14 be fa 61 20 3e
       -0.05159548 0.14161995 -0.14515212 0.15662375
000370 ce 5d 30 bd 7e b4 70 be f2 76 c9 3d 36 41 62 be
       -0.04305821 -0.23506352 0.0983714 -0.22095188
000380 63 7b 4d 3c 7b 6e c7 3d 4e 89 06 be 3f ac 94 3d
       0.012541625 0.09737869 -0.13138315 0.07259416
000390 e5 f7 44 bc de 55 e7 bd 24 2a d4 bd db f0 4e bd
       -0.012021993 -0.11295675 -0.103596 -0.050522666
0003a0 eb c0 60 3e 04 6b a7 3d 7a b1 a3 bd 9c c6 16 3e
       0.21948592 0.081747085 -0.07992835 0.14724201
0003b0 0f 78 62 be 8c 71 11 3e 83 04 30 be 6a f3 3d be
       -0.22116111 0.14203471 -0.17189221 -0.18549886
0003c0 d3 0e 37 bd 49 d9 cb bd 5e 6b 43 be 04 31 4a 3e
       -0.04469187 -0.09953553 -0.19083926 0.1974526
0003d0 18 6d 5a 3e be 9a 1f 3e f8 11 7a 3e f8 4d 5e 3e
       0.21330678 0.15586373 0.24420917 0.2170943
0003e0 e5 04 02 3e b3 ac cd bd be 71 b9 3d 84 59 cf bd
       0.1269718 -0.100427054 0.09054898 -0.101244956
0003f0 27 d2 1c 3e 10 af 61 3e 7a f1 43 3e 42 9b 59 3e
       0.15314542 0.22039437 0.19135085 0.21250632

conv1.lin_edge_compact.ue__uplink__ap.1.0.bias f4 [32]
000000 54 1e 2b 3e fb 8b 1a 3e 48 ee 07 be 12 39 6d 3e
       0.16710788 0.15092461 -0.13274491 0.23166302
000010 61 05 ba 3e b1 50 ae 3e cc 2e 46 be 10 1e 2f be
       0.3633223 0.34045938 -0.19353789 -0.17101312
000020 f6 74 40 3e 08 83 b3 3e 3c 48 d1 bd 00 42 77 3c
       0.18794617 0.35060906 -0.10218856 0.015091419
000030 9c ed a3 3d 01 a2 aa 3e 84 a8 78 3d 29 3f 2c bc
       0.08004305 0.33326724 0.060707584 -0.010513105
000040 b4 a9 f1 bd a6 c7 b3 3e e8 c0 4e bd 31 fd bf 3e
       -0.117999464 0.35113257 -0.05047694 0.37497857
000050 e7 61 02 3f ae ae 0f be 00 57 1e 3c 81 8d 21 3e
       0.5093064 -0.14031479 0.009664297 0.15776636
000060 10 94 08 3e d2 aa 7f be df 80 0c 3d 67 45 77 bd
       0.13337731 -0.24967507 0.03430259 -0.06036892
000070 eb ea 50 3e e7 c4 87 bd 30 58 ae bd a0 84 05 bd
       0.20402114 -0.06629353 -0.08512914 -0.032597184

conv1.lin_edge_compact.ap__downlink__ue.0.0.weight f4 [16, 1]
000000 4a d1 15 bf 26 15 5d bf c4 04 83 3f 28 e8 2b bf
       -0.58522475 -0.86360395 1.0235829 -0.6715112
000010 b2 89 18 3e c6 b7 84 be eb a9 33 bf 44 95 64 bf
       0.14896277 -0.25921458 -0.7018115 -0.8929026
000020 a0 d9 ab be a4 67 b1 3d 16 f1 ff 3c 8b 3c 02 bf
       -0.33564472 0.08662346 0.031242888 -0.5087363
000030 b9 a6 63 3e bf d0 8a 3f 29 ae 1d 3c c2 b1 66 3e
       0.22231568 1.0844954 0.009624043 0.22528747

conv1.lin_edge_compact.ap__downlink__ue.0.0.bias f4 [16]
000000 22 c2 9b 3f 40 e4 c7 bd d9 05 e4 be 62 a2 fe 3b
       1.216862 -0.09760332 -0.4453571 0.0077708224
000010 26 3a 17 bf 34 67 10 3f fa 01 2f b9 ae 32 40 bf
       -0.590731 0.56407475 -0.00016690037 -0.7507733
000020 ac d0 2d bf f3 5f a3 3f a6 04 0f 3f a0 b2 f3 3e
       -0.67896533 1.2763656 0.5586647 0.47597218
000030 7c 0d 87 3f 3d 09 ad bd 4d c5 59 3f 89 c1 0d 3e
       1.055099 -0.08449028 0.8506668 0.13843359

conv1.lin_edge_compact.ap__downlink__ue.1.0.weight f4 [31, 16]
000000 2c 92 22 3e 30 08 68 bd d6 5e 11 be 80 50 5f bd
       0.15876073 -0.056648433 -0.14196333 -0.05452013
000010 10 b6 c2 3d 00 ba e0 bd 5a 41 6f be c0 7c e4 bc
       0.09507382 -0.10972977 -0.23364773 -0.027891517
000020 90 b3 f6 3d c0 61 5e be d8 f2 4a 3d bc f1 43 3e
       0.120459676 -0.21716976 0.049548 0.19135183
000030 10 53 38 be a6 d3 54 be ba 1e 5f be c4 b4 96 bd
       -0.18000436 -0.20783862 -0.21789065 -0.07358697
000040 a4 5f 15 3e 24 f0 0a 3e db f1 50 3e 32 3e 1a bd
       0.14587265 0.13568169 0.2040476 -0.03765697
000050 8d 7c 64 bd 34 7f a9 3e 16 7b 39 be d0 85 5f be
       -0.055782843 0.3310486 -0.1811336 -0.21828389
000060 6e 55 02 be 6e 3e f9 3d bc 06 e1 bc 17 55 b1 3e
       -0.12727901 0.12170111 -0.027469032 0.3463523
000070 fa 54 e9 3c 80 cf 87 3e a7 81 6e 3e f3 7c 66 3e
       0.028482903 0.26525497 0.23291646 0.22508602
000080 5b 9a 18 3e c8 4c 58 3d 87 fb 14 3e 37 91 22 3e
       0.14902632 0.0528076 0.14549075 0.15875708
000090 6a 10 63 bc 69 b4 d7 3e 98 26 2d 3e 08 35 97 3d
       -0.013858894 0.4212983 0.16909254 0.07383162
0000a0 e0 17 f1 bc 4e 83 d3 3d 19 a6 82 3e de a0 0d 3d
       -0.02943033 0.10327779 0.25517347 0.034577243
0000b0 ef d8 81 3e 02 db ac 3e 7b 07 87 3e 37 bf 74 3e
       0.2536082 0.3376084 0.26372895 0.23901068
0000c0 2d 22 48 3e 40 b2 39 be 46 b0 50 3e fa b2 46 3d
       0.19544287 -0.18134403 0.20379743 0.04851053
0000d0 88 4e 9e 3e b6 c2 f5 3e e6 ce 6b 3e a6 cc 21 3e
       0.3091929 0.48000115 0.23028144 0.15800723
0000e0 50 8d c7 bd d8 cb 52 3e bd f2 9b 3e 22 a6 b2 3e
       -0.0974375 0.20585573 0.30458632 0.34892374
0000f0 cc e9 45 3e a7 ac 03 3e c3 54 a5 3e b6 2d f6 3d
       0.19327468 0.1285883 0.3229123 0.120204374
000100 a0 81 7d be 98 ad ac 3d 72 1f 4d 3e e8 c1 2e 3d
       -0.2475648 0.08431548 0.20031527 0.042665392
000110 b9 48 09 be c4 d3 e5 bd 30 3d 9d bc 20 8a e7 3c
       -0.13406648 -0.11222032 -0.019194216 0.028264105
000120 6c 1c 1e be 3b c2 8c 3d 10 af c6 bd 40 30 de bc
       -0.1544053 0.06872984 -0.09701359 -0.027122617
000130 cb 26 18 3e 00 f9 80 be 2e 8e 0b be bb 42 2a 3e
       0.14858548 -0.25189972 -0.13628456 0.16627018
000140 30 84 07 3e b0 26 6b 3e 41 1d 8d 3b 35 bf 7e bd
       0.1323402 0.22963977 0.004306466 -0.062194068
000150 af 00 71 bd 9f f7 99 3e 58 71 44 be 22 9a 7c 3e
       -0.058838543 0.30071732 -0.19183862 0.24668172
000160 28 76 8a 3d 9e e6 bb 3e d9 95 42 3e e3 fb 9e 3e
       0.06760818 0.36699384 0.19002475 0.3105155
000170 90 11 94 bd 22 c8 b9 3c 7e 8e ad 3d e0 97 79 3e
       -0.07229912 0.022678439 0.08474444 0.24374342
000180 83 3e a1 3e c4 68 56 be 42 68 c0 bd e6 04 f1 bc
       0.31493005 -0.20938402 -0.093948856 -0.029421281
000190 1e 9c d8 3d f9 d5 6c 3d 0d 6e e3 3d 80 30 7f be
       0.10576652 0.057821248 0.11104975 -0.24920845
0001a0 00 56 a0 3b 69 d5 29 be 92 8f 40 be ac 2a e8 3c
       0.0048930645 -0.16585316 -0.18804768 0.02834066
0001b0 2d 24 91 3d 90 3e 1f 3e 77 99 d7 3d 5e 38 d0 bd
       0.07086978 0.1555121 0.10527318 -0.10167001
0001c0 24 42 4f be 9a bc 3d be f8 83 da 3d 86 ef 61 be
       -0.20240074 -0.18528977 0.10669702 -0.22064027
0001d0 47 5e 5b 3d 22 47 a9 3c c0 49 0e bc 16 43 36 3e
       0.053556707 0.020663802 -0.008684576 0.17799029
0001e0 9e 6f 71 3e 3a 1a 33 be a4 b4 40 be e0 06 7c bd
       0.23577735 -0.17490473 -0.18818909 -0.061529994
0001f0 e6 4d ef bc 85 a4 54 3e cb a4 81 3c 86 78 e4 bd
       -0.02921195 0.20765884 0.01582565 -0.111558005
000200 47 b1 94 3e 8a fd 69 be 93 14 27 bd e9 1d 2e 3e
       0.29041502 -0.22850624 -0.040791105 0.17003597
000210 0f 61 94 bd 98 4f e1 3e 75 61 11 3e 80 32 23 bb
       -0.07245075 0.44006038 0.14197333 -0.0024901927
000220 d8 f5 32 3d ec 81 ad 3e 93 f8 b3 3e 77 16 74 3e
       0.043691486 0.33888185 0.35150585 0.23836695
000230 bc cc 77 3e 1a 72 24 3c 78 df c2 3e fc e2 4d 3c
       0.24199194 0.01003697 0.38061118 0.012566324
000240 13 1f f1 3d 5c 47 83 bd 0a 54 62 3d 31 e8 cb bd
       0.11773505 -0.06410095 0.055255927 -0.09956396
000250 f2 6b 05 3e 12 f5 e3 3d fa 08 0d be f0 2b 6d be
       0.13029459 0.11130728 -0.13772956 -0.23161292
000260 60 c6 b2 3d 25 94 aa bd f8 c2 74 3e 93 fc 94 3e
       0.08729243 -0.083290376 0.239025 0.2909895
000270 bb e5 3a 3d 7f b0 a5 3e 36 b4 dd 3e 20 07 42 3e
       0.045629244 0.32361218 0.43301553 0.1894803
000280 95 d6 33 3e b0 56 70 3d e3 99 a9 3e 80 06 33 3d
       0.17562325 0.05867642 0.3312522 0.04370737
000290 0f f3 a9 3e 7d 39 58 bd e8 26 39 be 50 17 53 3d
       0.33193251 -0.0527892 -0.18081248 0.051535904
0002a0 6c 63 99 bd a0 a4 e9 38 dc dc e0 3c 0a 9a 54 3e
       -0.07489666 0.000111409696 0.027449064 0.20761886
0002b0 39 58 7b 3e ea d2 af 3e 91 90 80 3e 50 87 74 3e
       0.24545373 0.34340602 0.25110295 0.23879743
0002c0 da 69 b5 3e 68 56 b1 3d 30 72 18 3e 86 47 76 3d
       0.3543232 0.08659059 0.14887309 0.060126804
0002d0 4c 24 f9 3c a5 74 4d bd 8c 90 52 bc 90 31 78 bd
       0.030412816 -0.05016007 -0.0128518455 -0.06059414
0002e0 c6 b0 7d be 3c 12 8d 3d 12 9c 65 3e 76 b2 2a 3e
       -0.24774465 0.068882436 0.22422817 0.1666964
0002f0 ab df c9 3d 2a 14 82 3e e5 74 9b 3d d4 7e 08 3e
       0.098571144 0.2540601 0.07590655 0.13329631
000300 e4 2f e4 3d 5c e0 0f 3e 08 16 51 3e 30 94 13 3d
       0.11141947 0.1405043 0.2041856 0.036029994
000310 20 30 ae bc 04 b9 b3 bd 3a 85 5e be 06 5c 21 3e
       -0.021263182 -0.08775523 -0.2173051 0.1575776
000320 58 2e 42 bd b4 fe ea bd 10 a1 0a 3e 48 a0 96 3d
       -0.047407478 -0.11474362 0.13538003 0.0735479
000330 50 5a 82 3c 4e a5 7a be 00 90 e0 3b 2e 38 75 be
       0.015912205 -0.24477121 0.0068531036 -0.23947212
000340 ac 68 85 3e f4 d2 b9 bd da 70 19 bc ac e6 31 3e
       0.2605642 -0.09073439 -0.009365285 0.1737315
000350 38 09 de bc 05 6a 0f 3e 94 77 78 be 50 14 13 bd
       -0.027104005 0.14005287 -0.24264365 -0.035908043
000360 08 88 95 bd 05 97 86 3e d5 91 23 3d 4d 4f 32 3d
       -0.073013365 0.26287094 0.039934 0.04353266
000370 82 75 a1 3e b2 a4 b4 3c 43 62 95 3e 4f b4 8a 3c
       0.31534964 0.02205119 0.2917653 0.016931681
000380 62 86 6c 3e 80 8e 40 bc 7b c1 6b be b8 cc 5e be
       0.23098138 -0.011752725 -0.23023026 -0.21757782
000390 ec b3 1c 3e 24 4e c9 bd 14 8a 02 be 64 ba 06 be
       0.1530301 -0.09829357 -0.12747985 -0.1315704
0003a0 38 cd 2a 3d 5e f7 35 3d 0a fa 53 3e b9 6b 50 be
       0.041699618 0.04442536 0.20700851 -0.20353593
0003b0 e3 b4 2f be 09 99 e6 bd f9 6f ba bd f4 0b 3b be
       -0.17158847 -0.11259658 -0.09103388 -0.18266279
0003c0 40 8d d8 3d 9e 07 34 be ae ea 7c 3e 41 c3 0b be
       0.10573816 -0.1758103 0.24698898 -0.13648702
0003d0 e9 db 92 3e 4e 21 93 3d 42 9f 66 be 60 87 2a 3e
       0.28683403 0.07184087 -0.2252169 0.16653204
0003e0 52 b1 6f be 3f 72 db 3d 2c 87 23 3e 93 61 4a 3e
       -0.23407486 0.1071515 0.15969533 0.19763784
0003f0 6e 2e 4c 3e 0f f8 9c 3e f6 4c 45 3e cc 3f 38 3e
       0.19939587 0.30658004 0.1926764 0.17993087

conv1.lin_edge_compact.ap__downlink__ue.1.0.bias f4 [31]
000000 18 3a 2c 3d f4 d4 15 3d fb e1 b0 3e 30 8f da 3e
       0.04204759 0.03658004 0.3454741 0.42687368
000010 8c ea 76 be 6b 52 a8 3e 32 4d 1f 3c a3 ef e3 bd
       -0.2411291 0.3287538 0.009722995 -0.111296915
000020 82 07 28 3d e9 59 82 3e 09 6b 23 3d 41 28 26 3d
       0.041022785 0.2545922 0.039897 0.040565733
000030 38 0b 5c be b3 c9 13 3e f5 21 92 bd 62 9d 26 bd
       -0.21488655 0.14432411 -0.07135383 -0.040677436
000040 c7 ec 94 3e ac e1 e8 3a 86 5d b7 3e 84 d1 fc bd
       0.29086897 0.0017767451 0.3581354 -0.123446494
000050 1c a4 b8 3d 48 b8 90 3e 06 7a aa 3e 40 3f 7f bc
       0.090156764 0.28265595 0.33296221 -0.015579045
000060 6c b5 9e 3e 01 68 02 3f 74 71 e3 3e 1f d5 a5 3d
       0.3099779 0.5093995 0.44422495 0.0809729
000070 dc 8e da 3e 92 f5 9b 3e e9 05 90 3e
       0.42687118 0.30460793 0.2812951

conv1.lin_node_upd.ue.0.0.weight f4 [16, 1]
000000 50 63 42 be 84 5c 9e be ad 43 f6 3e 5e c1 6f bf
       -0.18983197 -0.3092996 0.48098508 -0.9365443
000010 b5 12 6c 3f 88 18 18 be 64 14 d4 be 68 65 02 bf
       0.92216045 -0.14853108 -0.41421807 -0.50935984
000020 68 63 0c 3f 94 7f 8d 3f 0c c7 f5 be 70 9b 2f bf
       0.5483918 1.1054559 -0.48003423 -0.68596554
000030 d5 39 3f 3f b1 f3 53 3f 37 c2 86 3f 65 6b 01 3f
       0.7469762 0.8279372 1.052802 0.50554496

conv1.lin_node_upd.ue.0.0.bias f4 [16]
000000 7c 27 c8 3e d8 de 5d be 10 ea de be 70 a0 fb bd
       0.39092624 -0.2166704 -0.4353795 -0.122864604
000010 d0 6d 3c 3e 0e 9b 3c bf cc c1 1c 3f 00 43 db bd
       0.18401265 -0.73674095 0.6123321 -0.107061386
000020 22 28 82 3f 78 ea 5d be c6 38 5f 3f b8 6a d3 be
       1.0168498 -0.21671474 0.87196004 -0.41292357
000030 27 3c 02 3f 29 a2 24 be 3c 37 76 3f 0c cb ce bd
       0.50873035 -0.16077484 0.9617803 -0.10097322

conv1.lin_node_upd.ue.1.0.weight f4 [31, 16]
000000 96 34 4b 3e 90 ef bd bc 19 d4 cb 3c f4 3b 6c be
       0.19844279 -0.023185521 0.02488141 -0.23069745
000010 19 2a 00 3e 0c 58 cf 3d ec 9d 57 be 34 81 19 be
       0.12516059 0.101242155 -0.21056336 -0.14990693
000020 fb 98 ca 3d be f5 1d be 30 dc ab bc e0 f8 78 bd
       0.0989246 -0.15425774 -0.020979017 -0.06078422
000030 82 b9 89 be 38 02 37 3e be 0f fd 3c b1 f0 c3 ba
       -0.26899344 0.1787194 0.030891296 -0.0014949051
000040 32 b4 70 3e de 3b 6b be 46 97 2a 3e 4c 4d e2 bd
       0.23506239 -0.22972056 0.16659269 -0.110498995
000050 4c 6e 07 be 20 f9 e3 3d f6 5a 57 be ec c0 e1 bd
       -0.13225669 0.11131501 -0.21030793 -0.11023125
000060 ec 04 e5 bd 32 83 68 3e 02 8d 68 3e ea 6f 01 be
       -0.111825794 0.22706297 0.2271004 -0.12640348
000070 00 48 77 ba 84 b7 82 bd 76 26 41 be e0 39 ec bc
       -0.0009433031 -0.06382659 -0.18862328 -0.02883619
000080 72 1a 65 3e e6 fb 13 be 62 00 70 be 28 e3 09 bd
       0.2237337 -0.1445156 -0.23437646 -0.0336639
000090 80 a8 3c bb 80 c0 65 bc f8 88 1a bd c0 d5 97 3d
       -0.0028786957 -0.014022946 -0.03772828 0.074138165
0000a0 0c 0e 49 be 1c 93 ed 3d 2e bd 62 3e ec 4c 5f be
       -0.19634265 0.116003245 0.22142479 -0.21806687
0000b0 ea 34 3a be f0 a1 1d be d0 84 7d bd 50 8a 98 3c
       -0.18184248 -0.15393806 -0.061894238 0.01862064
0000c0 20 83 29 bd 3c 48 3d be 70 30 4a 3d a6 5b 62 3e
       -0.041384816 -0.18484586 0.0493626 0.22105274
0000d0 40 18 70 be 3e 39 4f 3e 4c 1f a6 bd 3c 64 b2 bd
       -0.2344675 0.2023668 -0.08111438 -0.087105244
0000e0 9e 9a 56 be 0a 56 04 3e a0 fa 86 bd 22 7e 0a 3e
       -0.2095742 0.12923446 -0.06590772 0.13524678
0000f0 cc f9 c9 bd e0 ee 72 be d4 ec e3 bd a2 21 5f be
       -0.09862098 -0.23723936 -0.11129156 -0.21790174
000100 76 55 0d be 18 16 79 bd b0 b8 27 3d 8c 81 06 3e
       -0.13802132 -0.060812086 0.040947616 0.13135356
000110 e2 68 53 be 78 1c 51 3d 38 07 2e 3d 0c 34 a0 bd
       -0.20645478 0.05105254 0.042487353 -0.07822427
000120 80 c5 75 3e 44 96 04 be 40 e2 fd bc 4c ad 62 be
       0.24001122 -0.12947947 -0.030991673 -0.2213642
000130 fc c9 fe 3d 42 a1 34 be e0 dd bd 3c b4 46 08 be
       0.12440869 -0.1763964 0.023177087 -0.13308221
000140 a4 99 2b 3e c0 ee 2e 3e 00 c1 8a 3b f0 6c a8 bc
       0.16757828 0.17083263 0.004234433 -0.020559758
000150 33 2d 75 3e b6 32 3d 3e 78 62 05 be d0 ef ae bd
       0.23943023 0.18476376 -0.13025844 -0.08541834
000160 82 a5 bd 3e 05 da 63 3e 4a 6b 63 3e 4c f1 ef 3d
       0.37040335 0.22251137 0.22208896 0.117159456
000170 1c e3 19 3e e1 1e cb bb b7 c2 df 3e 57 e2 ec 3d
       0.15028042 -0.0061987494 0.43703243 0.115666084
000180 b0 00 e5 bd e8 79 38 3e 44 de 6a be cc 4d 3d 3e
       -0.11181772 0.18015254 -0.2293635 0.18486708
000190 b2 7b 40 be e4 19 85 3d 50 5b b1 3c ba 6d 66 be
       -0.18797186 0.06499079 0.021649987 -0.22502795
0001a0 7c 55 1a be e0 8d 16 3d 4c 8f dd bd 90 36 8f 3d
       -0.15071672 0.036756396 -0.10818347 0.06992829
0001b0 f4 32 19 3e 88 a5 ff bd 50 cd c9 bc 04 df 6e be
       0.14960843 -0.124827445 -0.024634033 -0.23327261
0001c0 fc 33 20 3e d4 d3 55 3e 1f cd 8d 3e c0 1c 47 bd
       0.1564483 0.20881587 0.27695557 -0.048611403
0001d0 e2 b0 1a 3c bc 94 7f 3e e8 57 cd 3d 38 a7 54 be
       0.009441586 0.24959081 0.100265324 -0.20766914
0001e0 8c 1d a2 3e d3 23 fc 3d 5a 96 30 3e 90 5a 7c be
       0.31663167 0.123115204 0.17244855 -0.24643922
0001f0 6b 21 28 bd 33 ec 82 3d c8 9b e2 3d f1 2a 9d bd
       -0.041047495 0.06392708 0.11064869 -0.07674206
000200 20 5f 0b 3d aa 3d 32 be d8 43 06 be 94 68 6c 3e
       0.034026265 -0.17406335 -0.13111818 0.23086768
000210 0a 4b 58 be 20 fd a3 bc 7e 89 3d 3e 5c 8d b6 3d
       -0.21122375 -0.02001816 0.1850948 0.08913681
000220 96 4a 47 be 96 18 6b be 00 c3 6d bc 70 ba 5c 3d
       -0.19462046 -0.22958598 -0.014511824 0.05388874
000230 00 3f 11 bc fc 33 9c 3d c0 ae a3 bb 7a 7f 14 3e
       -0.008865118 0.07627103 -0.004995197 0.14501753
000240 00 94 f0 b9 20 95 2c 3c 3f 83 07 3f 30 7e de 3d
       -0.00045886636 0.010533601 0.5293464 0.10863912
000250 a4 87 0a 3f f8 a8 7c 3d 7c 73 bc 3d e0 34 f5 bd
       0.5411322 0.06168458 0.092017144 -0.11972976
000260 9b e8 c4 3e 52 fb c7 3e 82 a4 33 3e 70 fc 57 bd
       0.38458714 0.3905893 0.17543224 -0.052730978
000270 d4 a7 06 3f 94 67 be 3e 62 cf 2f 3e a9 66 8d 3e
       0.52599835 0.371884 0.17168954 0.27617386
000280 6c 30 94 3d 80 51 0a bd 2c e4 e3 3d 62 20 0c be
       0.07235798 -0.03376913 0.11127505 -0.13684228
000290 d8 01 5f 3e ec c9 81 bd 80 19 2d bb 50 8c 5c 3e
       0.21778047 -0.06337342 -0.0026412904 0.215379
0002a0 20 a6 0b be 84 39 23 be ee 00 3a 3e 70 05 93 bc
       -0.1363759 -0.15939909 0.18164417 -0.017946929
0002b0 b6 1c 32 3e 64 b1 6c be b4 45 82 bd cc 05 63 3e
       0.17393765 -0.23114544 -0.06360951 0.2217018
0002c0 5c 7b 34 3e 60 93 b8 bd 37 29 8d 3c fe 3e 16 3e
       0.17625183 -0.090124846 0.017231567 0.14672467
0002d0 da d6 2e bd 60 2f c5 3d 00 99 9f 3b 80 cc 62 3e
       -0.042685367 0.09628177 0.004870534 0.22148323
0002e0 c1 1c 83 bd 3d 68 59 3d 06 72 2f be 42 83 6f 3e
       -0.06401969 0.053077925 -0.1713334 0.23389915
0002f0 f1 6b 1a 3d a5 b3 7c 3d 94 cc 12 bd fa 78 b2 bd
       0.037700597 0.06169476 -0.035839632 -0.08714481
000300 d0 4a 8e 3c 72 6d 68 3e aa 82 20 3e 1e 9f 0b 3e
       0.017369658 0.22698 0.15674844 0.13634917
000310 3c fc 69 be 50 2a 07 3d be 62 4d be c4 a4 e1 bd
       -0.22850126 0.032999337 -0.20057198 -0.11017755
000320 58 87 6a be 18 03 56 3d 5a 62 54 be f0 01 5a 3e
       -0.22903192 0.052249044 -0.20740643 0.21289802
000330 58 48 3b 3d 00 2b 3c 3d 50 64 0d 3d 60 7a 6e bc
       0.04572329 0.045939445 0.034519494 -0.014555544
000340 80 a1 4f 3b b2 63 3c be 8c 77 73 3e e4 46 44 3e
       0.0031681955 -0.18397406 0.23776072 0.19167668
000350 e0 7a 94 3d bc 91 d7 3d 0c c3 aa 3d e4 f2 24 3e
       0.07249999 0.105258435 0.083379835 0.1610828
000360 92 02 07 3e 88 ba 1c be 0a 23 77 be 80 da ff bd
       0.13184574 -0.15305531 -0.2413446 -0.124928474
000370 58 a4 5f be b0 33 e7 bc e0 7f 59 3d 58 42 20 be
       -0.21840036 -0.028222889 0.053100467 -0.15650308
000380 3e 8d 69 be 46 57 04 3e 10 49 a1 3c 3e 5d 08 be
       -0.22807786 0.12923917 0.01968816 -0.13316819
000390 18 e3 33 be 2c 26 2f 3e 6e 72 09 3e a8 b5 21 3d
       -0.17567098 0.17104405 0.13422558 0.03947988
0003a0 dc 03 8f 3d c6 a0 40 be 8a f1 31 be 14 29 c7 bd
       0.06983158 -0.1881133 -0.17377296 -0.09724632
0003b0 18 27 8c 3d 48 6e d2 bd 92 51 46 be ba e3 6d 3e
       0.06843394 -0.10274941 -0.19367054 0.23231402
0003c0 b8 4f cc bd b2 a9 4a 3e 5e f5 56 3e da 54 53 be
       -0.09976143 0.19791296 0.20992038 -0.20637837
0003d0 1b d8 da 3e 28 4c 02 3d 10 8b 31 bd a2 37 41 be
       0.42743 0.03181091 -0.04334551 -0.18868878
0003e0 40 f1 0f bc 56 b3 60 3e 38 2d 37 3d 3c 9b ae 3d
       -0.008785546 0.21943411 0.04472086 0.08525702
0003f0 1d 1a cc 3e 11 44 cd 3e f5 ce de 3d eb 5d a9 3e
       0.39863673 0.40090993 0.10879318 0.33079466

conv1.lin_node_upd.ue.1.0.bias f4 [31]
000000 eb 64 42 3e 50 af b9 3d ec 41 1d be 4a a4 3f be
       0.1898381 0.09066641 -0.15357178 -0.18715015
000010 b4 1b 66 3e 55 4a 41 3e a8 74 e8 3d d0 27 4f 3e
       0.22471505 0.18876012 0.113503754 0.20230031
000020 38 bf 57 3e 45 f2 86 3e 50 72 01 3e aa 5b 48 be
       0.21069038 0.26356712 0.12641263 -0.19566217
000030 90 17 56 3e 96 16 34 be 82 55 4a 3e 47 0f 82 bd
       0.20907426 -0.17586741 0.19759181 -0.0635057
000040 b1 bd fb 3d 3c 3f 88 3e 55 2d f4 3d bf b1 66 3d
       0.1229204 0.26610744 0.11922709 0.056321856
000050 00 5d be 3d 0a 90 2a 3c 7c f2 ad 3d d2 5a 75 3e
       0.09295082 0.010410318 0.08493516 0.23960426
000060 95 3a d1 3e bf 76 04 3f 60 8c 1d 3e 79 94 18 3d
       0.40865007 0.5174369 0.1538558 0.03725097
000070 b6 3d f9 3e b6 1f 1e be f7 80 f6 3e
       0.48679894 -0.15441784 0.48145267

conv1.lin_node_upd.ap.0.0.bias f4 [16]
000000 00 00 00 00 00 00 00 00 00 00 00 00 00 00 00 00
       0.0 0.0 0.0 0.0
000010 00 00 00 00 00 00 00 00 00 00 00 00 00 00 00 00
       0.0 0.0 0.0 0.0
000020 00 00 00 00 00 00 00 00 00 00 00 00 00 00 00 00
       0.0 0.0 0.0 0.0
000030 00 00 00 00 00 00 00 00 00 00 00 00 00 00 00 00
       0.0 0.0 0.0 0.0

conv1.lin_node_upd.ap.1.0.weight f4 [31, 16]
000000 10 9f b3 3c b0 2c 1e bd c4 24 d6 bd e4 38 55 be
       0.021926433 -0.038616836 -0.10456231 -0.20822483
000010 60 ff da bd 60 f7 f4 bd 8c b4 7b 3e 8c 3f 78 3e
       -0.1069324 -0.119612455 0.24580592 0.24242991
000020 08 ab 1a 3e 4e 9f 48 3e 56 5b 64 be ec 26 cf bd
       0.15104306 0.1959202 -0.22300467 -0.10114846
000030 e0 99 1b 3d d8 b0 6c bd 5e ed 36 be dc d0 61 3e
       0.037988544 -0.05778584 -0.17863986 0.2205233
000040 70 bb b4 bc 74 c6 7e be a0 3c 5a bc 60 e5 e4 bc
       -0.022062033 -0.24880391 -0.013320118 -0.027941406
000050 76 3f 74 be 0c a2 e6 3d 54 13 cc bd 7e ff 36 be
       -0.23852333 0.11261377 -0.09964624 -0.178709
000060 6e f6 38 3e 56 b3 68 3e e4 1e 6f 3e 40 e0 53 3e
       0.18062755 0.22724661 0.23351628 0.20691013
000070 30 17 30 be 00 7c 62 3d 18 82 20 bd 18 39 b1 3d
       -0.17196345 0.055294037 -0.039186567 0.08653468
000080 b2 74 41 be 32 91 19 be 7a 34 4a be 3e 4e 79 3e
       -0.18892172 -0.14996794 -0.1974658 0.24346253
000090 06 48 79 be 80 8e cb bc 9c d7 e4 bd 88 e7 04 be
       -0.24343881 -0.024848223 -0.11173937 -0.12978947
0000a0 60 5e 74 bc ae 4e 2b 3e aa 07 3c be 70 94 b3 bd
       -0.014915079 0.16729233 -0.18362299 -0.087685466
0000b0 1a 82 5f 3e c0 3c ab bc 6a 76 13 3e c8 21 32 3d
       0.21826974 -0.020902991 0.1440064 0.043489248
0000c0 10 a3 3a 3d 84 3d 80 bd 12 48 18 3e 42 67 49 be
       0.045565665 -0.06261733 0.14871243 -0.19668296
0000d0 14 80 bc 3d b0 c1 c0 bd 5c 60 09 3e ea 39 03 be
       0.092041165 -0.09411943 0.13415664 -0.12815061
0000e0 9a 8e 58 be 94 90 54 be 3c b3 7a be 44 85 02 3e
       -0.21148148 -0.20758277 -0.24482435 0.1274615
0000f0 c2 f5 44 3e b0 02 d7 3d e0 c2 50 bd dc d5 70 3e
       0.19234374 0.104985595 -0.050967097 0.23519081
000100 50 a4 d9 bc 38 85 d5 3d 6c b2 6b be 00 9d 3a bc
       -0.026567608 0.104258 -0.23017281 -0.011389971
000110 00 3b 0b bc 98 3d 6f 3d 88 b6 50 3d 30 dd 47 be
       -0.008497953 0.05840835 0.050955325 -0.1951797
000120 20 a8 8b bc 68 4d 78 bd 24 8c 22 3e 48 09 8c 3d
       -0.017047942 -0.060620695 0.15873772 0.06837708
000130 10 b2 98 bd 88 1f c9 bd b6 02 08 3e 10 c0 41 3e
       -0.07455838 -0.09820467 0.13282284 0.18920922
000140 c4 75 b4 bd 6a a5 35 3e e0 e1 04 3d b0 09 f9 bd
       -0.088115245 0.17738882 0.032441974 -0.12160051
000150 10 6b 84 3d b0 98 9a 3c 60 b8 4d 3d 50 46 a2 bd
       0.06465733 0.018871635 0.05022466 -0.07923567
000160 28 84 b9 bd 00 0f 5d 3b c0 18 d5 bb b0 d4 e7 bd
       -0.0905841 0.0033730865 -0.0065031946 -0.11319864
000170 12 00 2a 3e 3c 04 cd 3d 44 70 74 be 78 1e 2a be
       0.1660159 0.10010573 -0.23870951 -0.16613185
000180 50 4c d5 3c 24 66 ee bd 00 2c 14 bc 94 47 ba bd
       0.026037365 -0.116405755 -0.009043694 -0.09095684
000190 f8 18 ab bd a0 7d 65 bd 6a 0e 6f 3e 40 17 f8 3c
       -0.08354372 -0.05602801 0.23345342 0.030284524
0001a0 80 33 be bc 14 f4 88 3d d0 20 b0 3d 7c 9f ed bd
       -0.023217916 0.06687179 0.086000085 -0.11602685
0001b0 2e fd 36 3e 82 22 26 3e c0 c8 00 3e d8 9d 9d bd
       0.17870018 0.16224101 0.1257658 -0.07696122
0001c0 e4 a6 31 be fe a0 4d 3e ca 55 76 3e a0 04 29 bc
       -0.1734882 0.20080945 0.24056163 -0.010316044
0001d0 40 bf 48 3e 20 f7 8e bc a2 d3 60 3e 70 20 6e bd
       0.19604206 -0.017451823 0.21955732 -0.058136404
0001e0 76 c0 67 3e 6c 11 06 be cc ed 12 be 98 25 94 bd
       0.22632012 -0.13092583 -0.14348525 -0.07233733
0001f0 e6 52 50 be 2a 3a 1d 3e 32 f0 7c 3e 22 a2 6c 3e
       -0.20344123 0.15354219 0.24701002 0.23108724
000200 10 14 ae bd 62 2f 0d be e8 5d f6 bd 5a 89 2d be
       -0.0849992 -0.13787606 -0.1202963 -0.16946927
000210 40 f2 ac bb 2c 98 29 3e 34 b3 74 3e 12 9f 3b be
       -0.005277902 0.16561955 0.23896486 -0.183224
000220 b8 d4 1e bd 26 9a 08 be 50 32 d6 3c 70 e2 8a bc
       -0.038777083 -0.13340053 0.026147038 -0.016953677
000230 84 c2 e8 3d 2c 2c c4 3d 08 4f 09 be b0 18 c2 3c
       0.11365226 0.095787376 -0.13409054 0.023693413
000240 98 ff 71 be 14 b7 c4 bd f0 39 b5 3c 08 8a 4f 3d
       -0.23632658 -0.09605232 0.022122353 0.050668746
000250 60 a5 97 bd 00 c9 a6 3b c8 a9 cd bd 94 ed 11 be
       -0.0740459 0.005089879 -0.10042149 -0.14250785
000260 62 90 47 be 80 7c 51 3d 1c 19 a8 3d 32 d9 60 3e
       -0.19488671 0.051144123 0.08207914 0.21957853
000270 00 32 3a bc c8 ad 43 bd 7c 4e 0c 3e 86 53 21 be
       -0.01136446 -0.047773153 0.13701814 -0.15754518
000280 f8 4b 46 3e e0 73 14 bd 60 a5 27 bc 50 78 80 3c
       0.19364917 -0.03624332 -0.0102323 0.01568237
000290 f8 bb 0b 3e b8 cb 6a bd f0 3e 63 3e 04 6e 3a be
       0.13645923 -0.057323188 0.22191978 -0.1820603
0002a0 98 13 92 3d e8 72 66 bd 6e f0 34 be 22 9d 3f 3e
       0.071326435 -0.056261927 -0.17669842 0.18712285
0002b0 14 3c e0 3d 08 bc 01 3e 38 01 7b 3e 68 01 08 3d
       0.10948959 0.12669384 0.24512184 0.033204466
0002c0 28 eb 42 bd 48 81 d3 bd 5c 83 b2 bd e0 e5 db 3c
       -0.047587544 -0.10327393 -0.08716461 0.026843011
0002d0 50 17 72 bd 24 30 70 3e 40 3d 8a 3b 58 9c db 3d
       -0.059104264 0.23455864 0.0042187274 0.107231796
0002e0 58 b6 7f 3d ba d1 08 3e d8 a0 e2 3d d4 8a bf 3d
       0.062429756 0.13361254 0.11065835 0.09352651
0002f0 e0 c1 d8 bd 4a 19 41 be fc 2f 84 bd 98 70 78 bd
       -0.10583854 -0.18857303 -0.06454465 -0.060654253
000300 34 39 ef 3d 16 1f 39 be ae 1a 51 be fc eb 3e 3e
       0.116808325 -0.18078265 -0.20420334 0.18644708
000310 c2 aa 0d 3e 3e b5 66 3e 7e 41 0c 3e d8 e3 13 bd
       0.1383467 0.22530076 0.13696858 -0.03610596
000320 78 60 73 bd 20 4e f8 3c 2a 8d 4a 3e 48 49 00 bd
       -0.05941817 0.03031069 0.19780412 -0.031319886
000330 1c 57 9d 3d 98 cd 96 bd 78 08 20 3d cc c9 9a 3d
       0.076826304 -0.07363433 0.039070576 0.07558021
000340 8c d5 ef 3d 80 48 c7 bb c0 2d 7a bd b0 ea 0c bd
       0.11710653 -0.0060816407 -0.061078787 -0.034403503
000350 56 91 7f 3e c4 9d 13 3e 4c e9 85 3d 78 34 bd bd
       0.24957785 0.14415652 0.065386385 -0.09238523
000360 80 fc e0 bc b6 35 4f 3e ea 5c 22 be 00 61 3a be
       -0.027464151 0.20235333 -0.15855756 -0.18201065
000370 e0 3a 07 bc 9c 8e c2 3d 80 09 41 bc 60 96 6a 3e
       -0.008253783 0.09499857 -0.01178205 0.22908926
000380 80 66 a3 3b 5c 56 b1 bd 68 35 ef bd e4 61 5f be
       0.004986584 -0.0865905 -0.11680108 -0.21814686
000390 ec f2 08 3e c0 98 c1 3c c0 44 c9 bd 60 f9 58 3c
       0.13373917 0.023632407 -0.09827566 0.013243049
0003a0 ec 07 99 3d a6 01 52 3e 2c c2 54 be cc 30 03 3e
       0.07472214 0.20508441 -0.20777196 0.12811583
0003b0 c0 16 29 bd c0 a4 3b 3e e4 58 1d 3e 08 d4 c7 3d
       -0.04128146 0.18324566 0.1536594 0.097572386
0003c0 5c 19 c3 bd 10 8b ea bd a8 89 18 be 3c ea 70 be
       -0.09526321 -0.11452305 -0.14896262 -0.23526853
0003d0 f4 36 ad bd 40 96 5c bd d8 83 cc bd 10 52 97 bc
       -0.08457747 -0.053854227 -0.09986085 -0.018471748
0003e0 00 db e9 3d a8 29 b6 bd f4 3e df 3d 88 38 d7 bd
       0.11418724 -0.08894664 0.10900679 -0.10508829
0003f0 00 81 23 bd 5a c0 42 be 5a 92 0c be b6 aa 2c be
       -0.039917946 -0.19018689 -0.13727704 -0.16861996

conv1.lin_node_upd.ap.1.0.bias f4 [31]
000000 d8 6b 29 3d 84 55 21 3e 40 59 1f be 28 8c 97 bd
       0.041362613 0.15755278 -0.1556139 -0.073997796
000010 24 c4 c7 3d 70 f2 b1 bc 20 7a 62 bc 7a ed 41 3e
       0.09754208 -0.021722049 -0.013823062 0.18938246
000020 b8 b5 61 3e a6 65 1d be 4e 5c 3b 3e a0 ff 06 3e
       0.22041976 -0.15370807 0.1829693 0.1318345
000030 88 0d a2 3d 8c e1 8d bd 1c 8c 7c 3e 08 be 4a 3e
       0.07912737 -0.06927785 0.24662822 0.19799054
000040 d0 f5 33 3d d4 73 72 3e 32 87 41 be 42 62 06 3e
       0.043935597 0.23676997 -0.18899229 0.1312342
000050 f8 39 c7 bd 72 cb 22 3e f8 44 07 3e 80 8f 7c be
       -0.097278535 0.1589792 0.13209903 -0.24664116
000060 48 1c 21 3d ca 62 29 3e c8 74 93 bd 84 17 ad bd
       0.03933361 0.16541591 -0.07200009 -0.08451751
000070 62 e3 40 be 86 4b 17 be 54 64 27 be
       -0.1883674 -0.14774904 -0.16346866

conv2.lin_node_msg.ue.0.0.weight f4 [16, 32]
000000 73 cf 5f ba 47 c2 93 3c dd 91 ce bb 7f b3 2c bc
       -0.0008537687 0.018036975 -0.0063040094 -0.010540842
000010 8f aa 61 3d a9 2b 29 3e 65 59 f2 3d 23 a2 6e bb
       0.055094298 0.16520561 0.11833457 -0.003641256
000020 b6 67 e8 3d a0 d7 56 3d c6 73 0e 3e 34 ae 18 3e
       0.11347906 0.05245173 0.13911352 0.14910203
000030 b2 7b 94 3d 36 d5 c0 bd a4 7f 12 bd b0 30 85 bb
       0.072501555 -0.09415667 -0.03576626 -0.004064642
000040 11 61 d8 3c 55 ae af bd a1 05 0a be d2 12 75 bd
       0.026413472 -0.08578173 -0.1347871 -0.0598324
000050 b6 a1 73 3d 63 87 03 bd bc 70 60 bd 25 db 27 3e
       0.05948039 -0.032111537 -0.054795012 0.16392191
000060 12 f5 99 bb 31 10 1e be 56 17 10 be 4b a5 e2 3d
       -0.004698404 -0.15435864 -0.14071402 0.110666834
000070 fe d7 c3 ba 07 f7 86 3d e9 85 ed 3d 48 a7 8a bd
       -0.001494169 0.065900855 0.11597807 -0.067701876
000080 3b c7 c1 bd 6e b0 81 bd ef 0e b6 3d 65 a9 35 bd
       -0.09461828 -0.063324794 0.08889567 -0.044351
000090 44 39 84 3d 82 b7 29 3e 47 af 06 bd 58 0f a9 bd
       0.06456235 0.16573909 -0.032882 -0.0825488
0000a0 a6 bc 62 bd 98 12 76 3d 73 8c 29 be 12 c3 cf bd
       -0.05535569 0.060076326 -0.16557483 -0.101446286
0000b0 3e 45 a6 3d 70 cf aa bd 2f 57 f4 3d df 8b ff bd
       0.08118676 -0.08340347 0.119306915 -0.1247785
0000c0 65 6d f1 bd 2f 9d 96 bd 5a 69 19 be 6e b2 83 3d
       -0.117884435 -0.07354199 -0.14981595 0.06430517
0000d0 63 a8 cd 3d 23 59 13 3e 89 b1 85 3d 5f 21 4d bc
       0.10041883 0.14389472 0.06528003 -0.012520163
0000e0 30 7b 13 be c2 56 0d 3e 56 9f f3 bd b1 67 bf bd
       -0.14402461 0.13802627 -0.11895625 -0.093459494
0000f0 e8 e5 d3 3d 82 be 98 3d 66 e5 dd 3d a0 2f 38 3d
       0.103465855 0.074582115 0.1083477 0.044967294
000100 81 73 2d be c9 38 15 be b5 25 dd bc ff c7 a9 bd
       -0.16938592 -0.14572443 -0.02699552 -0.08290099
000110 59 be 17 bd a1 0e 9e bd 83 a5 8c bd 8e f3 67 bc
       -0.037046764 -0.07717634 -0.06867506 -0.014157189
000120 d9 e7 86 3c ab ce cb bc b2 0b 1f 3d f7 e2 9d bd
       0.016467975 -0.02487882 0.038829513 -0.07709306
000130 2c 0a 44 bd be 71 1d 3e 53 4c bf bd 39 27 a4 bd
       -0.047861263 0.1537542 -0.093407296 -0.08015294
000140 86 53 29 3d 60 f2 19 3d 65 44 1d be 36 de 33 3e
       0.04133942 0.037584662 -0.15358122 0.17565235
000150 79 a0 d4 bd 7a 35 93 bd 64 51 9a bc e6 f4 e8 3d
       -0.1038217 -0.07187934 -0.018837638 0.11374836
000160 07 ef fe bd aa e6 2a 3e 18 df 02 bd 4e de 09 3d
       -0.124479346 0.16689554 -0.03195104 0.033659272
000170 59 01 a4 bc 08 52 01 3b 9b 29 03 be af 68 b9 bd
       -0.020020174 0.0019732732 -0.1280884 -0.0905317
000180 54 6b e7 3d e5 21 18 be 33 2b b9 bc 40 29 24 3e
       0.11299768 -0.1485668 -0.022603607 0.1603136
000190 b8 87 c2 bd 6c 44 2b be 73 20 c4 3d 05 da 32 be
       -0.094985425 -0.1672532 0.09576502 -0.1746598
0001a0 22 07 0c bc ef d0 b4 3c bb f1 76 3d b2 05 1d bd
       -0.0085466225 0.022072284 0.060289126 -0.03833551
0001b0 e2 e3 0e be e4 8b 9f bd 77 04 a0 bd fb 05 2a 3e
       -0.13954118 -0.07790354 -0.078133516 0.16603844
0001c0 7e 33 fb 3d cf 7e 4b bd 53 ba bd bc b7 15 ef bd
       0.12265681 -0.04968148 -0.023160135 -0.11674064
0001d0 37 a3 da 3c 9e f1 f7 bb d1 d0 0a 3e c2 76 40 3d
       0.026689155 -0.007566645 0.1355622 0.046988256
0001e0 e1 54 bf 3d d2 6a 06 3d 2a b4 e6 3c 74 d6 e5 bd
       0.09342361 0.032816716 0.02816208 -0.11222544
0001f0 ea 18 28 be 13 ae de 3d d7 27 c8 3d 3e 65 5c bd
       -0.16415754 0.10873046 0.09773224 -0.05380749
000200 9d eb 18 be dd da e3 3d 04 35 b0 bd c5 18 18 bd
       -0.1493363 0.11125729 -0.08603862 -0.037132997
000210 35 b9 df bd 9d f9 9b 3c 3b 5f fe bb a6 8f 14 bc
       -0.10923997 0.019039923 -0.007762817 -0.009067452
000220 34 c8 9b bd 0d da 10 be ae e9 2e 3e 7f cd 8a bd
       -0.07606545 -0.1414568 0.17081329 -0.067774765
000230 da 02 39 bd d8 d7 13 bd 2e f1 19 be a6 50 d8 bd
       -0.045168735 -0.036094517 -0.15033409 -0.105622575
000240 47 84 d4 bd ed 8c bf bd bd 37 c0 bd 3b db b4 3b
       -0.103767924 -0.09353051 -0.09385631 0.0055192984
000250 b0 37 06 3e bd 8f a9 3d 18 31 26 be 3a 1c 33 3e
       0.1310718 0.08279369 -0.16229665 0.17491236
000260 5c 1c 34 be 39 f1 a6 3d 49 c7 91 bd 14 c3 22 3e
       -0.17588943 0.08151478 -0.07118089 0.15894729
000270 c5 20 13 be 12 e2 7d 3d f6 f8 a1 bc 7f 6c 1d 3e
       -0.1436797 0.061983176 -0.019772034 0.15373419
000280 43 84 a8 3d e0 55 6f 3d da 27 c6 bd e3 c6 16 be
       0.08228352 0.058431506 -0.0967557 -0.14724307
000290 a3 21 30 be 6e 9c ef bd 9f 29 cc bd 88 c4 b5 3c
       -0.17200331 -0.116997585 -0.09968876 0.02218844
0002a0 b7 24 76 bd c5 db 9b 3d d2 8a 22 be e3 8f 15 bc
       -0.060093608 0.07610277 -0.15873268 -0.009128544
0002b0 33 91 57 3d 02 71 67 3d 56 48 b7 bc 56 c5 16 3d
       0.052628707 0.056504257 -0.02237336 0.036809288
0002c0 ed a5 31 3b 67 a7 a9 bd 2e 00 34 bd ba d0 42 bd
       0.0027106956 -0.082838826 -0.043945484 -0.04756234
0002d0 6f bd d3 3d 19 78 4a 3d 0f d5 c8 3d fe 49 91 3d
       0.10338866 0.04943094 0.09806263 0.07094191
0002e0 a7 93 8d bd 58 54 c4 3d 29 57 d9 3d a3 c2 88 3d
       -0.06912928 0.095864 0.106123276 0.06677749
0002f0 24 d0 ad 3d 70 d2 98 bd ae 25 b6 bd 39 60 26 3b
       0.08486965 -0.07462013 -0.088939056 0.0025386943
000300 b7 53 e5 bd ee ce 76 bd a8 dd b9 3d 29 4a 9d 3d
       -0.11197608 -0.060255937 0.09075481 0.076801606
000310 c2 1b 0a 3d 0f 8f ce bd 5a 53 df bb 89 6b e3 3d
       0.03371788 -0.1008588 -0.006815356 0.11104495
000320 b2 ad 14 3e bf 7f c1 3d 36 c3 0d be 87 ab 5d 3c
       0.14519385 0.09448194 -0.13843998 0.013529665
000330 0f ae 24 bb 1b 65 d0 3d b0 41 1d 3d 5e 07 c8 3d
       -0.002512816 0.10175534 0.038392723 0.0976703
000340 89 63 98 3d 0d d9 eb bd ea 33 c4 3c e3 46 27 3e
       0.0744086 -0.115160085 0.023950536 0.16335635
000350 9b 32 86 3d 65 b3 27 3e ed 01 2c 3d dd d8 88 3d
       0.06552621 0.16377027 0.041994024 0.066819884
000360 c8 77 cb bb 55 93 dd 3d 7f 9c e2 bc c0 1b 96 bd
       -0.0062093474 0.10819117 -0.027662514 -0.07329512
000370 0d c4 88 bd cb d8 1b be 2f 91 09 be c2 e5 aa bb
       -0.06678019 -0.15219419 -0.1343429 -0.0052153775
000380 59 e8 a5 3d 58 7b 0b 3d 9a e7 13 3e 21 c7 14 be
       0.081009574 0.034053177 0.14443818 -0.14529087
000390 ed 33 f9 bd 1f 0e 24 be a1 62 b5 3d 61 94 a9 3d
       -0.12168107 -0.16021012 0.088567026 0.08280254
0003a0 e0 54 4e bd 0b e8 6b bd d3 7d 5a bc 40 a4 1c be
       -0.05037391 -0.05759434 -0.013335663 -0.15297031
0003b0 40 f5 4f bd 5b b0 a0 3d 18 ea 0a be 32 d2 02 be
       -0.050770998 0.07846137 -0.13565862 -0.12775496
0003c0 13 01 33 3e b7 ad ab 3d d4 d9 27 be 8f f2 ce 3a
       0.17480879 0.08382743 -0.16391689 0.0015788841
0003d0 24 cd 02 3e 8d 7b 1f 3d 47 4e 20 3e 06 7a 3d bc
       0.12773567 0.038936187 0.1565486 -0.011564737
0003e0 d9 a9 2d 3e 56 d7 9e bd 41 f8 0f be c8 3e da bd
       0.16959323 -0.07755916 -0.14059545 -0.10656506
0003f0 e5 4a 2b be ad 9a 03 3d 60 a4 0a 3e 65 68 29 3e
       -0.16727789 0.032129932 0.13539267 0.1654373
