Model/1000sam16batch_gpu (2).pth (torch, 121314 bytes, 79 tensors)

conv1.lin_node_msg_compact.ue.0.0.weight f4 [16, 1]
0.6748716 1.1709855 0.5861882 -0.36938298 -0.75818455 0.93488616 -0.7065569 0.7078358
-0.59274554 0.75424933 0.29643467 -0.6687467 1.054018 0.38545406 0.42273802 0.70307124
00000000: 63c4 2c3f dae2 953f 6e10 163f c41f bdbe
00000010: 6218 42bf b354 6f3f eae0 34bf ba34 353f
00000020: 2cbe 17bf 7c16 413f 49c6 973e fc32 2bbf
00000030: 10ea 863f 3c5a c53e 1e71 d83e 7afc 333f

conv1.lin_node_msg_compact.ue.0.0.bias f4 [16]
-0.17581204 0.14689356 0.8705935 0.35717034 -0.2070477 0.5963999 0.90275395 1.0797483
-0.55171084 0.9453485 0.19763495 -0.72102916 0.56574565 -0.45373875 0.16487761 0.6547293
00000000: 1208 34be 446b 163e 37df 5e3f 08df b63e
00000010: 5004 54be aaad 183f e21a 673f 3135 8a3f
00000020: ec3c 0dbf 5c02 723f d160 4a3e 5e95 38bf
00000030: b5d4 103f 7250 e8be add5 283e 579c 273f

conv1.lin_node_msg_compact.ue.1.0.weight f4 [32, 16]
-0.13230887 -0.16417447 -0.11102131 -0.059969157 -0.1113185 -0.0196549 -0.1953924 0.12675038
0.0122921765 -0.043678284 0.19877708 -0.12056288 -0.21338493 0.20116335 0.189277 0.10019812
-0.22908291 0.008725166 0.16207826 -0.21308458 0.23046389 -0.03670749 0.062279552 -0.19149667
-0.023017228 -0.21909693 -0.18206304 0.16563585 -0.013059795 0.23495257 0.16509664 -0.02174145
-0.03621431 -0.010297667 0.29640186 -0.09944677 0.040696293 0.32789603 -0.11361846 0.12149595
-0.24611154 0.3014974 0.08929091 -0.041401744 0.3452299 0.18468347 0.05924238 0.0003523576
0.1701589 -0.06883386 0.1716001 0.030196667 0.20365956 -0.22098231 0.0097390115 0.1516217
0.16689625 -0.21147251 -0.22349405 0.032396674 -0.20003116 -0.03809169 -0.0037716627 0.16991097
0.12655382 0.27649975 0.26683047 0.2339457 -0.12028861 0.16918634 -0.22783074 0.16605882
0.2168026 0.1953394 0.24900672 0.03914249 0.04395756 0.12128928 0.10577744 -0.09025803
-0.14090091 -0.085930556 0.24762216 0.21097094 0.07917774 0.083821684 -0.16981778 -0.20457536
-0.07923606 -0.1670762 -0.024979979 -0.18008381 -0.049811393 0.095370024 -0.0065829754 0.2406148
0.06055233 -0.12780952 -0.17888147 -0.13616401 0.16413921 0.05138412 -0.1664168 -0.16840005
-0.14131024 -0.22412273 -0.028559536 0.22962072 0.09456828 -0.02451557 0.018330604 -0.097795576
-0.20290512 -0.08642143 0.013789356 0.11884597 -0.20825359 -0.22619316 -0.12451202 0.23702967
-0.07487905 0.0038253367 -0.13413763 0.18593991 0.009674162 -0.24532604 0.21864444 0.12321541
0.30672148 0.1876077 0.3725531 -0.2004891 -0.1892168 0.3129848 0.23635572 0.26464516
-0.23633012 0.19409473 0.15990189 0.049421936 0.4076081 0.010853004 0.14273493 0.3763587
0.3907769 0.44426882 0.45188296 0.24113303 -0.17990008 0.12113084 -0.19381845 0.20319203
0.23747778 0.44019327 0.25358477 0.2039068 0.14878076 0.04060007 0.11525325 0.30175582
0.3512076 0.16347004 0.2381856 0.09786889 -0.05664897 0.33384424 0.13012904 0.19974339
0.20172814 0.20800751 0.2909154 0.023862332 -0.060933165 0.40847188 -0.06448523 0.21148574
0.07858884 0.10642439 -0.19208463 -0.11810425 0.053503633 0.042008735 -0.20047492 0.00018002711
-0.14078063 -0.08701383 -0.22663818 0.1869717 -0.025208374 -0.17111818 -0.14028507 0.23009515
0.15532511 -0.13376948 0.008097765 0.1024909 -0.22941718 0.057117376 -0.05994156 -0.022145202
-0.22532901 -0.24773471 0.067015946 0.026496619 0.14495969 0.064659946 -0.03066666 0.03226396
-0.22284582 -0.22889668 0.013464153 -0.16971618 0.09836024 -0.021252722 -0.024024814 0.23068753
-0.16019005 0.055286348 -0.19348377 -0.20662254 0.001666367 0.24677339 -0.17243293 0.07076284
0.48125818 0.108227365 0.19838744 0.14892349 -0.12781972 0.40859416 0.17204371 0.40799928
0.0030303001 0.4223486 0.110753484 -0.24374998 0.5223476 0.3246115 0.3672334 0.07017239
-0.088677585 -0.16809162 0.18919978 -0.005293131 -0.079126686 -0.011107206 -0.111202955 -0.025134504
-0.23766834 -0.14669544 0.09731525 0.14078173 -0.19279292 -0.18815866 -0.1390129 -0.119591534
00000000: fa7b 07be 5a1d 28be 245f e3bd 38a2 75bd
00000010: f4fa e3bd 5003 a1bc f214 48be daca 013e
00000020: 2065 493c 00e8 32bd 388c 4b3e ace9 f6bd
00000030: 9481 5abe c4fd 4d3e d4d1 413e ac34 cd3d
00000040: b694 6abe 00f4 0e3c d8f7 253e d832 5abe
00000050: bafe 6b3e 985a 16bd d818 7f3d b417 44be
00000060: a08e bcbc f25a 60be bc6e 3abe 729c 293e
00000070: c0f8 55bc 6897 703e 180f 293e 201b b2bc
00000080: 7555 14bd 8cb7 28bc fcc1 973e c0aa cbbd
00000090: 28b1 263d fde1 a73e ccb0 e8bd ded2 f83d
000000a0: aa04 7cbe de5d 9a3e 27de b63d e094 29bd
000000b0: f9c1 b03e aa1d 3d3e 23a8 723d a3bc b839
000000c0: 223e 2e3e c4f8 8cbd f0b7 2f3e 005f f73c
000000d0: 228c 503e 3049 62be 6090 1f3c b842 1b3e
000000e0: dae6 2a3e 408c 58be a0db 64be 60b2 043d
000000f0: f8d4 4cbe 0806 1cbd 002e 77bb 24fd 2d3e
00000100: 5397 013e 6091 8d3e 019e 883e 768f 6f3e
00000110: e059 f6bd 2f3f 2d3e 764c 69be 530b 2a3e
00000120: 8001 5e3e 0d07 483e 9efb 7e3e e053 203d
00000130: d80c 343d 8466 f83d d8a1 d83d 34d9 b8bd
00000140: 5448 10be 5cfc afbd aa90 7d3e c408 583e
00000150: f027 a23d b4aa ab3d b6e4 2dbe 347c 51be
00000160: 8446 a2bd 0616 2bbe d0a2 ccbc e467 38be
00000170: 0807 4cbd 5c51 c33d 00b6 d7bb ba63 763e
00000180: b805 783d 80e0 02be b42c 37be 946e 0bbe
00000190: 1c14 283e 2878 523d 2a69 2abe 1071 2cbe
000001a0: a2b3 10be 6e80 65be b0f5 e9bc b221 6b3e
000001b0: 04ad c13d e0d4 c8bc 102a 963c 0c49 c8bd
000001c0: 5cc6 4fbe b8fd b0bd c0ec 613c 8465 f33d
000001d0: 6e40 55be 2e9f 67be 2800 ffbd e8b7 723e
000001e0: 305a 99bd 80b2 7a3b 605b 09be 0867 3e3e
000001f0: 6080 1e3c c036 7bbe 54e4 5f3e 5c58 fc3d
00000200: 990a 9d3e 3c1c 403e 48bf be3e 044d 4dbe
00000210: 0cc2 41be 8b3f a03e 3c07 723e 927f 873e
00000220: 8600 72be c5c0 463e 52bd 233e a86e 4a3d
00000230: 02b2 d03e ccd0 313c 1b29 123e 16b2 c03e
00000240: e913 c83e 3477 e33e 345d e73e 94eb 763e
00000250: ba37 38be 7213 f83d 5878 46be 9211 503e
00000260: 602d 733e 0361 e13e ddd5 813e f2cc 503e
00000270: fc59 183e 424c 263d e509 ec3d bd7f 9a3e
00000280: 7cd1 b33e b164 273e ede6 733e 7c6f c83d
00000290: c008 68bd a2ed aa3e 8c40 053e 8889 4c3e
000002a0: d291 4e3e ecff 543e ddf2 943e f07a c33c
000002b0: 0e95 79bd 3a23 d13e d510 84bd b88f 583e
000002c0: 30f3 a03d 08f5 d93d d5b1 44be a4e0 f1bd
000002d0: a026 5b3d 5a11 2c3d 4c49 4dbe a9c5 3c39
000002e0: cc28 10be 4f34 b2bd d713 68be 8275 3f3e
000002f0: cb81 cebc 9b39 2fbe e4a6 0fbe 109e 6b3e
00000300: 8c0d 1f3e defa 08be 7dac 043c c0e6 d13d
00000310: 56ec 6abe e9f3 693d 4885 75bd db69 b5bc
00000320: a6bc 66be 2bae 7dbe a83f 893d 700f d93c
00000330: 5070 143e 6f6c 843d a638 fbbc 3727 043d
00000340: b231 64be e463 6abe c098 5c3c 14ca 2dbe
00000350: 1871 c93d 301a aebc b0cf c4bc 5a39 6c3e
00000360: dc08 24be f073 623d 9c20 46be dc94 53be
00000370: 006a da3a 2ab2 7c3e 4292 30be 1cec 903d
00000380: 7967 f63e 4fa6 dd3d 1426 4b3e 667f 183e
00000390: 2ce3 02be 4133 d13e 3a2c 303e 48e5 d03e
000003a0: 0098 463b 133e d83e b9d2 e23d 9899 79be
000003b0: 93b8 053f 7b33 a63e 0406 bc3e 8bb6 8f3d
000003c0: 989c b5bd 3620 2cbe 96bd 413e 0072 adbb
000003d0: 2c0d a2bd 00fb 35bc 60be e3bd e0e6 cdbc
000003e0: 545f 73be 5437 16be 384d c73d 1629 103e
000003f0: 826b 45be aaac 40be 6659 0ebe 68ec f4bd

conv1.lin_node_msg_compact.ue.1.0.bias f4 [32]
0.070571095 0.24082047 0.2602854 0.08747935 0.2605645 -0.01693064 -0.1508924 0.21908599
0.3361548 0.17220251 0.16921987 0.1619337 -0.23978136 -0.2349568 0.038614925 0.20304686
-0.16174588 0.24074551 0.027746797 0.1446149 -0.053901408 -0.07453947 -0.039016396 0.19998613
-0.0108820675 0.1327044 -0.1532923 0.2988597 0.34217945 -0.24248338 0.109323174 0.20419991
00000000: 9487 903d a499 763e 2144 853e 6028 b33d
00000010: b668 853e 20b2 8abc 8a83 1abe 1458 603e
00000020: 7b1c ac3e db55 303e f947 2d3e f3d1 253e
00000030: 3f89 75be 8498 70be af2a 1e3d 84eb 4f3e
00000040: b6a0 25be fe85 763e 404d e33c ee15 143e
00000050: b9c7 5cbd 26a8 98bd a8cf 1fbd 2ac9 4c3e
00000060: b34a 32bc aae3 073e a8f8 1cbe 2304 993e
00000070: 2532 af3e 904d 78be d4e4 df3d c819 513e

conv1.lin_edge_compact.ue__uplink__ap.0.0.weight f4 [16, 1]
-0.5130128 -0.8477455 0.36937973 -0.51312315 -0.46973312 0.37085605 0.6098474 0.9691264
0.6213318 -0.6882651 -0.57492876 0.053480037 -0.09776795 0.3747243 -0.78545773 -0.7860892
00000000: cf54 03bf d905 59bf 571f bd3e 0a5c 03bf
00000010: dc80 f0be d8e0 bd3e f61e 1c3f ab18 783f
00000020: 9a0f 1f3f 2432 30bf 882e 13bf e20d 5b3d
00000030: 903a c8bd dddb bf3e c213 49bf 243d 49bf

conv1.lin_edge_compact.ue__uplink__ap.0.0.bias f4 [16]
0.28097257 1.1124674 -0.3603979 0.26007202 -0.40909934 0.143004 -0.72951245 -0.9995471
-0.18564008 0.8616327 -0.9514812 1.0888052 -0.2554134 -0.43853208 -0.8516507 1.0070076
00000000: a3db 8f3e 5565 8e3f 1386 b8be 2928 853e
00000010: 7875 d1be a46f 123e 54c1 3abf 52e2 7fbf
00000020: 6f18 3ebe f693 5c3f 4694 73bf f85d 8b3f
00000030: 8cc5 82be 4787 e0be c805 5abf a0e5 803f

conv1.lin_edge_compact.ue__uplink__ap.1.0.weight f4 [32, 16]
-0.24747837 -0.03913276 -0.18130562 -0.13309887 -0.16754228 0.18097496 0.16744475 0.2652634
0.05592726 -0.028394021 0.20454699 0.1903478 0.24107727 0.14866276 0.008773863 -0.2832035
-0.18484224 -0.08089586 0.20591222 0.28664753 0.024884433 0.27254403 0.11759273 0.29700917
0.07837546 0.018190179 0.045830965 0.29169214 -0.162307 0.18364309 -0.23527479 -0.19152759
0.21509135 -0.12137215 0.31314915 0.15995216 -0.025085658 -0.03650437 -0.14493002 0.20001201
0.17640537 -0.11465472 0.14182907 0.099424504 -0.023107141 0.14317629 0.10240486 -0.100420624
-0.084562615 0.31079596 0.07060593 0.3111862 0.15524876 -0.06405542 0.10710033 0.06911303
0.27260885 -0.026379677 0.24434465 0.31046554 -0.24307701 0.18413644 -0.109176874 -0.07744332
0.14240743 0.05091347 -0.2066857 0.20478684 0.23622832 0.24307044 0.14869133 -0.16533041
-0.024965791 0.20446122 -0.17141047 0.13314775 0.23270416 0.10904632 0.10552022 -0.052435555
0.0075642914 0.24283473 0.1543889 0.08697628 -0.07206139 0.17237557 -0.026461732 -0.15249556
-0.12130638 0.20936777 -0.07555437 0.32882488 -0.056133777 0.13591361 -0.18987146 0.2164906
0.12534186 0.06797696 0.21724603 -0.050956093 -0.015288115 0.34253713 -0.086355686 0.009829952
0.0581826 0.3314417 -0.10941899 -0.08677544 -0.22399697 0.3614932 0.05889678 0.25594
0.1794945 0.15818018 0.27571443 -0.16173401 0.15604609 -0.1447255 0.19802138 0.20838422
0.0739953 -0.18288228 -0.22203648 -0.20857297 0.10159722 -0.10957623 -0.09745997 -0.071068585
-0.101364106 0.02609846 0.20416787 0.01657939 -0.08454922 0.078832746 -0.078770936 -0.22480288
-0.15621287 -0.18148202 -0.119641036 0.101175904 0.17711514 -0.040566415 0.035900265 -0.033327192
0.44084236 0.18684424 0.21640924 0.21179289 -0.018373787 0.26974076 0.038233615 -0.034962248
0.18280725 0.4270953 0.12224507 0.21830946 0.17772311 -0.105665945 0.2248955 0.115615726
-0.19873825 -0.10590759 -0.0037935674 0.24921277 -0.12294054 -0.24075833 -0.22278461 -0.07653412
-0.15284237 -0.2354661 0.11336744 -0.16042995 0.06416142 0.10275328 0.04828146 0.07626286
0.16238922 -0.17774229 0.008581275 0.24591103 -0.012028545 0.017946728 0.11393886 0.042526457
0.3158101 0.20347418 -0.10395801 -0.1670738 -0.025242269 0.123069726 -0.092891544 -0.010614957
-0.15636927 0.15616947 0.099259146 -0.31679296 -0.11419991 0.047784865 0.26047358 0.21852984
0.05751585 0.059323344 0.104144484 -0.20674114 -0.21796727 0.063150115 -0.18594924 0.16087456
0.009931428 -0.13246875 -0.10277434 -0.1717657 0.026308805 -0.13348497 0.31040877 0.23040035
0.29812536 0.24376893 0.12625432 -0.0042799525 -0.20305371 0.12068709 0.053945214 0.22410345
0.43269345 0.27184358 0.20340373 0.15625899 -0.10612351 -0.08408096 0.22730623 -0.09758541
0.16741191 0.49660146 0.1291498 0.47458243 -0.2097444 0.33971143 -0.22135457 0.5074347
0.15736173 0.23533255 0.18198666 -0.09752033 0.17987528 0.018595649 0.027099155 -0.039729234
0.021814445 0.2314182 0.1318585 0.17906289 -0.2032913 -0.18326032 0.024553478 -0.120377764
00000000: f86a 7dbe ac49 20bd 2ea8 39be 124b 08be
00000010: 3490 2bbe 8051 393e a376 2b3e 9bd0 873e
00000020: fc13 653d 949a e8bc c474 513e 89ea 423e
00000030: f6dc 763e 0d3b 183e 40c0 0f3c 0d00 91be
00000040: 4947 3dbe bbac a5bd a7da 523e 77c3 923e
00000050: 70da cb3c e48a 8b3e 75d4 f03d 9611 983e
00000060: 5083 a03d 9203 953c 40b9 3b3d ac58 953e
00000070: ce33 26be ef0c 3c3e e0eb 70be cf1f 44be
00000080: e840 5c3e f691 f8bd 1655 a03e 80ca 233e
00000090: 7080 cdbc 9b85 15bd 8968 14be f3cf 4c3e
000000a0: 9ca3 343e 18d0 eabd a43b 113e 139f cb3d
000000b0: 304b bdbc ce9c 123e a4b9 d13d 54a9 cdbd
000000c0: 2a2f adbd a620 9f3e d899 903d cc53 9f3e
000000d0: 88f9 1e3e 7d2f 83bd 6b57 db3d 228b 8d3d
000000e0: 6393 8b3e 311a d8bc 7c35 7a3e 57f5 9e3e
000000f0: 2ee9 78be 438e 3c3e 2098 dfbd 9a9a 9ebd
00000100: 41d3 113e a58a 503d 6ba5 53be a4b3 513e
00000110: d6e5 713e 75e7 783e 8a42 183e 604c 29be
00000120: 0f85 ccbc 485e 513e 3a86 2fbe e257 083e
00000130: 004a 6e3e ad53 df3d fc1a d83d aac6 56bd
00000140: e0dd f73b aba9 783e 2018 1e3e 9f20 b23d
00000150: ec94 93bd 3983 303e 46c6 d8bc cc27 1cbe
00000160: 7b6f f8bd 8164 563e 40bc 9abd bc5b a83e
00000170: 88ec 65bd f02c 0b3e aa6d 42be b6af 5d3e
00000180: 9e59 003e 8137 8b3d be75 5e3e 56b7 50bd
00000190: 007b 7abc 0761 af3e 40db b0bd cf0d 213c
000001a0: e150 6e3d bab2 a93e 1017 e0bd 52b7 b1bd
000001b0: 765f 65be a315 b93e c03d 713d 910a 833e
000001c0: 68cd 373e fcf9 213e 712a 8d3e 9a9d 25be
000001d0: 8cca 1f3e ec32 14be 1ec6 4a3e ac62 553e
000001e0: d98a 973d 7e45 3bbe 885d 63be 2794 55be
000001f0: 3412 d03d 8169 e0bd 1899 c7bd 688c 91bd
00000200: fc97 cfbd 70cc d53c 6211 513e 80d1 873c
00000210: 2428 adbd 1073 a13d a852 a1bd ba32 66be
00000220: 44f6 1fbe 6cd6 39be 5c06 f5bd 5035 cf3d
00000230: ac5d 353e f828 26bd 280c 133d 1882 08bd
00000240: 17b6 e13e 1954 3f3e 629a 5d3e 3ce0 583e
00000250: a084 96bc 761b 8a3e da9a 1c3d 9334 0fbd
00000260: d331 3b3e 3cac da3e a05b fa3d 848c 5f3e
00000270: 0cfd 353e 6367 d8bd 024b 663e f0c7 ec3d
00000280: 0a82 4bbe 14e6 d8bd 809d 78bb a231 7f3e
00000290: 40c8 fbbd 5a89 76be a621 64be ecbd 9cbd
000002a0: b682 1cbe 061e 71be 302d e83d c047 24be
000002b0: 1067 833d 5070 d23d c8c2 453d b42f 9c3d
000002c0: 5c49 263e 1302 36be 7a98 0c3c 1ad0 7b3e
000002d0: 6013 45bc 0405 933c c758 e93d 3930 2e3d
000002e0: ddb1 a13e 895b 503e f0e7 d4bd 6515 2bbe
000002f0: e0c8 cebc fb0b fc3d ec3d bebd 5bea 2dbc
00000300: 441f 20be e4ea 1f3e 6148 cb3d b032 a2be
00000310: a4e1 e9bd 10ba 433d cb5c 853e 49c6 5f3e
00000320: bd95 6b3d 09fd 723d b449 d53d f3b3 53be
00000330: d032 5fbe d954 813d 7a69 3ebe 4dbc 243e
00000340: 6eb7 223c e3a5 07be 5a7b d2bd 59e3 2fbe
00000350: 9085 d73c 49b0 08be e6ed 9e3e 12ee 6b3e
00000360: e3a3 983e 909e 793e d048 013e d83e 8cbb
00000370: 50ed 4fbe cb2a f73d a8f5 5c3d 607b 653e
00000380: ff89 dd3e 152f 8b3e 1149 503e 5b02 203e
00000390: 4857 d9bd a332 acbd f7c2 683e dcda c7bd
000003a0: 076e 2b3e 8c42 fe3e d83f 043e 78fc f23e
000003b0: 3cc7 56be a8ee ad3e c6aa 62be 3ee7 013f
000003c0: 6f23 213e 04fb 703e b65a 3a3e bdb8 c7bd
000003d0: 3a31 383e e755 983c 0cff dd3c 1fbb 22bd
000003e0: 35b4 b23c e5f8 6c3e ea05 073e 435c 373e
000003f0: 982b 50be 98a8 3bbe 6024 c93c 9e88 f6bd

conv1.lin_edge_compact.ue__uplink__ap.1.0.bias f4 [32]
-0.07191436 0.17798083 -0.1123525 -0.0783145 0.07461525 0.031564876 0.33129323 -0.44051158
-0.11585975 0.18371554 0.11889085 0.20691866 0.1367594 0.24446012 0.41567335 0.29821938
0.21851128 -0.14860177 -0.25336528 -0.009569198 -0.010111058 0.06685614 -0.23060074 -0.16715637
0.18728004 -0.12620084 0.14814168 0.059171055 -0.21981007 -0.1725035 0.27618372 0.29448876
00000000: d647 93bd 9b40 363e 1119 e6bd 5a63 a0bd
00000010: e1cf 983d 2c4a 013d 449f a93e bc8a e1be
00000020: e047 edbd ed1f 3c3e 0c7d f33d 7ce2 533e
00000030: a80a 0c3e c153 7a3e 23d3 d43e 36b0 983e
00000040: 6cc1 5f3e 102b 18be 18b9 81be 20c8 1cbc
00000050: daa8 25bc dfeb 883d 9a22 6cbe 0a2b 2bbe
00000060: 57c6 3f3e cb3a 01be 74b2 173e 595d 723d
00000070: e415 61be c2a4 30be f467 8d3e 3bc7 963e

conv1.lin_edge_compact.ap__downlink__ue.0.0.weight f4 [16, 1]
-0.228702 -0.7493156 0.15941864 0.601853 0.018346233 -0.6986834 0.43220037 0.5559042
0.614953 -0.54484785 0.41208434 0.5617542 -0.5587499 -0.37627855 -0.21022356 1.0421505
00000000: db30 6abe 26d3 3fbf a43e 233e 0a13 1a3f
00000010: d74a 963c eadc 32bf 5e49 dd3e bd4f 0e3f
00000020: 8f6d 1d3f 267b 0bbf b8fc d23e 20cf 0f3f
00000030: 3c0a 0fbf 95a7 c0be d844 57be 3065 853f

conv1.lin_edge_compact.ap__downlink__ue.0.0.bias f4 [16]
0.7166313 -0.017431855 0.0332954 -0.9533789 1.0222034 -0.068219304 0.0049954737 1.0705138
-0.7073494 0.6689144 0.6131433 0.15012267 0.1759679 0.45353782 -0.8548796 -0.010909248
00000000: 2675 373f 40cd 8ebc c260 083d a410 74bf
00000010: 90d7 823f 90b6 8bbd 12b1 a33b 9906 893f
00000020: da14 35bf f93d 2b3f f6f6 1c3f c2b9 193e
00000030: ee30 343e 1c36 e83e 64d9 5abf b4bc 32bc

conv1.lin_edge_compact.ap__downlink__ue.1.0.weight f4 [31, 16]
0.095269844 -0.04896018 0.07836551 -0.0834333 0.16912837 -0.21278131 0.029865155 0.16167532
0.12337043 0.09580259 0.1327846 -0.013268764 0.19919516 0.0882703 -0.15058848 -0.13247916
0.16603145 0.120271325 -0.08450204 -0.0137088 -0.047350943 0.11650431 0.11610842 -0.09182376
0.109689385 -0.12866387 -0.15369931 -0.009181827 -0.18653396 0.042688847 -0.14816698 -0.0045242608
0.3733485 -0.12760368 0.38299567 0.033667747 0.19838221 -0.025164902 0.42511418 0.19317472
-0.07043973 0.093213096 0.17078093 0.024802828 0.3076341 0.35623688 0.18565148 0.03616517
0.23467362 0.04875675 -0.069772415 0.0987063 0.17759879 -0.008007735 0.07406287 0.12261693
-0.120954685 0.012115184 -0.1751094 0.13043194 0.09164802 0.15577713 -0.05786231 -0.043498192
0.012824017 -0.20454034 0.25462615 0.007978452 -0.014179482 -0.016579628 0.22084329 0.06431752
0.076044686 -0.1831826 -0.11154643 0.23740998 -0.032549433 -0.12027458 0.18945625 0.2424584
-0.11028764 -0.15059179 -0.14901945 0.09223592 -0.100771815 -0.116808355 -0.027247429 -0.11096102
-0.12442571 -0.09019211 -0.16870299 0.20097259 -0.14778921 0.15151188 -0.073816985 0.023455411
0.44850725 -0.0755766 -0.096783355 -0.0671466 0.17145108 0.0021789074 -0.04140347 0.047686595
0.1454624 0.31334722 -0.16871364 -0.07443513 -0.027905757 0.10353102 0.2087447 0.10602575
0.29814237 0.042482853 0.07882432 0.30422974 0.211238 -0.24150059 -0.1101277 0.09801766
-0.14393133 -0.056954056 0.13377686 -0.05182063 0.2288374 0.03884197 -0.23689422 0.14003965
0.37679005 0.21987891 -0.14691128 0.007748797 -0.15987965 0.17384902 0.1810303 0.049890433
0.14787838 0.3612532 -0.16121615 0.25877562 0.048915327 0.1184172 -0.23245376 0.15346651
0.06476007 0.15239426 -0.14090484 -0.03619222 0.18852083 0.11448309 0.12226436 0.20045598
0.19077292 -0.24617365 -0.030598942 0.25662795 0.19334188 -0.15034038 -0.020037979 0.07925873
0.09998706 0.05038029 -0.040410787 -0.11111191 -0.07199702 -0.027254254 0.22667745 -0.19224602
0.2100963 0.036863238 -0.09087342 -0.15359557 0.014898539 0.007678747 -0.05208218 0.004559934
0.15240665 0.14520827 0.015740532 -0.13848454 -0.0058674035 0.15768364 0.00087508635 0.10837135
-0.11243859 0.105527386 -0.08486466 0.26114836 0.2508619 -0.019440614 0.07365209 -0.0068334145
-0.06708103 -0.19656193 -0.020506578 0.08562289 -0.22385612 0.1216889 0.020300148 0.087483466
-0.08610167 0.1480796 0.18074988 0.064896286 0.23464918 0.18874466 0.015255749 0.09050835
0.26412392 0.11680287 0.3949212 0.02442717 0.22678423 0.06857079 0.101657055 0.046394266
0.34985927 0.37917215 0.16742434 0.37904492 0.16031866 0.39712384 0.24280003 0.008677921
0.024407068 0.04612419 -0.06894369 0.04296143 0.023651082 -0.11855909 0.1523242 -0.081201755
-0.16514918 0.1384121 0.15280537 0.25652993 0.009978022 0.07088854 0.0402053 -0.08255846
-0.2281757 0.23958248 0.19245958 -0.20905876 -0.21165693 0.17729983 0.10889283 -0.14694256
0.010935575 0.18439102 0.019382715 0.045836926 -0.0047733486 0.1315015 -0.08761865 -0.05316767
00000000: d61c c33d 788a 48bd 197e a03d 14df aabd
00000010: fd2f 2d3e 58e3 59be c5a7 f43c 378e 253e
00000020: a3a9 fc3d 2634 c43d b0f8 073e 3b65 59bc
00000030: d1f9 4b3e 0fc7 b43d de33 1abe 9ea8 07be
00000040: 2604 2a3e d050 f63d 680f adbd e09a 60bc
00000050: 10f3 41bd d099 ee3d 40ca ed3d 180e bcbd
00000060: d4a4 e03d 76c0 03be 5a63 1dbe 606f 16bc
00000070: c202 3fbe 80da 2e3d 16b9 17be 4040 94bb
00000080: 8927 bf3e 8aaa 02be 0218 c43e 31e7 093d
00000090: b524 4b3e a026 cebc 91a8 d93e 98cf 453e
000000a0: b542 90bd 82e6 be3d 32e1 2e3e 4d2f cb3c
000000b0: 3782 9d3e ae64 b63e 6c1b 3e3e ee21 143d
000000c0: 484e 703e 28b5 473d d7e4 8ebd 8726 ca3d
000000d0: 75dc 353e e032 03bc 46ae 973d 961e fb3d
000000e0: 17b7 f7bd c47e 463c e14f 33be f38f 053e
000000f0: f5b1 bb3d 0a84 1f3e 0801 6dbd 292b 32bd
00000100: d31b 523c 0673 51be 5c5e 823e 0eb8 023c
00000110: 0f51 68bc 00d2 87bc be24 623e e7b8 833d
00000120: 51bd 9b3d 3894 3bbe 7472 e4bd 9a1b 733e
00000130: 8e52 05bd 8552 f6bd d200 423e 0447 783e
00000140: 7cde e1bd bc34 1abe 8e98 18be 30e6 bc3d
00000150: 7461 cebd 3839 efbd 0036 dfbc 883f e3bd
00000160: e8d2 febd a4b6 b8bd 7ac0 2cbe c2cb 4d3e
00000170: 0e56 17be ee25 1b3e 5c2d 97bd 9025 c03c
00000180: bea2 e53e e8c7 9abd 5a36 c6bd 2884 89bd
00000190: df90 2f3e 00cc 0e3b af96 29bd 0553 433d
000001a0: 18f4 143e 0c6f a03e 45c3 2cbe 7271 98bd
000001b0: 9d9a e4bc 1208 d43d 2cc1 553e 0724 d93d
000001c0: 1ea6 983e 8002 2e3d a56e a13d 00c4 9b3e
000001d0: c64e 583e ee4b 77be a28a e1bd 7cbd c83d
000001e0: bc62 13be a848 69bd cdfc 083e de41 54bd
000001f0: 5a54 6a3e c218 1f3d 6694 72be 8e66 0f3e
00000200: a0ea c03e f027 613e e96f 16be 9fe9 fd3b
00000210: 7eb7 23be 7a05 323e 0260 393e e959 4c3d
00000220: 6e6d 173e 2ef6 b83e d915 25be 3d7e 843e
00000230: 705b 483d b884 f23d 5c08 6ebe 5326 1d3e
00000240: eda0 843d 3e0d 1c3e 5c49 10be 4b3e 14bd
00000250: 9b0b 413e 1c76 ea3d bd65 fa3d 5544 4d3e
00000260: fa59 433e f214 7cbe a2aa fabc bd64 833e
00000270: 6afb 453e d4f2 19be b026 a4bc 6752 a23d
00000280: 04c6 cc3d 905b 4e3d c885 25bd a48e e3bd
00000290: 2c73 93bd 5044 dfbc 221e 683e 24dc 44be
000002a0: 7c23 573e e8fd 163d d81b babd 2848 1dbe
000002b0: 0019 743c 009e fb3b 2054 55bd 806b 953b
000002c0: 7d10 1c3e 7ab1 143e 4af2 803c e4ce 0dbe
000002d0: 5943 c0bb d277 213e 0d66 653a ccf1 dd3d
000002e0: 3446 e6bd be1e d83d 86cd adbd 3db5 853e
000002f0: f970 803e ec41 9fbc e8d6 963d d6ea dfbb
00000300: c761 89bd 8847 49be 69fd a7bc 0e5b af3d
00000310: 8a3a 65be 0838 f93d 7f4c a63c 882a b33d
00000320: 1356 b0bd 2ea2 173e 7f16 393e 58e8 843d
00000330: e047 703e 4846 413e 40f3 793c 715c b93d
00000340: 403b 873e 5836 ef3d 1d33 ca3e 7d1b c83c
00000350: 203a 683e d86e 8c3d 9331 d03d ea07 3e3d
00000360: c120 b33e da22 c23e 4971 2b3e 2d12 c23e
00000370: 932a 243e d153 cb3e 92a0 783e d72d 0e3c
00000380: 55f1 c73c b8ec 3c3d 5932 8dbd 53f8 2f3d
00000390: eabf c13c 1ccf f2bd e0fa 1b3e 1b4d a6bd
000003a0: de1c 29be e7bb 0d3e 0379 1c3e e457 833e
000003b0: dc7a 233c 032e 913d 50ae 243d 6914 a9bd
000003c0: e4a6 69be 1c55 753e 2014 453e 8013 56be
000003d0: 98bc 58be 168e 353e 3403 df3d 1c78 16be
000003e0: 202b 333c 00d1 3c3e 80c8 9e3c 80bf 3b3d
000003f0: c069 9cbb 54a8 063e 6871 b3bd 58c6 59bd

conv1.lin_edge_compact.ap__downlink__ue.1.0.bias f4 [31]
0.19358118 -0.035467803 0.30339083 0.094511025 -0.0756521 0.044436604 0.4984007 -0.12777331
0.009902991 0.048005603 -0.18079641 0.35846055 -0.093706995 0.42706302 0.116649844 0.1787329
0.116908744 0.35694954 -0.07678095 -0.08554297 0.29459038 0.04338749 0.2903838 0.0037252903
0.09114748 0.31443784 0.15343177 0.13977964 0.29226536 0.15354621 0.025861843
00000000: 253a 463e b046 11bd 0b56 9b3e ff8e c13d
00000010: 7def 9abd 2803 363d 602e ff3e 02d7 02be
00000020: 2840 223c 86a1 443d b222 39be 2488 b73e
00000030: 74e9 bfbd 01a8 da3e 1de6 ee3d c205 373e
00000040: da6d ef3d 17c2 b63e 553f 9dbd 2731 afbd
00000050: 8dd4 963e 15b7 313d 2fad 943e 0024 743b
00000060: 88ab ba3d fffd a03e 381d 1d3e 6522 0f3e
00000070: cea3 953e 383b 1d3e 37dc d33c

conv1.lin_node_upd.ue.0.0.weight f4 [16, 1]
0.11644593 -0.71177745 0.3352006 -0.19418633 -0.415406 0.28488106 -0.49957478 0.85459554
0.61125165 -0.40388525 -0.44456184 0.397394 -0.073800206 0.3298506 0.417856 -0.058214784
00000000: 347b ee3d 0c37 36bf 6a9f ab3e c8d8 46be
00000010: 18b0 d4be eedb 913e 44c8 ffbe c6c6 5a3f
00000020: fd7a 1c3f 0cca cebe 9c9d e3be 3a77 cb3e
00000030: 9024 97bd 2ee2 a83e 39f1 d53e a072 6ebd

conv1.lin_node_upd.ue.0.0.bias f4 [16]
0.68156403 0.1567632 0.59367573 0.7570454 -0.32733977 -0.3311156 0.96034503 -0.09934832
0.8312401 0.43860257 0.57799387 0.30426398 0.13730717 0.287955 0.8327575 -0.76010215
00000000: fb7a 2e3f 8886 203e 22fb 173f bacd 413f
00000010: 1499 a7be fc87 a9be 2cd9 753f 2277 cbbd
00000020: 27cc 543f 8490 e03e 68f7 133f 7dc8 9b3e
00000030: 409a 0c3e d66e 933e 982f 553f 0e96 42bf

conv1.lin_node_upd.ue.1.0.weight f4 [31, 16]
0.060201466 0.1714589 0.13641307 -0.10353914 0.10889462 0.16974378 0.08607182 -0.14215651
-0.10860118 0.1674476 0.18989497 0.012858838 0.21784171 -0.19738063 -0.046465635 -0.17583477
0.051959947 0.0042292476 0.04072317 0.07177287 -0.012898266 0.35345545 0.17277151 0.35750863
0.13799904 -0.20832157 -0.038732886 0.14333507 -0.052113235 -0.02968174 0.21629956 0.1984173
0.22416833 0.2203463 -0.17869666 -0.23810482 0.0896413 0.16787317 0.18481353 -0.19319338
-0.059676945 -0.127381 -0.20168981 -0.07509971 -0.10401079 0.098243296 -0.011279017 0.14336264
-0.05735985 0.018053442 0.25966582 0.08585963 -0.21323714 0.07016927 -0.07237062 0.09372984
0.25853306 0.04622394 0.07148206 0.3830438 -0.06950548 0.16974689 0.18233179 0.07714516
-0.21839511 0.11273828 0.15797171 0.041630298 0.009628296 -0.22324198 -0.18124837 -0.1910097
0.009822279 0.06703541 0.007160753 -0.19987106 0.1975914 0.0324544 0.2005027 -0.01999417
-0.038045313 -0.05949053 0.012401809 -0.049826354 0.07385743 0.21560055 0.20728374 -0.21708822
-0.03998202 0.13440078 0.1936644 0.16999184 -0.20128983 0.20875409 0.012689894 0.22977808
0.22494607 -0.11954746 0.45701513 0.105944216 -0.05775997 0.36478353 0.008997798 0.46098623
0.5140807 0.15797281 -0.07328987 0.10086752 0.13025963 0.12126904 0.11862814 -0.12879694
0.2126053 -0.10818389 0.26572084 -0.051626265 -0.049343526 0.27608484 0.14945969 -0.019418543
-0.0034047028 -0.074379474 0.09894118 0.11499586 0.11175448 -0.14794579 0.30464178 -0.0045194626
0.08151721 -0.21270594 0.35478747 -0.14548326 -0.09835303 0.28421116 0.0013988614 0.15177575
0.3686047 -0.17946813 -0.15869787 0.097285226 -0.123475164 0.33642495 0.31906945 0.19364193
-0.23456919 0.13780496 -0.05541569 0.13398111 0.22661722 -0.18530247 0.23461625 -0.094903976
0.083649546 -0.069141954 -0.087789476 -0.063326746 -0.04714051 -0.10343909 -0.059937835 -0.11486685
0.2769441 -0.14502391 0.5290284 0.17222926 -0.019141078 0.35401288 -0.0064103007 0.39584112
0.31818077 -0.18652552 -0.09292713 0.048834965 -0.14758489 0.08867514 0.24230044 -0.115875006
0.109651715 -0.07274303 0.13905028 0.06136626 0.096710086 -0.21974662 0.09461725 -0.07952282
-0.151279 0.19532937 0.08391321 -0.041187346 -0.013588697 -0.045321763 -0.24589065 -0.052042127
0.06384502 -0.041281134 0.050092623 -0.19828072 0.21981871 0.07312494 0.04622978 0.22687362
0.13901912 0.21446693 0.012004495 -0.10506437 -0.12453836 -0.07518664 0.18265828 -0.16129032
0.08106688 0.076584995 -0.085988194 0.2280941 0.12951392 0.053632528 0.10902214 0.13760874
0.12237772 0.031380147 -0.03651586 -0.1856246 -0.14441183 -0.20470622 -0.15443262 0.2461119
0.17407212 0.12952274 -0.18538922 0.05876556 -0.14760649 -0.092384785 0.032662928 -0.24241287
-0.06413692 -0.1537439 -0.0040723383 0.20142758 -0.021261573 -0.13860974 0.08527318 0.035984814
-0.09972334 0.17784968 0.15687051 0.0074180663 -0.058012724 -0.10298863 0.11403775 -0.0657942
-0.09678459 -0.031857044 -0.16574618 -0.07541135 -0.17020333 0.01604721 0.008497328 0.22921488
00000000: d095 763d ec92 2f3e deaf 0b3e 540c d4bd
00000010: 2404 df3d 50d1 2d3e 6c46 b03d 7a91 11be
00000020: 4c6a debd 6277 2b3e d473 423e e0ad 523c
00000030: e611 5f3e 261e 4abe c052 3ebd 080e 34be
00000040: f4d3 543d 8095 8a3b 57cd 263d a8fd 923d
00000050: 4053 53bc 1df8 b43e 04eb 303e 5f0b b73e
00000060: 9f4f 0d3e 4052 55be 60a6 1ebd 6ec6 123e
00000070: b074 55bd 1f27 f3bc a27d 5d3e e82d 4b3e
00000080: 628c 653e 76a2 613e 42fc 36be c0d1 73be
00000090: dc95 b73d f2e6 2b3e c23f 3d3e 7cd4 45be
000000a0: d06f 74bd 2a70 02be c687 4ebe e0cd 99bd
000000b0: 9c03 d5bd c833 c93d a0cb 38bc a8cd 123e
000000c0: 29f2 6abd d0e4 933c ebf2 843e 2cd7 af3d
000000d0: d65a 5abe e8b4 8f3d 0c37 94bd 6ef5 bf3d
000000e0: 725e 843e 5055 3d3d 3065 923d 511e c43e
000000f0: e458 8ebd 21d2 2d3e 2fb5 3a3e 48fe 9d3d
00000100: f8a2 5fbe 54e3 e63d 56c3 213e 8884 2a3d
00000110: 00c0 1d3c 8c99 64be 2c99 39be 0c98 43be
00000120: a0ed 203c dc49 893d c0a4 ea3b 00ab 4cbe
00000130: 6655 4a3e e8ee 043d 9450 4d3e d0ca a3bc
00000140: 67d5 1bbd 58ac 73bd f530 4b3c b816 4cbd
00000150: 9042 973d 64c6 5c3e 3042 543e 604c 5ebe
00000160: 30c4 23bd 5ca0 093e f64f 463e 5712 2e3e
00000170: ec1e 4ebe a2c3 553e 46e9 4f3c f24a 6b3e
00000180: 4358 663e 4cd5 f4bd e3fd e93e 48f9 d83d
00000190: b895 6cbd e8c4 ba3e 806b 133c 6306 ec3e
000001a0: cb9a 033f a0c3 213e 0019 96bd a193 ce3d
000001b0: c862 053e e75b f83d 4ff3 f23d 58e3 03be
000001c0: 34b5 593e 848f ddbd 900c 883e 1076 53bd
000001d0: 701c 4abd fe5a 8d3e f60b 193e a313 9fbc
000001e0: 6f21 5fbb 4454 98bd aca1 ca3d f382 eb3d
000001f0: 88df e43d 1a7f 17be 02fa 9b3e 0018 94bb
00000200: 7ff2 a63d 96cf 59be b4a6 b53e 90f9 14be
00000210: 506d c9bd 2084 913e 005a b73a 1a6b 1b3e
00000220: c1b9 bc3e 7ec6 37be b281 22be 7a3d c73d
00000230: 8ce0 fcbd e43f ac3e 125d a33e 124a 463e
00000240: e832 70be be1c 0d3e 90fb 62bd 5832 093e
00000250: 580e 683e eebf 3dbe 3e3f 703e 045d c2bd
00000260: 7450 ab3d 4c9a 8dbd f8ca b3bd 74b1 81bd
00000270: 6816 41bd e0d7 d3bd 6081 75bd 503f ebbd
00000280: 9ecb 8d3e 2681 14be 686e 073f de5c 303e
00000290: c0cd 9cbc 2d41 b53e 800d d2bb b0ab ca3e
000002a0: 97e8 a23e 8c00 3fbe 9450 bebd 2c07 483d
000002b0: 7e20 17be 509b b53d 9b1d 783e e04f edbd
000002c0: 1491 e03d 4cfa 94bd 3263 0e3e 305b 7b3d
000002d0: f00f c63d 4205 61be b0c6 c13d dcdc a2bd
000002e0: e2e8 1abe 6c04 483e b0da ab3d 10b4 28bd
000002f0: 20a3 5ebc 50a3 39bd c2ca 7bbe 202a 55bd
00000300: 2ec1 823d 6816 29bd ec2d 4d3d 1a0a 4bbe
00000310: 2818 613e 87c2 953d 705b 3d3d 8f51 683e
00000320: 075b 0e3e 389d 5b3e 80ae 443c fd2b d7bd
00000330: f80d ffbd 74fb 99bd c60a 3b3e 4a29 25be
00000340: 6406 a63d 98d8 9c3d 941a b0bd 8091 693e
00000350: 4c9f 043e c8ad 5b3d 0047 df3d 4ee9 0c3e
00000360: 2ca1 fa3d 7888 003d a891 15bd 6014 3ebe
00000370: b2e0 13be 829e 51be 9623 1ebe c204 7c3e
00000380: f63f 323e 9ca1 043e acd6 3dbe 28b4 703d
00000390: 2826 17be 3c34 bdbd 90c9 053d 143b 78be
000003a0: 385a 83bd 0a6f 1dbe 4071 85bb 0843 4e3e
000003b0: c02c aebc b6ef 0dbe b4a3 ae3d d064 133d
000003c0: c03b ccbd 3a1e 363e aaa2 203e 4013 f33b
000003d0: c09e 6dbd b4eb d2bd a08c e93d 1cbf 86bd
000003e0: 0037 c6bd 887c 02bd 5eb9 29be 4471 9abd
000003f0: c849 2ebe 7075 833c 6038 0b3c 4eb7 6a3e

conv1.lin_node_upd.ue.1.0.bias f4 [31]
-0.035206705 0.04926794 0.011262208 0.18216662 -0.0314115 -0.013068086 0.5188408 0.31093457
0.03757418 -0.043514132 0.100584425 0.17550933 -0.14468688 -0.21844864 0.16499257 0.11382753
0.10317376 -0.24251401 -0.088939495 -0.1425393 0.09742147 -0.0059728324 0.16399129 0.21132106
0.09931545 0.1457893 0.043823745 0.063996464 0.14342701 0.09810739 -0.22644219
00000000: e834 10bd 2ecd 493d 2085 383c e389 3a3e
00000010: 58a9 00bd 861b 56bc c0d2 043f d132 9f3e
00000020: 62e7 193d e03b 32bd 35ff cd3d b8b8 333e
00000030: cc28 14be 00b1 5fbe d0f3 283e 681e e93d
00000040: c44c d33d 9855 78be e925 b6bd d2f5 11be
00000050: e884 c73d c0b7 c3bb 55ed 273e 8c64 583e
00000060: e665 cb3d ca49 153e 8780 333d 9410 833d
00000070: 88de 123e 87ec c83d 76e0 67be

conv1.lin_node_upd.ap.0.0.bias f4 [16]
0.0 0.0 0.0 0.0 0.0 0.0 0.0 0.0
0.0 0.0 0.0 0.0 0.0 0.0 0.0 0.0
00000000: 0000 0000 0000 0000 0000 0000 0000 0000
00000010: 0000 0000 0000 0000 0000 0000 0000 0000
00000020: 0000 0000 0000 0000 0000 0000 0000 0000
00000030: 0000 0000 0000 0000 0000 0000 0000 0000

conv1.lin_node_upd.ap.1.0.weight f4 [31, 16]
0.13790217 -0.009118438 0.08131176 -0.20423198 -0.0782274 -0.24992913 -0.20140904 0.0026714206
-0.16514963 0.016897619 0.18929064 -0.09766522 0.121714115 -0.18795574 0.12703681 -0.16104668
0.15662217 -0.19531536 -0.08756861 -0.07351303 -0.20733935 0.1802434 0.079958946 0.039462537
0.07476422 -0.24005687 -0.22238103 0.12297052 0.044690877 0.1776506 0.13442901 -0.072078794
0.23178801 0.08808559 -0.24679482 -0.07661328 0.13202411 0.098498076 0.13355839 -0.18643504
-0.16542137 0.024317235 0.11677784 0.056078166 -0.069684386 0.055146098 0.19854262 0.013311416
-0.047359794 0.22304124 -0.21199104 0.07036427 0.09632155 0.089828104 0.059928894 -0.22541353
0.24013859 0.16092134 0.18420851 -0.077210754 -0.0019563735 0.056500256 0.14832452 -0.04552445
-0.09121314 0.14679855 -0.07736501 -0.02390173 0.2229859 0.0018176138 0.09771305 -0.10673308
-0.0023579597 -0.14282253 -0.15748101 0.11364856 0.12873709 -0.18564186 0.20260379 -0.066001385
-0.18735388 0.08332768 -0.032677352 0.15095234 0.11589858 0.12301931 -0.1308352 0.09548482
0.04773885 -0.1656461 -0.04925126 -0.2332083 -0.1963506 -0.13465458 0.20286041 0.010500431
0.05442375 -0.05938539 0.16361341 0.045287907 0.105689764 0.12159073 0.0024935603 -0.13891691
0.18758881 0.15140477 0.2469928 0.12385118 -0.15347087 0.004403442 -0.05834958 0.10040593
0.13363755 -0.1816797 -0.24406725 -0.08194864 -0.19523531 -0.13096696 0.19384176 0.017135829
0.1699517 0.18277153 -0.17920882 -0.011286497 -0.09242821 0.09507948 -0.11449832 -0.21312395
0.04701999 0.05108741 0.06715232 -0.052372545 -0.17957383 -0.19139478 0.13626722 -0.054717988
-0.23484686 0.05457738 -0.1877265 0.03065759 0.059591413 -0.041487336 -0.11569673 0.13381249
-0.009246677 0.071475595 -0.17552388 0.18506932 -0.15805611 0.1122233 0.06626573 -0.23546669
0.20920298 -0.23247728 0.04401508 -0.20112768 0.23751992 0.14388192 -0.089295655 -0.10984266
-0.06757197 0.10360521 -0.22306454 0.19448698 -0.07355702 -0.13451436 0.07108927 0.12963253
0.18824741 0.10653797 -0.104182184 -0.1745126 0.044762433 0.2280733 0.106518865 0.029230952
-0.13443294 0.18777731 0.107171446 0.010835975 0.08007699 -0.18181196 -0.16105974 0.10068047
-0.15906018 0.12568021 0.2381759 -0.23385811 -0.030307919 0.10421607 -0.15739354 -0.17229638
-0.13959444 0.18948862 -0.07678723 0.014962703 0.08989653 -0.052234918 -0.19479194 0.2086359
0.04629004 -0.08455679 0.13127935 -0.19678503 -0.24976194 0.20457372 0.007461816 -0.18247527
-0.20643663 0.13822225 -0.1400935 0.12394428 0.21143544 -0.17173931 -0.0073159933 0.2308087
-0.10498759 -0.0963507 -0.19910267 0.21711382 0.14868462 -0.13907096 -0.1183832 0.1543104
0.13271046 -0.10102862 0.14749661 0.24163276 0.15466386 -0.20729333 0.15038061 -0.13653353
-0.033361882 0.012848049 -0.07104972 -0.13643968 0.11038256 -0.004990816 -0.0025297403 0.083402365
0.023775607 0.20346445 0.15521672 -0.08584806 -0.012429297 0.14567462 0.23051125 0.17791289
0.09356654 0.13829267 -0.17414498 -0.11784139 -0.042699873 -0.16325617 -0.1961934 0.03707078
00000000: 3a36 0d3e 8065 15bc c886 a63d 3022 51be
00000010: b035 a0bd 6ced 7fbe 2c3e 4ebe 0013 2f3b
00000020: fc1c 29be e06c 8a3c 68d5 413e b404 c8bd
00000030: 4045 f93d 7877 40be f015 023e 6ce9 24be
00000040: 9061 203e c000 48be 2c57 b3bd 008e 96bd
00000050: c450 54be ba91 383e 84c1 a33d 78a3 213d
00000060: fc1d 993d 78d1 75be dab7 63be f8d7 fb3d
00000070: c80d 373d 0aea 353e c2a7 093e 0c9e 93bd
00000080: d659 6d3e 3866 b43d c8b7 7cbe 6ce7 9cbd
00000090: 5431 073e 5cb9 c93d 88c3 083e d4e8 3ebe
000000a0: 3864 29be f034 c73c 3829 ef3d 38b2 653d
000000b0: b0b6 8ebd e0e0 613d c24e 4b3e 2018 5a3c
000000c0: 58fc 41bd ec64 643e 2e14 59be 241b 903d
000000d0: 3c44 c53d ccf7 b73d 0078 753d ced2 66be
000000e0: e4e6 753e 90c8 243e 28a1 3c3e ac20 9ebd
000000f0: 8036 00bb d06c 673d 62e2 173e d877 3abd
00000100: f4cd babd 5c52 163e 8c71 9ebd 90cd c3bc
00000110: 6a56 643e 003d ee3a c81d c83d e096 dabd
00000120: 0088 1abb 1240 12be b442 21be 94c0 e83d
00000130: a8d3 033e e618 3ebe 5e77 4f3e bc2b 87bd
00000140: b2d9 3fbe b4a7 aa3d b0d8 05bd 4093 1a3e
00000150: 3c5c ed3d 8cf1 fb3d aaf9 05be 8c8d c33d
00000160: d089 433d 229f 29be b0bb 49bd 28ce 6ebe
00000170: 2210 49be e4e2 09be a4ba 4f3e 000a 2c3c
00000180: 70eb 5e3d 183e 73bd 468a 273e d07f 393d
00000190: e073 d83d 9004 f93d 006b 233b 3c40 0ebe
000001a0: 4817 403e da09 1b3e aeeb 7c3e b0a5 fd3d
000001b0: 7827 1dbe c04a 903b f8ff 6ebd a0a1 cd3d
000001c0: 48d8 083e 3e0a 3abe c4ec 79be b0d4 a7bd
000001d0: c4eb 47be 341c 06be 747e 463e 7060 8c3c
000001e0: d207 2e3e 7628 3b3e 8482 37be 00eb 38bc
000001f0: 004b bdbd 08b9 c23d 187e eabd 2a3d 5abe
00000200: 0898 403d 0841 513d 2887 893d 9884 56bd
00000210: 34e2 37be fefc 43be a289 0b3e f81f 60bd
00000220: b27b 70be 888c 5f3d 603b 40be a025 fb3c
00000230: 2016 743d a0ee 29bd 68f2 ecbd 2406 093e
00000240: 607f 17bc cc61 923d 88bc 33be d082 3d3e
00000250: 76d9 21be 54d5 e53d 54b6 873d 2e1e 71be
00000260: 4e39 563e 860e 6ebe 2849 343d 6af4 4dbe
00000270: 6c38 733e c855 133e a4e0 b6bd 30f5 e0bd
00000280: 2c63 8abd f82e d43d 086b 64be 9827 473e
00000290: 10a5 96bd 22be 09be 4097 913d 64be 043e
000002a0: eec3 403e 9430 da3d 785d d5bd 6eb3 32be
000002b0: d058 373d 0c8c 693e 9026 da3d c075 ef3c
000002c0: caa8 09be b248 403e b47c db3d 6089 313c
000002d0: 68ff a33d ea2c 3abe d8ec 24be 9031 ce3d
000002e0: ace0 22be 50b2 003e 62e4 733e 8078 6fbe
000002f0: 5048 f8bc 3c6f d53d c62b 21be 766e 30be
00000300: d8f1 0ebe 4e09 423e a042 9dbd 2026 753c
00000310: ac1b b83d 48f4 55bd 8a77 47be a6a4 553e
00000320: a09a 3d3d 1c2c adbd 186e 063e 0482 49be
00000330: 98c1 7fbe c67b 513e 4082 f43b ccda 3abe
00000340: 2064 53be 228a 0d3e ac74 0fbe 80d6 fd3d
00000350: 8882 583e 6edc 2fbe 00bb efbb 1e59 6c3e
00000360: bc03 d7bd 8453 c5bd 92e1 4bbe 1653 5e3e
00000370: c840 183e 9e68 0ebe e472 f2bd 8c03 1e3e
00000380: 40e5 073e 18e8 cebd 5a09 173e 946e 773e
00000390: 3460 1e3e b444 54be 60fd 193e 72cf 0bbe
000003a0: 78a6 08bd a080 523c 8482 91bd d8b6 0bbe
000003b0: 4010 e23d 008a a3bb 00ca 25bb dcce aa3d
000003c0: 10c5 c23c fc58 503e 22f1 1e3e 1cd1 afbd
000003d0: 40a4 4bbc ba2b 153e 240b 6c3e cc2e 363e
000003e0: d09f bf3d 989c 0d3e 1053 32be d456 f1bd
000003f0: 10e6 2ebd a02c 27be ece6 48be 88d7 173d

conv1.lin_node_upd.ap.1.0.bias f4 [31]
-0.21682146 0.08557311 0.031790286 0.20338506 0.19012135 0.053123355 0.13052318 -0.18834674
0.0351938 -0.18338117 0.078566074 0.21797934 -0.22608963 -0.13955092 0.07599515 0.21520972
0.1374745 0.16303337 0.0070735514 0.018770933 -0.16840637 0.025786579 -0.19898504 -0.09998426
0.24297795 0.04613045 -0.23335916 0.027034879 -0.10122445 0.13221332 0.08135685
00000000: 7206 5ebe f440 af3d 8836 023d 2c44 503e
00000010: 2caf 423e e097 593d dea7 053e f8dd 40be
00000020: 6027 103d 46c8 3bbe 40e7 a03d fa35 5f3e
00000030: 0a84 67be 70e6 0ebe 58a3 9b3d f05f 5c3e
00000040: 1ec6 0c3e 38f2 263e 40c9 e73b 80c5 993c
00000050: b872 2cbe 603e d33c bcc2 4bbe 8cc4 ccbd
00000060: 36cf 783e 48f3 3c3d b4f5 6ebe 4078 dd3c
00000070: c44e cfbd ee62 073e 6c9e a63d

conv2.lin_node_msg.ue.0.0.weight f4 [16, 32]
-0.14814083 0.07957993 -0.116434984 -0.082754195 0.15392256 -0.0757151 -0.16411234 0.14554513
0.007391609 -0.04082921 0.07509451 -0.008643686 -0.03936351 -0.043969784 0.059269786 -0.039791893
-0.091162786 0.14947824 -0.17501211 -0.15497902 -0.023698667 -0.060863905 0.025933167 0.043893855
-0.02427043 0.15233979 0.059045836 0.14206311 0.16069767 0.08304642 -0.033378933 0.0128438305
0.05143559 -0.119815856 -0.019728813 0.034734607 0.059958212 -0.049989745 -0.057875145 -0.071168765
-0.03321319 -0.07999337 0.064545706 -0.16081972 0.10092893 -0.1262054 0.0036018486 0.12955844
0.09789137 -0.124075346 0.06956955 -0.0039307205 0.020293076 0.049033854 0.14688611 -0.031879287
-0.050574362 0.05624033 -0.12451047 0.04866195 -0.06979642 0.13448822 0.16303031 -0.121044226
0.15081497 -0.1449932 -0.0057443622 0.037158493 0.027303614 0.021464651 0.14818797 0.12087455
0.0005957457 -0.12615451 -0.006502458 -0.04066566 -0.021865679 0.16140616 0.13086122 -0.15697265
0.12490347 0.117066786 -0.03625495 0.09774754 -0.0107961465 -0.05216313 0.13027285 0.13570006
0.023144245 0.050982006 -0.11774862 -0.01341924 0.15541972 0.02332044 -0.06706269 0.17228247
0.041717794 0.11133539 -0.0021792029 -0.038322803 -0.08924654 -0.10384054 0.003776758 0.11224945
0.09059899 -0.047605053 0.16959552 0.12387443 -0.15869045 -0.17500417 -0.10329834 0.06149181
0.03508647 -0.15283166 -0.08374576 0.11241365 0.056129128 -0.0040687514 -0.1342575 0.035763644
-0.1605431 -0.000817691 -0.016095607 0.032562234 -0.02567643 0.16347982 0.059924368 -0.16149686
-0.0071368944 -0.05026604 -0.112204894 0.051518496 0.11915578 -0.09353305 -0.11130606 -0.062336177
-0.11954846 -0.088144675 0.028044512 -0.12535697 -0.14895871 -0.0598469 0.0026205014 -0.0705927
0.031482853 0.11808274 0.124712355 -0.11905494 -0.053145826 0.0049907346 -0.1274036 0.15347123
-0.17568257 -0.14191659 0.14615203 0.150199 0.1090074 -0.0046965075 -0.1545455 -0.020060573
0.114171006 -0.03626165 0.09021135 0.09491173 -0.1118497 -0.1684634 -0.009867673 0.15232407
0.01159346 0.05466107 0.07108312 0.02543048 -4.4338485e-05 -0.16500054 0.117097095 -0.06368931
-0.16816606 -0.15502198 -0.09800392 -0.15446985 -0.040053982 0.09863521 0.072736084 -0.08090532
0.006576236 0.12813775 -0.042090412 -0.12855084 -0.15112291 0.14160323 -0.030855771 -0.015248034
0.07804625 0.09449791 -0.041824594 0.046925835 0.08982764 0.026865602 -0.092916474 0.007541989
0.110773236 -0.0075011062 -0.111323796 -0.106910765 0.0464151 -0.17042731 -0.020732624 0.13118643
-0.06937892 -0.16227394 -0.06312483 -0.09484288 0.06851836 0.12008663 -0.07409669 -0.05057668
0.07683996 -0.06002847 -0.07728206 -0.03521112 0.13873863 -0.16151655 0.1291489 -0.068416595
-0.15139851 0.16794798 0.03044781 0.14125451 0.17157428 0.03244635 -0.14335072 -0.10317393
0.106956266 0.047166158 0.0005872953 0.14168194 -0.116361715 0.018329032 0.12759262 -0.054657824
-0.096685104 -0.050463054 -0.07109233 0.17265056 0.1647462 0.11660292 0.07432428 -0.0019532957
-0.09594256 0.15062977 -0.023967754 0.043385964 0.063028485 0.08135646 0.14889339 0.15595578
00000000: 3bb2 17be cdfa a23d 7775 eebd 087b a9bd
00000010: e09d 1d3e 8510 9bbd 110d 28be c809 153e
00000020: 4f35 f23b 883c 27bd 27cb 993d 3f9e 0dbc
00000030: a23b 21bd a919 34bd e0c4 723d d3fc 22bd
00000040: 8eb3 babd d310 193e 6036 33be d2b2 1ebe
00000050: b523 c2bc 6e4c 79bd cb71 d43c 0bca 333d
00000060: c8d2 c6bc f6fe 1b3e 0cda 713d fe78 113e
00000070: ee8d 243e 3e14 aa3d 59b8 08bd ee6e 523c
00000080: 20ae 523d 0462 f5bd 529e a1bc e045 0e3d
00000090: be96 753d 0cc2 4cbd 7d0e 6dbd eec0 91bd
000000a0: 8e0a 08bd 90d3 a3bd 8a30 843d edad 24be
000000b0: d4b3 ce3d fd3b 01be fe0c 6c3b f8aa 043e
000000c0: 457b c83d 371b febd 7b7a 8e3d 46cd 80bb
000000d0: aa3d a63c b9d7 483d 5069 163e db93 02bd
000000e0: 1027 4fbd 435c 663d 58ff febd c151 473d
000000f0: 6df1 8ebd 48b7 093e 6bf1 263e 09e6 f7bd
00000100: 3d6f 1a3e 1979 14be 343b bcbb 8133 183d
00000110: d4ab df3c a3d6 af3c 96be 173e 138d f73d
00000120: d12b 1c3a a62e 01be 9212 d5bb 0991 26bd
00000130: a71f b3bc a847 253e 7c00 063e 70bd 20be
00000140: 64cd ff3d b6c0 ef3d 1280 14bd dd2f c83d
00000150: 52e2 30bc 02a9 55bd 3f66 053e f5f4 0a3e
00000160: 0099 bd3c 82d2 503d 3026 f1bd 5fdc 5bbc
00000170: 5926 1f3e 820a bf3c 2a58 89bd d16a 303e
00000180: 47e0 2a3d cf03 e43d f5d0 0ebb 5ff8 1cbd
00000190: e4c6 b6bd 59aa d4bd 7c83 773b 0ae3 e53d
000001a0: f78b b93d 84fd 42bd 73aa 2d3e e1b1 fd3d
000001b0: c07f 22be 4b34 33be 158e d3bd d6de 7b3d
000001c0: d5b6 0f3d e77f 1cbe e682 abbd 2139 e63d
000001d0: a8e7 653d 2953 85bb cc7a 09be e67c 123d
000001e0: 6965 24be 505a 56ba efda 83bc fa5f 053d
000001f0: 6057 d2bc 4167 273e 4173 753d 6f5f 25be
00000200: 9cdc e9bb c3e3 4dbd aecb e5bd 0f05 533d
00000210: f207 f43d 418e bfbd 6ef4 e3bd 3854 7fbd
00000220: d3d5 f4bd 3285 b4bd 9bbd e53c 945d 00be
00000230: a288 18be 0622 75bd b8bc 2b3b e892 90bd
00000240: 2af4 003d 5dd5 f13d 3169 ff3d 14d3 f3bd
00000250: 70af 59bd 5189 a33b 1776 02be 9027 1d3e
00000260: 22e6 33be 9552 11be e1a8 153e c4cd 193e
00000270: 463f df3d 29e5 99bb 2d41 1ebe 1256 a4bc
00000280: 7dd2 e93d 1987 14bd bac0 b83d 1561 c23d
00000290: 7511 e5bd ab81 2cbe 05ac 21bc d7fa 1b3e
000002a0: 7ff2 3d3c 49e4 5f3d 0794 913d 9553 d03c
000002b0: 16f8 39b8 e7f5 28be 9ad0 ef3d 8a6f 82bd
000002c0: b933 2cbe 15be 1ebe 47b6 c8bd 582d 1ebe
000002d0: a50f 24bd 4201 ca3d a8f6 943d b0b1 a5bd
000002e0: 777d d73b 8b36 033e ff66 2cbd d5a2 03be
000002f0: f7bf 1abe 7000 113e 3ec5 fcbc e4d2 79bc
00000300: b6d6 9f3d 1f88 c13d 4450 2bbd 4e35 403d
00000310: 8ef7 b73d 4015 dc3c fe4a bebd ca22 f73b
00000320: 14dd e23d d7cb f5bb bbfd e3bd 08f4 dabd
00000330: c31d 3e3d 7f84 2ebe 77d7 a9bc bc55 063e
00000340: 8916 8ebd 242b 26be 9747 81bd fc3c c2bd
00000350: 5b53 8c3d fbef f53d 01c0 97bd 7e29 4fbd
00000360: 455e 9d3d 6ae0 75bd 0f46 9ebd 8939 10bd
00000370: 8011 0e3e 9864 25be 9c3f 043e 001e 8cbd
00000380: 3608 1bbe 8efa 2b3e b06d f93c 06a5 103e
00000390: 2bb1 2f3e 77e6 043d 88ca 12be da4c d3bd
000003a0: e30b db3d 4d31 413d b8f4 193a 1215 113e
000003b0: 0d4f eebd c426 963c a4a7 023e e2e0 5fbd
000003c0: d702 c6bd 59b2 4ebd db98 91bd 4fcb 303e
000003d0: 3ab3 283e 83cd ee3d 5437 983d dd02 00bb
000003e0: 887d c4bd b13e 1a3e 0658 c4bc 7bb5 313d
000003f0: 1415 813d 379e a63d 8277 183e dfb2 1f3e

conv2.lin_node_msg.ue.0.0.bias f4 [16]
-0.06253815 -0.05564707 -0.16586867 -0.06759265 0.15247628 0.11422152 -0.11333319 -0.13921584
-0.025775243 -0.15557972 0.026076613 -0.10950847 -0.17452003 -0.05613134 -0.15098345 -0.031733625
00000000: 0014 80bd 2fee 63bd 7ad9 29be 046e 8abd
00000010: be22 1c3e f9ec e93d 3b1b e8bd 998e 0ebe
00000020: 9a26 d3bc 4a50 1fbe 9f9e d53c fa45 e0bd
00000030: 61b5 32be fae9 65bd 689b 1abe 1efb 01bd
