Model/1000sam16batch_gpu (3).pth (torch, 121250 bytes, 79 tensors)

conv1.lin_node_msg_compact.ue.0.0.weight f4 [16, 1]
-0.9069623 -0.4762442 -0.9069234 -0.67079127 0.21778537 -0.043893218 -0.032631874 0.17963406
0.90257925 0.8406503 0.6603354 -0.10514462 0.86476445 1.0568153 0.75929797 -0.39487898
00000000: ae2e 68bf 48d6 f3be 222c 68bf fab8 2bbf
00000010: 2103 5f3e 60c9 33bd 00a9 05bd fef1 373e
00000020: 6f0f 673f dc34 573f be0b 293f 1056 d7bd
00000030: 3461 5d3f b945 873f 5a61 423f 942d cabe

conv1.lin_node_msg_compact.ue.0.0.bias f4 [16]
-0.31510973 -0.14434135 0.7776395 0.36416185 0.06642627 -0.38178158 -0.09664607 -0.80210996
-0.7499785 0.863513 0.5412464 -0.107818246 0.100472085 -0.28060967 -0.95555866 0.29670286
00000000: 1056 a1be 38ce 13be 6213 473f 6c73 ba3e
00000010: 7f0a 883d e078 c3be 60ee c5bd 1457 4dbf
00000020: 97fe 3fbf 300f 5d3f 208f 0a3f d0cf dcbd
00000030: 4fc4 cd3d 12ac 8fbe 7e9f 74bf 70e9 973e

conv1.lin_node_msg_compact.ue.1.0.weight f4 [32, 16]
0.24540395 -0.11810458 -0.0403907 0.0510121 -0.2163662 0.094858974 0.06509063 0.10741666
-0.07439795 0.115891516 -0.18199229 0.22229534 -0.1728504 -0.024732798 -0.20319924 0.24669436
0.22814345 -0.13630268 0.0031203032 0.2286171 0.092713036 0.017370433 -0.16373622 0.073680945
-0.16012414 0.172598 0.00806027 0.0518063 0.13116954 -0.15625672 -0.003510348 -0.18268484
-0.24259442 0.1551159 0.07949525 -0.014558494 0.039155845 0.05487013 -0.23815536 -0.0081821885
-0.13941604 0.061820555 -0.016010063 -0.011361957 -0.21545169 0.09398088 0.15421131 0.16394714
0.11786461 -0.18753892 -0.1812537 -0.21229401 0.052319348 0.16717994 -0.13789207 0.03724276
-0.14801478 0.15031259 0.18914138 0.23519081 0.07828832 0.19729 0.28480002 0.062649995
0.2129114 0.18141755 -0.056525648 -0.09937343 -0.08726767 0.14758334 0.18313193 -0.03336945
-0.24577147 0.064781934 -0.18514037 -0.15662807 0.033646673 -0.18385619 -0.20578894 0.20241654
-0.2157414 0.22639826 -0.15794098 -0.15214658 0.10848081 -0.20316166 0.029294133 0.23742402
-0.1702086 -0.092804074 -0.15170708 -0.21186936 0.15314421 0.21603754 -0.23630947 -0.016487986
0.07091829 -0.16922641 -0.20755744 0.20166746 -0.22647363 -0.23729101 0.13284102 -0.14279327
-0.22189683 0.11844071 -0.1394955 -0.09216955 0.19472764 0.10974657 -0.08420775 0.015856713
-0.023311347 0.026299983 0.03736064 -0.01814577 0.12741709 -0.21224251 -0.16542286 0.09670235
0.026637744 0.22476806 0.2884427 -0.15806302 0.26812583 0.08752844 -0.10372361 -0.04833862
0.11107877 0.21565378 0.0015642643 -0.16848609 -0.22461 0.08310515 0.006578803 0.059479117
-0.16542602 -0.18301633 -0.0052706003 -0.11252755 -0.12632719 -0.14714825 0.21910697 -0.03662646
-0.16712558 -0.18246162 0.24369517 -0.22359714 -0.19971235 0.13888845 -0.0065630972 -0.0962763
-0.15762801 0.04635197 0.04898542 0.2266539 0.2226752 -0.20947471 0.12329538 -0.24354511
0.13935831 -0.24070081 0.07086936 -0.033023477 0.08715226 -0.0061350465 -0.0672552 0.09296305
0.12471349 0.20140858 0.2699883 0.04505071 -0.05919395 0.284755 -0.1742951 0.047754884
0.19017816 0.044246525 0.030678123 -0.06914586 -0.21785676 -0.007383764 -0.20609918 -0.014228046
-0.15855634 0.09208912 0.23011321 0.24936065 -0.2498714 -0.24832934 0.08407611 0.1627959
0.021882474 0.22000745 -0.08386871 0.15416223 0.28295577 -0.20123467 -0.12860993 0.16451246
0.38793156 0.16082044 0.16007282 0.0437811 0.33196574 0.1265419 -0.055379502 0.09845093
0.20464012 0.14375633 0.09343597 -0.072531015 -0.09584129 0.071899 -0.11081588 -0.06995025
0.1399411 0.076738745 0.018812 0.23282826 -0.1763232 -0.12661478 -0.073607415 0.20277286
0.097063154 0.011520207 -0.13364935 0.05579582 -0.20510757 -0.034438163 -0.23205897 0.114776075
-0.10816094 -0.20966429 -0.114156246 -0.18376186 -0.07090509 -0.09255448 -0.24279094 -0.02529043
-0.07002142 -0.05938521 -0.09870836 0.115404725 -0.23782933 0.19947973 0.0057614148 -0.103122145
-0.22852525 -0.07383767 0.14484325 -0.19428736 0.009762317 -0.20934391 0.14093086 -0.09557837
00000000: 2c4b 7b3e d0e0 f1bd b870 25bd 10f2 503d
00000010: 1a8f 5dbe 6c45 c23d 3c4e 853d 44fd db3d
00000020: f45d 98bd 8858 ed3d 305c 3abe 64a1 633e
00000030: b2ff 30be 709c cabc 7613 50be 729d 7c3e
00000040: 709e 693e ee92 0bbe 007e 4c3b 9a1a 6a3e
00000050: 55e0 bd3d 704c 8e3c 78aa 27be 09e6 963d
00000060: 95f7 23be 88bd 303e 390f 043c d832 543d
00000070: 4f51 063e c301 20be de0d 66bb bc11 3bbe
00000080: ac6a 78be b4d6 1e3e 68ce a23d c086 6ebc
00000090: e161 203d 80bf 603d 00df 73be 960e 06bc
000000a0: 14c3 0ebe 8d37 7d3d 8927 83bc 8027 3abc
000000b0: 5e9f 5cbe 0c79 c03d 92e9 1d3e c2e1 273e
000000c0: 0063 f13d 340a 40be 929a 39be 9a63 59be
000000d0: d04c 563d 3831 2b3e 9433 0dbe dd8b 183d
000000e0: 3091 17be 8beb 193e 47ae 413e dcd5 703e
000000f0: a055 a03d 6406 4a3e 4fd1 913e a44e 803d
00000100: 7205 5a3e 86c5 393e 7087 67bd 4c84 cbbd
00000110: 64b9 b2bd 1620 173e f086 3b3e 68ae 08bd
00000120: 84ab 7bbe 64ac 843d 7095 3dbe 1c63 20be
00000130: 18d1 093d cc44 3cbe 56ba 52be 4846 4f3e
00000140: 50eb 5cbe f2d4 673e 48bb 21be 50cc 1bbe
00000150: 302b de3d 9c09 50be 40fa ef3c 481f 733e
00000160: 2a4b 2ebe 1010 bebd 1a59 1bbe 48f4 58be
00000170: d6d1 1c3e f238 5d3e 1cfb 71be d011 87bc
00000180: 9c3d 913d b049 2dbe f089 54be ea81 4e3e
00000190: b4e8 67be 6afc 72be 7a07 083e 6638 12be
000001a0: ec38 63be 0b91 f23d e9d7 0ebe 64c3 bcbd
000001b0: af66 473e cfc2 e03d 1d75 acbd f0e5 813c
000001c0: 70f7 bebc 1073 d73c 7807 193d 70a6 94bc
000001d0: a079 023e 1a56 59be 9c64 29be e20b c63d
000001e0: 6637 da3c 9929 663e c3ae 933e 46db 21be
000001f0: ca47 893e 1c42 b33d 0b6d d4bd b8fe 45bd
00000200: 447d e33d 58d4 5c3e 0008 cd3a 9e87 2cbe
00000210: 2a00 66be 0833 aa3d 0093 d73b 60a0 733d
00000220: 7065 29be a268 3bbe 00b5 acbb d874 e6bd
00000230: ea5b 01be 08ae 16be 945d 603e a005 16bd
00000240: f822 2bbe 38d7 3abe 3a8b 793e a6f6 64be
00000250: 6581 4cbe c638 0e3e 400f d7bb 822c c5bd
00000260: 3d69 21be 90db 3d3d f0a4 483d f617 683e
00000270: f804 643e 8a80 56be 4a82 fc3d e463 79be
00000280: f2b3 0e3e 467a 76be f423 913d a043 07bd
00000290: e27c b23d 8008 c9bb 18bd 89bd 6963 be3d
000002a0: c969 ff3d 0d3e 4e3e e83b 8a3e 1887 383d
000002b0: 5b75 72bd 68cb 913e 6a7a 32be a09a 433d
000002c0: 10be 423e d83b 353d b050 fb3c 589c 8dbd
000002d0: d815 5fbe 80f3 f1bb aa0b 53be c01c 69bc
000002e0: 985c 22be 3899 bc3d cca2 6b3e 6658 7f3e
000002f0: 4ade 7fbe 0c4a 7ebe 1830 ac3d f8b3 263e
00000300: e042 b33c a249 613e 5cc3 abbd b4dc 1d3e
00000310: 94df 903e 7610 4ebe 52b2 03be f475 283e
00000320: f79e c63e 1dae 243e 21ea 233e d053 333d
00000330: 6af7 a93e 3394 013e 9ed5 62bd a4a0 c93d
00000340: 2e8d 513e dc34 133e 5c5b bf3d 248b 94bd
00000350: 7048 c4bd c83f 933d 70f3 e2bd 1442 8fbd
00000360: b84c 0f3e 3429 9d3d a01b 9a3c 886a 6e3e
00000370: 128e 34be 4ea7 01be 7cbf 96bd b0a3 4f3e
00000380: 0cc9 c63d 40bf 3c3c 60db 08be 288a 643d
00000390: b807 52be 080f 0dbd dea0 6dbe b80f eb3d
000003a0: 7c83 ddbd 3cb2 56be c0ca e9bd 122c 3cbe
000003b0: b036 91bd 348d bdbd 309e 78be e02d cfbc
000003c0: 6467 8fbd e83d 73bd 9c27 cabd 5059 ec3d
000003d0: 8889 73be 6a44 4c3e 40ca bc3b b431 d3bd
000003e0: 8602 6abe 3438 97bd ca51 143e 44f3 46be
000003f0: 20f2 1f3c 405e 56be 2e50 103e 98be c3bd

conv1.lin_node_msg_compact.ue.1.0.bias f4 [32]
0.055197805 -0.23919442 0.055025738 -0.08971405 0.18768916 -0.09964484 -0.13686469 0.040195465
0.06760821 0.20082794 -0.06392627 -0.20449379 0.3038192 -0.065193 -0.06723568 0.14047655
-0.029816806 -0.04993978 0.17039233 -0.21946365 -0.009928882 -0.20555729 0.05494371 -0.24087244
-0.15891674 -0.19039854 -0.01713565 -0.055228807 -0.075036675 -0.17709127 -0.14879891 -0.0003052354
00000000: 1817 623d 62ef 74be ab62 613d 00bc b7bd
00000010: 9631 403e 9812 ccbd 4226 0cbe 00a4 243d
00000020: 2c76 8a3d d7a5 4d3e c7eb 82bd d266 51be
00000030: 318e 9b3e e883 85bd dcb2 89bd 16d9 0f3e
00000040: 6042 f4bc a88d 4cbd 547b 2e3e 14bb 60be
00000050: c0ac 22bc 9c7d 52be a80c 613d 44a7 76be
00000060: 12bb 22be d6f7 42be 1060 8cbc 9a37 62bd
00000070: d4ac 99bd 6a57 35be be5e 18be 0008 a0b9

conv1.lin_edge_compact.ue__uplink__ap.0.0.weight f4 [16, 1]
-0.54870784 1.280919 -0.24033213 -0.43716055 1.1490362 0.74195355 0.9407299 1.3166969
-0.6946365 -0.86747336 1.3940241 -0.1240923 -0.12660265 1.1453898 1.4973439 -0.869845
00000000: 1e78 0cbf 27f5 a33f a019 76be 82d3 dfbe
00000010: 9e13 933f abf0 3d3f add3 703f 8689 a83f
00000020: b3d3 31bf bc12 5ebf 626f b23f 1b24 febd
00000030: 20a4 01be 229c 923f f7a8 bf3f 29ae 5ebf

conv1.lin_edge_compact.ue__uplink__ap.0.0.bias f4 [16]
-0.63739717 -0.037160963 -0.3507595 0.23147018 0.77730006 0.60963917 -0.4242074 -0.9615735
0.43013105 -0.114991546 -0.6746992 0.5047406 -0.79300797 0.22716783 0.6814889 0.8531085
00000000: 762c 23bf 1836 18bd c096 b3be 8506 6d3e
00000010: 23fd 463f 5011 1c3f b631 d9be ae29 76bf
00000020: 233a dc3e b080 ebbd 16b9 2cbf ae36 013f
00000030: 9202 4bbf af9e 683e 0e76 2e3f 5265 5a3f

conv1.lin_edge_compact.ue__uplink__ap.1.0.weight f4 [32, 16]
0.04491225 0.16699415 0.17386529 -0.16603243 -0.1788423 -0.13369414 0.09988821 0.19161208
-0.046281375 -0.035006434 0.10472104 0.0060116784 -0.1338909 0.24264227 0.24588495 -0.18811564
0.030782253 -0.18312153 -0.045160472 0.22166574 0.11574072 -0.20829609 -0.17381871 -0.19017717
0.21258938 0.10883841 -0.15886635 -0.037949473 0.023673385 0.09457585 -0.14554161 -0.058582008
-0.1792655 0.32496715 0.10014349 0.18247479 0.3546515 0.17597163 0.027446106 0.3256946
0.18399349 0.01295644 0.1811737 -0.2169834 -0.12037048 -0.0406214 0.3954412 -0.26634395
0.12930793 0.014044762 -0.16668424 -0.009660095 -0.06400642 0.09936777 0.013258964 0.1548481
-0.14909244 -0.07387918 -0.143837 0.068576515 0.04834625 -0.10947254 -0.05720362 0.21834758
-0.24599281 0.20539556 -0.046535075 0.026708715 0.48576194 0.31047857 0.22926658 0.2692749
0.14112343 -0.069942504 0.2198356 0.0453545 0.14024326 0.48526743 0.37299457 0.06590515
0.08680621 0.33414608 -0.09972781 -0.00818877 0.14189091 0.02917136 0.13538112 0.26904997
0.18108614 0.20908988 0.24381326 0.024061318 -0.2482357 0.09763943 -0.053464975 -0.13155162
0.09871355 0.34198904 -0.20884705 -0.022325583 -0.07187861 0.47877857 -0.01050078 0.3353924
-0.10695376 -0.1291807 0.11034417 0.27488276 0.0730868 0.27471986 0.09016617 0.03919816
-0.08068848 0.10360071 0.12180689 0.21656778 0.13106202 0.22131415 0.22787343 -0.17168343
0.08189644 0.051119864 0.0054110326 -0.056409918 0.14176479 0.18150556 -0.06358047 -0.07168864
0.22911882 0.34349993 -0.08558372 -0.07148869 0.27187082 -0.01999931 0.21317859 0.08024618
-0.32522944 0.15387267 0.34499055 0.010492275 0.2091836 0.029494531 -0.023169132 -0.14435947
0.06057319 0.21299459 0.21872565 0.2595006 0.34425178 0.40948603 0.12220893 0.20168066
0.23371772 -0.18508545 0.14173028 0.346698 -0.15770316 0.26594806 0.28649902 0.35655418
-0.13638487 0.075188234 -0.08383027 -0.038782746 -0.05795251 -0.24207403 0.22786897 0.03745005
0.0006714761 0.2269659 0.055984944 -0.16729411 -0.14039797 -0.05733782 -0.17328711 -0.09421483
-0.1591132 0.22441399 -0.22332826 -0.15605581 -0.14527267 0.07168877 0.15067133 -0.22433609
-0.086857826 0.16442043 -0.14289576 0.081724405 0.18613279 0.06445649 -0.099151045 -0.19083816
-0.060279965 0.058661494 -0.16389525 -0.08301172 -0.24420865 -0.1287753 0.029210314 -0.073533
-0.060935616 0.11161849 0.083774276 -0.036186785 -0.07803258 -0.22379193 0.21392715 0.053816617
-0.14295334 0.34726906 0.048232436 -0.06340693 0.4560475 0.2826737 0.41152367 0.3015656
0.26858726 0.13799459 0.155744 -0.013839466 0.086557746 0.56718147 0.17614213 0.24696115
0.0065348446 0.027276814 0.20374385 0.058957994 -0.23440778 0.03252107 -0.016007513 -0.16037646
-0.132624 0.092213124 0.08123565 -0.045215517 0.0042088926 -0.014255494 0.006217122 -0.069646955
0.05971673 0.28622645 -0.17227641 -0.043591574 0.26927733 0.29824412 0.41592196 0.15288155
-0.0022969474 0.14181742 0.27191034 -0.00018553606 -0.22605872 0.2509531 0.35954857 -0.24453467
00000000: e8f5 373d 8400 2b3e be09 323e 6804 2abe
00000010: 7022 37be 1ee7 08be 3192 cc3d f535 443e
00000020: 8a91 3dbd e862 0fbd fc77 d63d 9dfd c43b
00000030: b21a 09be 3777 783e 44c9 7b3e 63a1 40be
00000040: 102b fc3c 3684 3bbe 30fa 38bd 58fc 623e
00000050: 7809 ed3d 924b 55be 88fd 31be cebd 42be
00000060: 08b1 593e ace6 de3d dcad 22be e870 1bbd
00000070: b0ee c13c fcb0 c13d dc08 15be b0f3 6fbd
00000080: 6091 37be 1862 a63e 0818 cd3d acda 3a3e
00000090: e294 b53e e831 343e a8d6 e03c 71c1 a63e
000000a0: ca68 3c3e 4047 543c 9985 393e e530 5ebe
000000b0: cc84 f6bd a062 26bd 4577 ca3e 3c5e 88be
000000c0: 4c69 043e 001c 663c 46af 2abe 6045 1ebc
000000d0: cc15 83bd 5481 cb3d 203c 593c 8090 1e3e
000000e0: b0ab 18be f84d 97bd 024a 13be d871 8c3d
000000f0: b806 463d 2433 e0bd 584e 6abd 8296 5f3e
00000100: 8ae5 7bbe 3753 523e 909b 3ebd 3ccc da3c
00000110: cab5 f83e 0cf7 9e3e dcc4 6a3e 66de 893e
00000120: a982 103e 043e 8fbd 951c 613e a4c5 393d
00000130: ee9b 0f3e f974 f83e 25f9 be3e 47f9 863d
00000140: 74c7 b13d 3215 ab3e 183e ccbd 312a 06bc
00000150: da4b 113e c7f8 ee3c 59a1 0a3e ebc0 893e
00000160: a56e 393e a81b 563e 2faa 793e 3e1c c53c
00000170: 8031 7ebe 2ef7 c73d 17fe 5abd 78b5 06be
00000180: 542a ca3d 3019 af3e 00dc 55be 24e4 b6bc
00000190: 1835 93bd 7722 f53e 770b 2cbc 8db8 ab3e
000001a0: 930a dbbd f247 04be 20fc e13d 6fbd 8c3e
000001b0: 88ae 953d 15a8 8c3e 0aa9 b83d 408e 203d
000001c0: 0040 a5bd 9c2c d43d e475 f93d f2c3 5d3e
000001d0: 1f35 063e 2da0 623e a757 693e c8cd 2fbe
000001e0: 52b9 a73d 1063 513d 084f b13b 160e 67bd
000001f0: ca2a 113e 98dc 393e 7a36 82bd 7ed1 92bd
00000200: 209e 6a3e 39df af3e 8446 afbd aa68 92bd
00000210: a732 8b3e 98d5 a3bc 7d4b 5a3e 1c58 a43d
00000220: 7984 a6be cc90 1d3e 9aa2 b03e cae7 2b3c
00000230: 3a34 563e 849e f13c 31cd bdbc f8d2 13be
00000240: 981b 783d 411b 5a3e 9ef9 5f3e 43dd 843e
00000250: c541 b03e 27a8 d13e ad48 fa3d 6085 4e3e
00000260: b353 6f3e 0a87 3dbe be21 113e 6682 b13e
00000270: f07c 21be 582a 883e 00b0 923e 458e b63e
00000280: 7aa8 0bbe 4afc 993d 34af abbd a8da 1ebd
00000290: 9c5f 6dbd 41e2 77be 7c56 693e 3965 193d
000002a0: 0006 303a c069 683e 7850 653d 264f 2bbe
000002b0: 7cc4 0fbe 10db 6abd 2d72 31be b4f3 c0bd
000002c0: 92ee 22be c8cc 653e 2ab0 64be 18cd 1fbe
000002d0: 5cc2 14be 90d1 923d 9649 1a3e 5cb8 65be
000002e0: 84e2 b1bd d45d 283e 4453 12be 205f a73d
000002f0: 9899 3e3e c401 843d b40f cbbd 146b 43be
00000300: 20e8 76bd 0947 703d 28d4 27be 0c02 aabd
00000310: d511 7abe acdd 03be 784a ef3c 7898 96bd
00000320: a097 79bd 3c98 e43d d991 ab3d 9838 14bd
00000330: 8ccf 9fbd b629 65be b80f 5b3e d06e 5c3d
00000340: 5c62 12be 40cd b13e 608f 453d 7edb 81bd
00000350: 0f7f e93e 9bba 903e 3bb3 d23e ce66 9a3e
00000360: 4584 893e 744e 0d3e 5b7b 1f3e edbe 62bc
00000370: 3045 b13d ce32 113f 9a5e 343e 62e3 7c3e
00000380: 4022 d63b a073 df3c 3aa2 503e f07d 713d
00000390: 9808 70be d034 053d 3022 83bc ba39 24be
000003a0: 96ce 07be 3cda bc3d e05e a63d e833 39bd
000003b0: c0ea 893b e08f 69bc 00b9 cb3b 10a3 8ebd
000003c0: 8899 743d 468c 923e 3a69 30be 148d 32bd
000003d0: b8de 893e 74b3 983e b9f3 d43e fb8c 1c3e
000003e0: 6288 16bb 9638 113e d537 8b3e 758c 42b9
000003f0: f07b 67be ed7c 803e c016 b83e 4c67 7abe

conv1.lin_edge_compact.ue__uplink__ap.1.0.bias f4 [32]
-0.08411286 -0.06814325 -0.05553338 -0.12249094 -0.0035076868 0.056957424 0.2525261 -0.20968297
0.06280083 -0.055739578 -0.0060858135 -0.1490871 -0.22651659 0.0204039 -0.027748704 0.0046364726
0.14877279 0.10268255 0.0043981457 0.27151173 -0.20026031 -0.079394616 -0.005516547 0.051831823
-0.23548923 -0.22832134 -0.1379112 0.11329789 -0.13774416 -0.033299055 -0.18400936 0.24317217
00000000: 5d43 acbd b08e 8bbd f876 63bd 88dc fabd
00000010: 38e1 65bb 304c 693d 1a4b 813e 22b7 56be
00000020: b99d 803d 2f4f 64bd 816b c7bb 4aaa 18be
00000030: f7f3 67be 1426 a73c 4051 e3bc 8ded 973b
00000040: e557 183e 3b4b d23d 521e 903b 9603 8b3e
00000050: 0a11 4dbe a599 a2bd 26c4 b4bb 9b4d 543d
00000060: 1724 71be 12cd 69be 9838 0dbe b908 e83d
00000070: ce0c 0dbe 9764 08bd f36c 3cbe 2002 793e

conv1.lin_edge_compact.ap__downlink__ue.0.0.weight f4 [16, 1]
-0.21058759 0.20204368 -0.5312915 -0.4105576 0.9018602 -0.6636206 0.030794585 0.46573308
0.6886843 0.34217027 -0.10411106 0.8739797 -0.76117295 -0.0409863 -0.023783837 -0.7926179
00000000: 46a4 57be 8ae4 4e3e b802 08bf 9b34 d2be
00000010: 4fe0 663f 0ae3 29bf ed44 fc3c 9174 ee3e
00000020: 9d4d 303f f130 af3e 2e38 d5bd 22bd 5f3f
00000030: 3bdc 42bf 40e1 27bd 52d6 c2bc 02e9 4abf

conv1.lin_edge_compact.ap__downlink__ue.0.0.bias f4 [16]
0.35368648 -0.9034701 -0.8669747 0.8835515 0.5533933 0.5918919 0.86203825 -0.6955909
0.7503771 -0.11923381 0.11798466 -0.9092596 0.55757934 -0.3320223 0.83232206 -0.69819975
00000000: 6516 b53e d149 67bf 0ef2 5dbf 6e30 623f
00000010: 2fab 0d3f 3a86 173f 8aae 5c3f 3f12 32bf
00000020: b718 403f db30 f4bd f1a1 f13d 3dc5 68bf
00000030: 85bd 0e3f d4fe a9be 0f13 553f 38bd 32bf

conv1.lin_edge_compact.ap__downlink__ue.1.0.weight f4 [31, 16]
-0.2263368 0.002633514 0.15946874 0.22626051 0.2701522 0.041342948 -0.17012021 0.22214457
0.010287274 0.1692306 0.23108345 -0.14982313 0.16261674 0.06582326 -0.10359785 -0.17884275
0.19559416 0.20020664 0.016785592 -0.2040722 -0.22578752 -0.13780996 -0.13794547 0.14451236
-0.16356593 -0.14229932 0.14613739 0.021790683 -0.035670877 -0.009425968 -0.1179072 -0.09645215
-0.13939485 -0.20352492 -0.07988277 0.16638379 0.12699348 0.22724055 -0.17170118 -0.2441038
0.23633479 -0.10250715 -0.20437571 -0.21757469 -0.20813927 0.05108908 0.11869756 0.21317804
0.095270894 -0.22813828 0.054174244 -0.1783288 0.09303589 0.15449479 0.13408363 -0.15259697
-0.025395315 0.036565144 0.05806012 0.14089821 -0.16458826 -0.049567074 0.031455666 0.22471112
0.0329324 0.03654486 -0.21195906 0.16715014 0.0016581416 0.10186735 -0.05897233 -0.18079582
-0.05542037 -0.05129686 -0.04292807 0.13702747 -0.009079516 0.025640279 -0.21549442 -0.24985096
0.061094422 -0.23291951 -0.055187404 0.13811576 -0.092581026 -0.027002657 0.12556124 0.21323082
0.24323535 0.051787987 0.1551348 0.23641661 -0.069163814 -0.18697378 0.10689162 -0.10714847
-0.12074995 -0.15662499 -0.2266956 0.19336739 -0.130801 0.26039165 0.29776993 0.17207697
0.20067382 -0.090550706 -0.1932181 0.026601143 0.19982332 -0.07556605 0.120957576 0.12541887
0.023592003 0.008808083 -0.03592345 -0.23839821 -0.10019039 -0.13846171 -0.1287148 0.26305276
0.28883043 -0.070930146 -0.011836247 0.23222983 -0.03235357 0.14062837 -0.21036644 -0.066338
0.07739848 -0.23755056 -0.030251354 -0.038915724 -0.15014073 -0.22004542 -0.22432384 0.10672137
-0.19495487 0.19541186 -0.22337386 0.066370815 -0.13626379 0.19766104 0.08052012 -0.17052391
0.042025685 -0.0753738 0.17386273 0.104624234 0.17319813 0.16778293 -0.19096951 0.14221647
0.18537922 -0.04347811 0.017560633 0.23450121 0.0072832005 0.22929135 -0.112110704 -0.041527897
-0.04870848 -0.10828954 0.11759111 -0.15752603 0.21777971 0.20281771 -0.0122766355 -0.23117211
0.23781276 0.15950851 0.20123409 0.008358689 -0.13552898 -0.16550753 0.2992249 0.21002427
0.14702444 -0.1649479 0.20111763 -0.25147372 0.052345403 -0.29705772 0.15012254 -0.21510644
0.243761 0.05363934 0.12985794 0.043783806 -0.17551307 0.014634758 -0.19264692 0.034092277
0.20020631 0.2570734 -0.24596697 0.042470306 0.23548312 -0.07931806 -0.12003906 0.12612627
0.24670178 0.12695129 -0.013836689 -0.13434425 0.16121814 0.07891381 -0.033396535 0.011327565
-0.11100119 0.07336715 0.025804847 -0.099943906 -0.0084142685 0.17806837 -0.046875745 -0.113260776
-0.210677 -0.0629217 0.12878484 -0.060872346 -0.22890499 -0.21804038 0.017740577 -0.060878992
-0.18601912 -0.11716085 0.05722806 0.14840853 -0.21820293 -0.22766086 -0.011913017 0.082356416
0.055651873 -0.017844893 -0.024500042 0.16590971 0.023465991 -0.031162769 -0.1600259 -0.07213265
0.05284218 0.06782671 0.115655035 0.12257929 0.005810895 0.21545094 -0.12156803 0.051732678
0.0069603035 0.07942358 0.023437636 0.1436419 0.07317606 -0.01754716 0.24960573 -0.20004374
00000000: d6c4 67be 0997 2c3b c64b 233e d6b0 673e
00000010: 6451 8a3e 3957 293d fe33 2ebe de79 633e
00000020: f48b 283c c94a 2d3e 24a1 6c3e 3c6b 19be
00000030: 0185 263e 58ce 863d 1c2b d4bd 8e22 37be
00000040: d649 483e f802 4d3e f081 893c 4ef8 50be
00000050: d834 67be 0e1e 0dbe 9441 0dbe 0cfb 133e
00000060: d47d 27be eab6 11be 0aa5 153e 6082 b23c
00000070: a01b 12bd 606f 1abc 5479 f1bd b488 c5bd
00000080: 86bd 0ebe d668 50be 9499 a3bd 8360 2a3e
00000090: 940a 023e bfb1 683e 6fd2 2fbe 59f6 79be
000000a0: bf01 723e 45ef d1bd de47 51be e6cb 5ebe
000000b0: 7622 55be c842 513d b517 f33d 584b 5a3e
000000c0: 631d c33d 159d 69be d0e5 5d3d d39b 36be
000000d0: 9a89 be3d e233 1e3e 384d 093e 6142 1cbe
000000e0: d609 d0bc 55c5 153d 73d0 6d3d 9f47 103e
000000f0: d389 28be d806 4bbd a8d7 003d ac1a 663e
00000100: 20e4 063d 10b0 153d cc0b 59be 6829 2b3e
00000110: 0056 d93a d49f d03d f88c 71bd 8a22 39be
00000120: 7800 63bd a81c 52bd 58d5 2fbd ee50 0c3e
00000130: 40c2 14bc 900b d23c 92aa 5cbe eed8 7fbe
00000140: 253e 7a3d 7482 6ebe 300c 62bd 386e 0d3e
00000150: 1f9b bdbd ad34 ddbc 2093 003e 2e59 5a3e
00000160: b012 793e a41f 543d a8db 1e3e 3217 723e
00000170: c2a5 8dbd 0e76 3fbe fee9 da3d a870 dbbd
00000180: c04b f7bd 4d62 20be e422 68be 1a02 463e
00000190: b3f0 05be 0e52 853e 4d75 983e f234 303e
000001a0: 707d 4d3e a672 b9bd f7da 45be a4ea d93c
000001b0: 7c9e 4c3e 60c2 9abd 9bb8 f73d ce6d 003e
000001c0: 0444 c13c c74f 103c 7824 13bd a91e 74be
000001d0: 9f30 cdbd e8c8 0dbe d0cd 03be daae 863e
000001e0: 95e1 933e d343 91bd d1ec 41bc a8cd 6d3e
000001f0: 2d85 04bd e200 103e 4d6a 57be 38dc 87bd
00000200: 1883 9e3d 7440 73be b0d1 f7bc 1866 1fbd
00000210: 7ebe 19be 9653 61be 26b5 65be bc90 da3d
00000220: 40a2 47be 0c1a 483e 1ebc 64be 6ced 873d
00000230: bc88 0bbe a867 4a3e bce7 a43d d29d 2ebe
00000240: 2023 2c3d 945d 9abd 1209 323e 3b45 d63d
00000250: da5a 313e 4acf 2b3e 838d 43be 32a1 113e
00000260: 0dd4 3d3e 1a16 32bd 51db 8f3c 1621 703e
00000270: eaa7 ee3b 5acb 6a3e 4c9a e5bd 2819 2abd
00000280: 8b82 47bd e8c6 ddbd 9cd3 f03d 814e 21be
00000290: a501 5f3e 72af 4f3e f123 49bc 62b8 6cbe
000002a0: 3085 733e 3356 233e 4f10 4e3e e2f2 083c
000002b0: 1cc8 0abe ce7a 29be 0234 993e 9a10 573e
000002c0: 938d 163e 1ae8 28be c8f1 4d3e 2ac1 80be
000002d0: 2268 563d f317 98be b9b9 193e dd44 5cbe
000002e0: 7c9c 793e edb4 5b3d 7bf9 043e a656 333d
000002f0: b3b9 33be a0c6 6f3c 3c45 45be 58a4 0b3d
00000300: e202 4d3e 209f 833e c4de 7bbe 58f5 2d3d
00000310: 7d22 713e 8271 a2bd 0ad7 f5bd 3f27 013e
00000320: 649f 7c3e 85ff 013e 48b3 62bc 8a91 09be
00000330: 5e16 253e 909d a13d ceca 08bd 4097 393c
00000340: 9854 e3bd 8441 963d b064 d33c 64af ccbd
00000350: 00dc 09bc 8e57 363e c800 40bd 44f5 e7bd
00000360: b6bb 57be 18dd 80bd 2ce0 033e 4855 79bd
00000370: 1266 6abe fa45 5fbe b054 913c 405c 79bd
00000380: cc7b 3ebe 07f2 efbd f867 6a3d 68f8 173e
00000390: 9770 5fbe ee1f 69be d12e 43bc 7baa a83d
000003a0: 38f3 633d 742f 92bc 50b4 c8bc 3ce4 293e
000003b0: c03b c03c 1049 ffbc d4dd 23be 48ba 93bd
000003c0: 0b71 583d bbe8 8a3d 8cdc ec3d da0a fb3d
000003d0: 5269 be3b 2c9f 5c3e a9f8 f8bd a5e5 533d
000003e0: 4213 e43b d4a8 a23d 4900 c03c dd16 133e
000003f0: 55dd 953d 10bf 8fbc a598 7f3e 44d8 4cbe

conv1.lin_edge_compact.ap__downlink__ue.1.0.bias f4 [31]
0.04608765 -0.008717358 -0.1320408 0.15473202 -0.14598328 0.23174551 0.30825672 0.26300755
-0.16287437 -0.0058951457 0.13529761 -0.055283673 0.27476415 0.17815363 -0.04387341 0.17623617
0.06727653 -0.18501756 -0.014692895 -0.09116333 0.0030800402 0.19124253 -0.00948408 0.2096533
0.18291694 -0.09698096 0.24459668 0.091958255 -0.041015316 -0.21372789 -0.0971782
00000000: 67c6 3c3d 40d3 0ebc b435 07be 1272 1e3e
00000010: a47c 15be b24e 6d3e d3d3 9d3e eda8 863e
00000020: 8ac8 26be 112c c1bb 758b 0a3e 2271 62bd
00000030: e3ad 8c3e e86d 363e 9bb4 33bd 4177 343e
00000040: 47c8 893d 3e75 3dbe 78ba 70bc d7b3 babd
00000050: 80da 493b 15d5 433e 1d63 1bbc 5baf 563e
00000060: 944e 3b3e f49d c6bd 8d77 7a3e 9c54 bc3d
00000070: adff 27bd 7cdb 5abe 5d05 c7bd

conv1.lin_node_upd.ue.0.0.weight f4 [16, 1]
-0.2896645 -0.95665276 0.0016881903 -0.9132917 -0.47098684 0.94393754 -0.28996706 0.23630732
-0.08908033 1.002251 -0.5577073 -0.10040426 0.29223937 -0.096354365 -0.69021356 -0.9225235
00000000: e84e 94be 32e7 74bf 4446 dd3a 7ccd 69bf
00000010: 3025 f1be e4a5 713f 9076 94be 8cfa 713e
00000020: c06f b6bd c349 803f e8c5 0ebf c0a0 cdbd
00000030: 66a0 953e 7055 c5bd d6b1 30bf 802a 6cbf

conv1.lin_node_upd.ue.0.0.bias f4 [16]
0.9438255 -0.07109547 -0.061516237 -0.46388495 -0.79217374 -0.06968179 0.5397954 -0.8327253
0.3462981 0.29365 0.16751814 -0.26801682 -0.77727115 0.99962056 0.98200524 -0.8016114
00000000: 8c9e 713f 809a 91bd 73f8 7bbd 5482 edbe
00000010: e6cb 4abf 54b5 8ebd 0830 0a3f 7c2d 55bf
00000020: fc4d b13e 4b59 963e e089 2b3e 8039 89be
00000030: 3efb 46bf 22e7 7f3f b264 7b3f 6836 4dbf

conv1.lin_node_upd.ue.1.0.weight f4 [31, 16]
0.15571624 0.21463129 0.11139959 0.1281805 0.070147544 -0.12886178 0.08291662 -0.23830733
-0.13435754 -0.056693047 -0.14765626 0.08723754 0.078109086 0.19234014 -0.07319343 -0.20591968
0.20569977 -0.19296697 0.19616592 0.19664282 -0.016885698 -0.2438809 -0.14796892 -0.11132488
-0.13553467 -0.16524994 -0.17709026 -0.1641365 -0.12550995 -0.05666575 -0.20552611 0.13825771
-0.10210693 0.15549949 -0.07116252 -0.18477857 -0.18891221 -0.13896227 -0.1584326 -0.19284838
0.11611134 -0.21857265 0.050577074 -0.13268718 -0.13145891 -0.02216512 -0.22440153 0.023395836
-0.19265246 -0.142865 0.1739826 -0.1753478 -0.07280591 0.20728596 -0.06333485 -0.1619494
0.22103575 -0.17493275 -0.21411836 0.09952077 -0.020076301 0.0907526 -0.12817177 0.2479431
-0.12935546 0.19122228 -0.17982769 -0.17206308 -0.22653922 0.21431908 -0.23347768 0.2169985
-0.11375815 -0.19853342 0.04569006 0.17970598 0.2668545 -0.08393413 -0.10134706 0.03635457
0.029459774 0.1863822 0.10353423 0.024305522 -0.02726546 0.19601801 -0.08591643 -0.06968376
-0.15647468 0.024982117 -0.16011214 -0.17027318 0.2527265 -0.22674015 0.10767317 0.17515007
-0.15029866 0.09398624 -0.08217299 0.0318276 0.22568068 -0.023535132 -0.02414295 0.24912363
0.13357487 -0.18678159 -0.23998448 0.078234196 0.060373425 0.031739295 0.17748281 0.1774843
0.12684193 0.07831442 0.05534222 0.14321935 0.16104072 -0.027853828 0.14679945 -0.16132909
0.13930562 0.06973026 -0.0251728 -0.17454433 -0.022140298 -0.05125323 0.14125752 0.20081273
-0.008029431 0.024848461 0.21450669 -0.103227496 -0.049171925 -0.03755361 0.08679223 -0.062374473
0.16729292 -0.0015458763 -0.17713758 0.124506414 -0.0517385 0.0684486 0.06738877 -0.1633184
0.14400208 0.060308695 -0.026942074 -0.15142167 0.13827404 -0.22730863 0.09408346 -0.20744884
-0.048206687 0.092395246 -0.11485979 0.11455232 -0.06909013 -0.22361499 -0.07718828 0.15610293
-0.15429989 -0.21908826 -0.21078672 -0.06891632 0.19899037 0.043557968 -0.18062055 0.061183862
0.1251829 -0.03655694 0.15228543 -0.10689482 -0.16686921 -0.04998523 0.16194513 -0.18952021
-0.19152454 0.19860736 0.01103871 0.09915733 0.104702294 0.079262905 -0.05642575 -0.18265317
-0.19872513 0.102109164 0.22750601 0.2210429 -0.15371063 -0.077497035 -0.03481123 -0.05444801
0.23820588 0.1683633 -0.15011674 0.01095888 -0.14455488 0.069032855 0.07868481 0.26860964
-0.20139909 0.15686929 0.1157082 -0.09136698 0.22199655 -0.14090776 0.22688827 0.12815967
0.055978805 -0.16067362 0.09328848 -0.013313532 -0.23658246 -0.2113122 -0.2128079 -0.023900002
-0.20919982 0.15123123 -0.008195192 0.02081889 0.13581118 0.12009072 -0.11903629 -0.08967176
-0.010815829 0.032374203 -0.19093801 0.2350497 0.18360311 -0.2562135 0.21397704 -0.07039757
0.09836832 0.19832478 -0.14484242 0.13051382 0.17760551 0.055994928 0.00016373396 0.039814383
0.014844149 -0.16222057 -0.018903086 -0.11067209 -0.15787506 -0.13873643 0.09589514 0.10889731
-0.15423319 0.24461569 -0.06063527 0.02485767 -0.053656552 0.037023872 0.05152735 -0.21743497
00000000: 1474 1f3e 4ec8 5b3e 7825 e43d c041 033e
00000010: 84a9 8f3d 58f4 03be 30d0 a93d d606 74be
00000020: 0695 09be f836 68bd 3433 17be 98a9 b23d
00000030: a8f7 9f3d d0f4 443e 70e6 95bd 9cdc 52be
00000040: f6a2 523e 2299 45be b8df 483e bc5c 493e
00000050: e053 8abc eabb 79be 2a85 17be 4cfe e3bd
00000060: 9ac9 0abe 4837 29be 2657 35be 6613 28be
00000070: ae85 00be 581a 68bd 7075 52be 6e93 0d3e
00000080: 701d d1bd 423b 1f3e a8bd 91bd 9836 3dbe
00000090: 3472 41be 204c 0ebe 283c 22be 0c7a 45be
000000a0: c8cb ed3d 82d1 5fbe e829 4f3d 26df 07be
000000b0: 2a9d 06be a093 b5bc 84c9 65be a0a8 bf3c
000000c0: b046 45be 344b 12be 7f28 323e 608e 33be
000000d0: 441b 95bd c542 543e b4b5 81bd 10d6 25be
000000e0: 3257 623e 9221 33be d841 5bbe 8cd1 cb3d
000000f0: 0e77 a4bc 80dc b93d 763f 03be cce4 7d3e
00000100: c275 04be c6cf 433e c024 38be 4e31 30be
00000110: e6f9 67be 7676 5b3e c614 6fbe db34 5e3e
00000120: 08fa e8bd 584c 4bbe 8025 3b3d d804 383e
00000130: 27a1 883e a8e5 abbd 0c8f cfbd 88e8 143d
00000140: a055 f13c fada 3e3e c109 d43d 601c c73c
00000150: d05b dfbc f2b8 483e f4f4 afbd 5cb6 8ebd
00000160: e63a 20be 4ca7 cc3c 70f4 23be 185c 2ebe
00000170: 5e65 813e 922e 68be c083 dc3d 8a5a 333e
00000180: e4e7 19be dc7b c03d 504a a8bd a85d 023d
00000190: d618 673e c0cc c0bc 70c7 c5bc 441a 7f3e
000001a0: dac7 083e ac43 3fbe 7ebe 75be 4039 a03d
000001b0: 204a 773d 1001 023d 0ebe 353e 72be 353e
000001c0: dae2 013e 5063 a03d 86ae 623d 18a8 123e
000001d0: dce7 243e b62d e4bc 9852 163e 7433 25be
000001e0: 22a6 0e3e bdce 8e3d 3037 cebc c0bb 32be
000001f0: 925f b5bc e8ee 51bd d0a5 103e daa1 4d3e
00000200: e08d 03bc 008f cb3c a4a7 5b3e f068 d3bd
00000210: 8068 49bd d0d1 19bd 20c0 b13d 607c 7fbd
00000220: d64e 2b3e 009f caba 8e63 35be 38fd fe3d
00000230: c0eb 53bd c82e 8c3d 2003 8a3d f03c 27be
00000240: 4875 133e 4006 773d a0b5 dcbc 480e 1bbe
00000250: b697 0d3e 98c3 68be d4ae c03d 786d 54be
00000260: 6074 45bd b839 bd3d 9c3b ebbd 689a ea3d
00000270: 207f 8dbd 54fb 64be e414 9ebd 72d9 1f3e
00000280: ca00 1ebe ac58 60be 79d8 57be 0024 8dbd
00000290: 22c4 4b3e d769 323d 98f4 38be ee9b 7a3d
000002a0: f22f 003e bbbc 15bd b6f0 1b3e aceb dabd
000002b0: c3df 2abe 50bd 4cbd f2d4 253e 9611 42be
000002c0: 021f 44be ba5f 4b3e b5db 343c 0013 cb3d
000002d0: 286e d63d 9754 a23d b01e 67bd 6f09 3bbe
000002e0: 9a7e 4bbe 9c1e d13d 56f7 683e 1259 623e
000002f0: 5266 1dbe c4b6 9ebd 3896 0ebd e004 5fbd
00000300: 3eec 733e 6e67 2c3e 34b8 19be e08c 333c
00000310: 3206 14be 1961 8d3d 8025 a13d 3487 893e
00000320: 903b 4ebe 58a2 203e 6cf8 ec3d 9c1e bbbd
00000330: 1053 633e 204a 10be 6655 683e 4a3c 033e
00000340: 084a 653d a087 24be 080e bf3d 0021 5abc
00000350: ac42 72be 3a62 58be 50ea 59be f0c9 c3bc
00000360: 7a38 56be 5cdc 1a3e 2045 06bc 608c aa3c
00000370: 1612 0b3e 20f2 f53d 4cc9 f3bd d4a5 b7bd
00000380: e034 31bc d09a 043d 4185 43be deb0 703e
00000390: 7402 3c3e 6a2e 83be cc1c 5b3e 9a2c 90bd
000003a0: 5475 c93d a715 4b3e 9251 14be 6aa5 053e
000003b0: 38de 353e f05a 653d 00b0 2b39 6814 233d
000003c0: e034 733c 261d 26be a5da 9abc 0ca8 e2bd
000003d0: 00aa 21be ec10 0ebe ac64 c43d 8e05 df3d
000003e0: 4eef 1dbe 897c 7a3e b05c 78bd 50a2 cb3c
000003f0: f9c6 5bbd 58a6 173d 580e 533d 46a7 5ebe

conv1.lin_node_upd.ue.1.0.bias f4 [31]
-0.037491053 -0.0170753 -0.055989295 0.019657752 0.22687343 -0.038721383 -0.08808291 -0.23886657
-0.23125255 0.20025617 0.21686554 -0.0024754289 0.1337365 0.050837934 0.15802394 0.011316535
0.0010353327 -0.0080835745 -0.13095239 -0.12542051 -0.036649108 0.05896387 0.24959293 -0.0134854615
-0.043720275 -0.031202884 0.08495459 -0.20212883 0.12968785 0.14255327 -0.17900538
00000000: 3890 19bd 80e1 8bbc 0855 65bd 4b09 a13c
00000010: 8251 683e 509a 1ebd d064 b4bd 7099 74be
00000020: 78cd 6cbe f40f 4d3e 0012 5e3e ce3a 22bb
00000030: 39f2 083e 703b 503d 07d1 213e fd68 393c
00000040: 00b4 873a f870 04bc 6218 06be 3c6e 00be
00000050: 601d 16bd 1984 713d 4a95 7f3e 20f2 5cbc
00000060: 0814 33bd 319d ffbc acfc ad3d dcfa 4ebe
00000070: e4cc 043e 7cf9 113e 304d 37be

conv1.lin_node_upd.ap.0.0.bias f4 [16]
0.0 0.0 0.0 0.0 0.0 0.0 0.0 0.0
0.0 0.0 0.0 0.0 0.0 0.0 0.0 0.0
00000000: 0000 0000 0000 0000 0000 0000 0000 0000
00000010: 0000 0000 0000 0000 0000 0000 0000 0000
00000020: 0000 0000 0000 0000 0000 0000 0000 0000
00000030: 0000 0000 0000 0000 0000 0000 0000 0000

conv1.lin_node_upd.ap.1.0.weight f4 [31, 16]
0.059231997 0.22184831 -0.24552515 -0.11056605 0.12299818 0.04952237 0.23133487 0.20284128
-0.117660165 0.2247591 0.07657218 0.22290304 0.13710406 0.15431878 0.14836958 0.12910885
-0.24859795 -0.11023271 0.20234469 0.059524834 -0.06514624 -0.12723038 -0.18637142 0.18531722
0.1717825 -0.009201974 -0.04586357 -0.11245158 -0.109437376 0.110247344 -0.06929922 0.006236285
-0.04259023 0.23796913 -0.06343764 0.13469091 -0.20552284 0.17663342 0.16648796 0.08076975
0.13917422 -0.0008401871 -0.0862644 0.116226494 0.044737995 0.12669232 0.22159302 0.04313904
0.20559326 -0.09984577 0.012077719 0.09453428 0.08783412 0.0028424263 -0.0967769 0.21260384
-0.21026558 -0.17477003 -0.18897867 -0.14000663 -0.24874967 -0.04199636 0.05836329 -0.06301701
0.111653805 -0.07941088 0.024269104 0.008288562 0.19627514 0.199238 -0.13250509 0.047070622
-0.006680429 -0.17618996 -0.18221414 0.23462316 -0.15848291 -0.18208367 -0.16104788 0.03517425
-0.08520761 -0.021017313 -0.2040737 -0.14819694 -0.20606989 0.07304087 0.12561643 0.20272177
0.1208179 0.23130691 0.124093235 -0.122881174 0.11317173 -0.22740093 -0.15581149 0.21728235
0.22299376 -0.007294625 0.13417143 -0.16379076 0.14297485 0.24845794 -0.06647578 0.15236664
0.10936329 -0.115086436 -0.16868058 0.15070957 0.23660582 -0.14716142 -0.13954455 0.22201449
-0.19750255 0.22011024 0.17735499 0.028257936 0.0613966 0.013693333 -0.19512573 0.17900789
0.24667534 -0.017409325 -0.048318624 0.003855735 -0.015580475 -0.203163 0.018349856 0.1827138
0.19522649 0.15639156 0.14589798 0.11073929 -0.23380816 -0.0963006 0.10833505 0.017337352
-0.1606212 -0.20621285 -0.2280109 0.22582579 0.14569458 0.036816716 0.00516659 0.09629467
0.017448753 -0.00255996 -0.13451165 0.2289769 0.18205574 -0.12372923 -0.076782286 -0.19761747
-0.22035307 -0.016682506 -0.20280546 -0.13888001 -0.025048673 -0.006529063 0.06775451 0.029712766
-0.16266218 0.019779503 -0.12248182 -0.019290566 0.09974024 -0.14607519 -0.19194409 0.21856153
0.0964126 0.20240682 0.2428877 -0.06613201 -0.22197422 -0.13868663 -0.051106066 0.15007564
0.22398233 -0.19462651 -0.22295552 -0.041101992 0.14654103 -0.18396473 -0.029142141 0.01356411
-0.20012254 -0.24985093 -0.22057882 0.23407379 0.17937222 0.2479217 0.09212899 0.16509399
-0.03774163 -0.18841705 -0.13887882 0.13795957 -0.16897166 -0.12901956 -0.24496269 0.025682628
-0.059061527 0.21645403 0.13315326 0.07846129 0.017401934 -0.066960126 0.121086776 -0.20716098
0.09792757 0.026594132 -0.2383452 -0.08431569 0.16178042 0.18590972 -0.22440624 -0.012161791
0.017449558 -0.042057574 0.0039429367 -0.016990721 -0.23459545 -0.07921344 -0.13460493 0.09006989
-0.112130195 0.021825224 0.19497555 0.08859864 0.12527558 -0.2497809 0.20941657 0.19388297
0.15855992 0.04039845 -0.06379232 0.07402524 -0.17954347 -0.070042044 -0.058571696 0.029889166
-0.0067180097 -0.24247104 0.14959413 0.05578071 -0.045678824 -0.18699485 -0.23214492 0.056171656
-0.10871011 0.105507046 -0.1765826 -0.15959376 -0.13053092 0.011934251 -0.17136165 -0.16305715
00000000: 409d 723d 342c 633e f26a 7bbe 7470 e2bd
00000010: 78e6 fb3d f8d7 4a3d 0ce3 6c3e a0b5 4f3e
00000020: d0f7 f0bd 4027 663e e0d1 9c3d b240 643e
00000030: 0265 0c3e be05 1e3e 32ee 173e 1c35 043e
00000040: 7690 7ebe b0c1 e1bd 7233 4f3e 50d0 733d
00000050: 646b 85bd ae48 02be 26d8 3ebe ccc3 3d3e
00000060: c0e7 2f3e e0c3 16bc 70db 3bbd 044d e6bd
00000070: b420 e0bd 5cc9 e13d c0ec 8dbd c059 cc3b
00000080: 1873 2ebd 2eae 733e 98eb 81bd 6aec 093e
00000090: 9474 52be 64df 343e d27b 2a3e 9c6a a53d
000000a0: b083 0e3e 0040 5cba 64ab b0bd 2808 ee3d
000000b0: 303f 373d a2bb 013e 48e9 623e 90b2 303d
000000c0: 0a87 523e f07b ccbd a0e1 453c 309b c13d
000000d0: 60e2 b33d 0048 3a3b f832 c6bd d2b4 593e
000000e0: dc4f 57be eaf6 32be a083 41be e65d 0fbe
000000f0: 3cb8 7ebe 6004 2cbd 580e 6f3d 100f 81bd
00000100: c0aa e43d 2ca2 a2bd 00d0 c63c c0cc 073c
00000110: 5afc 483e 0c05 4c3e 6aaf 07be 20cd 403d
00000120: 80e7 dabb 246b 34be 5896 3abe 0e41 703e
00000130: 5849 22be 2474 3abe bce9 24be e012 103d
00000140: 5481 aebd 802c acbc b2f8 50be f0c0 17be
00000150: fc03 53be 7496 953d 98a1 003e 4c96 4f3e
00000160: 606f f73d b8db 6c3e 9824 fe3d 20a9 fbbd
00000170: 94c6 e73d cadb 68be 0c8d 1fbe 447f 5e3e
00000180: 7a58 643e c007 efbb 3c64 093e c4b8 27be
00000190: 0068 123e c26b 7e3e 7424 88bd 0006 1c3e
000001a0: dcf9 df3d 70b2 ebbd 9aba 2cbe 9c53 1a3e
000001b0: cc48 723e 7cb1 16be c4e4 0ebe c457 633e
000001c0: 1c3e 4abe 9464 613e 8c9c 353e 307d e73c
000001d0: 007b 7b3d 005a 603c 0acf 47be d84d 373e
000001e0: 7698 7c3e 009e 8ebc c0e9 45bd 80b0 7c3b
000001f0: 4045 7fbc f609 50be 7052 963c 5419 3b3e
00000200: 74e9 473e 1c25 203e 4866 153e 48cb e23d
00000210: 686b 6fbe 4039 c5bd c4de dd3d 1007 8e3c
00000220: e279 24be 7629 53be b07b 69be e03e 673e
00000230: f630 153e 20cd 163d 804c a93b 2436 c53d
00000240: b0f0 8e3c 00c5 27bb 6cbd 09be ec78 6a3e
00000250: d26c 3a3e c065 fdbd 0840 9dbd 3c5c 4abe
00000260: 3ca4 61be c0a9 88bc 3cac 4fbe 9036 0ebe
00000270: e032 cdbc c0f1 d5bb e0c2 8a3d 3068 f33c
00000280: ea90 26be a008 a23c c0d7 fabd 4007 9ebc
00000290: 9c44 cc3d bc94 15be fe8c 44be 98ce 5f3e
000002a0: f873 c53d bc43 4f3e 8eb7 783e 3870 87bd
000002b0: 364d 63be de03 0ebe 9854 51bd 6ead 193e
000002c0: a05b 653e 2c4c 47be 744e 64be 905a 28bd
000002d0: da0e 163e 4061 3cbe 80bb eebc 003c 5e3c
000002e0: ecec 4cbe ecd8 7fbe 6adf 61be 0ab1 6f3e
000002f0: 5aad 373e 30df 7d3e 20ae bc3d 660e 293e
00000300: f896 1abd 66f0 40be 4036 0ebe 4645 0d3e
00000310: e806 2dbe b41d 04be 80d7 7abe 6064 d23c
00000320: 80ea 71bd 20a6 5d3e 5459 083e 50b0 a03d
00000330: 808e 8e3c 6422 89bd 58fc f73d 0222 54be
00000340: 408e c83d f0db d93c c410 74be b4ad acbd
00000350: c4a9 253e 1e5f 3e3e c0ca 65be 4042 47bc
00000360: 60f2 8e3c 9044 2cbd c033 813b 2030 8bbc
00000370: ca39 70be a83a a2bd e0d5 09be 9076 b83d
00000380: 84a4 e5bd d0ca b23c aca7 473e 3473 b53d
00000390: 3e48 003e 90c6 7fbe 4c71 563e 4289 463e
000003a0: 885d 223e d878 253d 8ca5 82bd 8c9a 973d
000003b0: 3eda 37be 3472 8fbd e0e8 6fbd 20da f43c
000003c0: c022 dcbb 544a 78be 342f 193e 507a 643d
000003d0: b819 3bbd 947b 3fbe 66b7 6dbe 4014 663d
000003e0: 68a3 debd 1414 d83d 12d2 34be 8c6c 23be
000003f0: e6a9 05be e087 433c 6e79 2fbe 74f8 26be

conv1.lin_node_upd.ap.1.0.bias f4 [31]
0.23683801 -0.16250518 -0.10458395 -0.22202897 -0.19145367 0.14842477 -0.13169885 -0.0037102997
-0.06366068 0.0013310015 -0.15411747 0.23342213 -0.20531932 -0.035186052 -0.06513098 0.15885699
0.0713824 -0.06533399 -0.023309857 -0.19694367 -0.22333783 -0.10790005 0.017639905 -0.08094889
-0.0060383976 0.10411063 0.04541534 0.15203035 -0.041623145 -0.16885579 -0.19528738
00000000: aa85 723e c267 26be 1c30 d6bd 905b 63be
00000010: 6e0c 44be aafc 173e 10dc 06be 8028 73bb
00000020: 8860 82bd 0075 ae3a f8d0 1dbe 3606 6f3e
00000030: 3a3f 52be 401f 10bd 6463 85bd 68ab 223e
00000040: f030 923d d4cd 85bd 50f4 bebc 9aab 49be
00000050: acb2 64be b4fa dcbd 9081 903c 88c8 a5bd
00000060: c0dd c5bb f437 d53d 7005 3a3d d8ad 1b3e
00000070: 087d 2abd 88e8 2cbe 6af9 47be

conv2.lin_node_msg.ue.0.0.weight f4 [16, 32]
0.040531043 -0.07631667 0.09262893 -0.044218343 0.17450047 -0.17309035 0.103802584 0.15990655
-0.1459256 0.12003715 -0.17377746 0.14159545 -0.01414699 0.08911011 -0.00068286323 -0.059030052
0.05017327 -0.076257534 0.12868124 -0.15618052 -0.0882477 0.030411774 0.023119612 0.0035305992
-0.067300044 0.1401486 -0.046942126 -0.13731514 0.01475245 0.10848818 0.072264224 0.024323072
0.08202689 -0.049181957 -0.12889926 -0.09400648 -0.11927425 -0.08628566 0.16121182 -0.1402264
0.13545159 0.09097212 0.0066857757 0.12939729 0.14593588 0.049182653 0.15342985 -0.09876911
-0.111563005 -0.103655726 0.01789905 -0.09864354 -0.17369673 -0.1695932 -0.027322706 -0.088511415
-0.07994071 -0.00443545 0.10691846 -0.03464338 -0.1255794 0.15977024 0.052492466 0.061682943
0.1375028 0.096287236 0.16452546 0.05364531 -0.08508233 -0.14614154 -0.10789363 0.11091868
-0.080952354 0.07954853 -0.12106775 -0.073959395 -0.05189006 0.019588526 0.06448069 -0.04646313
-0.12618442 0.07619783 0.10110698 -0.047962986 0.17635818 0.1465155 0.16470946 0.14059508
-0.0044338903 -0.09231799 0.078954004 -0.01712224 -0.0034476754 -0.11738515 -0.16633855 -0.088716105
0.1133397 -0.024562888 -0.096369885 0.1339852 0.020379813 -0.13446571 0.057327762 0.059570923
-0.1586927 0.0108281365 -0.124046266 -0.102829166 -0.108144216 -0.0068861204 0.1599471 0.04143227
0.08819706 -0.10950937 -0.09893043 0.018169506 -0.10812763 -0.018328989 -0.05702047 -0.0035743057
-0.014981814 -0.10619048 0.011217552 -0.15007502 0.13946198 0.11244612 -0.057474077 -0.1556802
-0.022334563 -0.13656959 -0.121883 0.050998993 0.16250545 -0.012864862 -0.078640856 -0.06958569
-0.028927214 -0.013111147 -0.12173991 0.06297306 0.07626567 0.120712765 0.13776623 0.13519625
0.0049539404 0.0104594985 0.13519052 0.09993791 0.09057419 -0.15353009 -0.02817483 -0.14236349
0.09577342 0.03611774 -0.036189646 0.13129601 -0.15560806 0.037919667 -0.14046957 0.07581554
0.09862895 -0.076082624 -0.075762376 0.14441316 -0.100326315 -0.040575255 -0.07096777 -0.06124645
-0.11636281 0.15412496 0.14473414 -0.029214803 0.065677434 -0.022056183 0.036276087 -0.1307402
-0.16804245 0.05277291 0.13591176 0.17057858 -0.08143989 0.12999278 0.024051858 0.03934501
0.10883764 -0.17648534 0.10210991 0.036456835 0.042242795 -0.022795081 -0.13700438 0.0018612681
0.095188506 0.13360994 -0.14079039 0.11333553 0.10332293 -0.10585508 -0.112815164 -0.011279297
-0.07723094 -0.15449671 0.09231129 -0.16776791 0.0607598 -0.1376156 0.082142204 -0.037862852
-0.063613184 -0.020703102 0.03373708 0.044077847 -0.053320758 -0.09444932 -0.018991917 0.17276204
-0.032439545 -0.14206615 -0.02937532 0.012533693 -0.13353272 -0.031359784 0.045400396 -0.1358154
0.024909904 0.17310661 -0.17523333 -0.063045 -0.085085995 0.0057174307 -0.09974842 -0.070078425
0.16591738 -0.038254965 0.08632551 0.009791408 0.15071903 0.12699121 0.05675522 -0.009613253
-0.17498593 0.03829456 -0.045680903 0.034316555 0.031528603 0.09344483 -0.16975547 -0.08248149
0.13726735 -0.13316281 -0.17179966 -0.06419047 0.05263212 -0.09594949 0.12163639 0.044725243
00000000: e103 263d ea4b 9cbd 3db4 bd3d 4b1e 35bd
00000010: 40b0 323e 993e 31be 7396 d43d 8bbe 233e
00000020: 856d 15be 0ad6 f53d b8f2 31be 66fe 103e
00000030: c7c8 67bc 5d7f b63d 2d02 33ba 7fc9 71bd
00000040: 7d82 4d3d e92c 9cbd 04c5 033e c9ed 1fbe
00000050: 36bb b4bd 1d22 f93c 5765 bd3c a061 673b
00000060: 9bd4 89bd 1d83 0f3e 6346 40bd 579c 0cbe
00000070: 43b4 713c 0d2f de3d 44ff 933d 2e41 c73c
00000080: b7fd a73d 0573 49bd 2bfe 03be 7886 c0bd
00000090: 0f46 f4bd 89b6 b0bd b614 253e 8297 0fbe
000000a0: d2b3 0a3e 974f ba3d 5a14 db3b b980 043e
000000b0: 3770 153e c073 493d b71c 1d3e 7647 cabd
000000c0: 257b e4bd 7449 d4bd 07a1 923c a005 cabd
000000d0: 8edd 31be d7a9 2dbe ded3 dfbc 7945 b5bd
000000e0: f4b7 a3bd 4057 91bb 11f8 da3d 38e6 0dbd
000000f0: e397 00be cf9a 233e 5702 573d 41a7 7c3d
00000100: 89cd 0c3e 3e32 c53d 5d79 283e 2fbb 5b3d
00000110: a53f aebd 21a6 15be 56f7 dcbd 5529 e33d
00000120: 59ca a5bd 57ea a23d 5ef2 f7bd 0678 97bd
00000130: ac8a 54bd 1e78 a03c 740e 843d 1f50 3ebd
00000140: 7d36 01be 9c0d 9c3d 2d11 cf3d d674 44bd
00000150: 3d97 343e 2908 163e 99a9 283e 28f8 0f3e
00000160: 2b4a 91bb 3711 bdbd a3b2 a13d f143 8cbc
00000170: 65f2 61bb a067 f0bd a754 2abe cab0 b5bd
00000180: a51e e83d 1c38 c9bc 935d c5bd 6b33 093e
00000190: 91f3 a63c 61b1 09be 84d0 6a3d a400 743d
000001a0: 5780 22be 7f68 313c f80b febd 1998 d2bd
000001b0: b77a ddbd f7a4 e1bb 2cc9 233e e2b4 293d
000001c0: a9a0 b43d 7346 e0bd 0a9c cabd 37d8 943c
000001d0: 0572 ddbd ad26 96bc 4c8e 69bd e63e 6abb
000001e0: 4876 75bc 657a d9bd d3c9 373c 44ad 19be
000001f0: 1fcf 0e3e 274a e63d f069 6bbd a16a 1fbe
00000200: f9f6 b6bc e6d8 0bbe cb9d f9bd 52e4 503d
00000210: d467 263e 24c7 52bc 750e a1bd f182 8ebd
00000220: c4f8 ecbc 23d0 56bc c652 f9bd 05f8 803d
00000230: 2d31 9c3d 4138 f73d 9712 0d3e e370 0a3e
00000240: aa54 a23b 515e 2b3c 626f 0a3e 3fac cc3d
00000250: f67e b93d fe36 1dbe e7ce e6bc bcc7 11be
00000260: db24 c43d 32f0 133d 983b 14bd 7672 063e
00000270: b857 1fbe a751 1b3d 41d7 0fbe 2e45 9b3d
00000280: fafd c93d 35d1 9bbd 4e29 9bbd 0be1 133e
00000290: e277 cdbd 3d32 26bd 8d57 91bd 8fdd 7abd
000002a0: a04f eebd efd2 1d3e 3035 143e e253 efbc
000002b0: e481 863d 2baf b4bc 3c96 143d c2e0 05be
000002c0: 5213 2cbe 6828 583d 742c 0b3e 27ac 2e3e
000002d0: f5c9 a6bd d41c 053e 6708 c53c 3c28 213d
000002e0: 45e6 de3d 93b8 34be 001f d13d c353 153d
000002f0: c806 2d3d c0bc babc e04a 0cbe cbf5 f33a
00000300: 31f2 c23d 0bd1 083e 5b2b 10be 751c e83d
00000310: f99a d33d 8cca d8bd a30b e7bd cdcc 38bc
00000320: 412b 9ebd 6334 1ebe b40d bd3d 5acb 2bbe
00000330: 45df 783d 1beb 0cbe 2c3a a83d 1416 1bbd
00000340: a147 82bd 8d99 a9bc e42f 0a3d f98a 343d
00000350: de66 5abd a56e c1bd f094 9bbc 88e8 303e
00000360: 54df 04bd ca79 11be 83a4 f0bc 1e5a 4d3c
00000370: cdbc 08be 1e73 00bd c4f5 393d 3113 0bbe
00000380: db0f cc3c dc42 313e 5e70 33be bd1d 81bd
00000390: 9141 aebd 4959 bb3b e648 ccbd 4785 8fbd
000003a0: 3fe6 293e 3db1 1cbd 6ecb b03d 246c 203c
000003b0: 1756 1a3e fc09 023e 2978 683d e880 1dbc
000003c0: 832f 33be c2da 1c3d e61b 3bbd 848f 0c3d
000003d0: 2324 013d 0160 bf3d 61d4 2dbe 0eec a8bd
000003e0: d08f 0c3e d55b 08be 40ec 2fbe 4b76 83bd
000003f0: c794 573d 2b81 c4bd 801c f93d d131 373d

conv2.lin_node_msg.ue.0.0.bias f4 [16]
-0.096381515 0.06327239 -0.08176204 0.16123527 -0.017996514 -0.009536125 0.094250105 -0.048938643
-0.14439066 -0.05977167 -0.10228798 0.05238358 -0.061571192 0.036036987 -0.084893845 0.17445455
00000000: ac63 c5bd f494 813d db72 a7bd dc1a 253e
00000010: 6d6d 93bc 683d 1cbc 3306 c13d e373 48bd
00000020: 25db 13be 23d3 74bd 5c7c d1bd 2a90 563d
00000030: 1332 7cbd 859b 133d d3dc adbd 37a4 323e
