Model/1000sam16batch_cpu.pth (torch, 120162 bytes, 79 tensors)

conv1.lin_node_msg_compact.ue.0.0.weight f4 [16, 1]
0	0xbf4f682e	-0.8101834
1	0x3ea62f40	0.32457924
2	0xbeba0a30	-0.36335897
3	0x3f51294c	0.8170364
4	0x3f8df2b9	1.1089698
5	0xbf158918	-0.58412313
6	0xbf1c7810	-0.611207
7	0x3eea38b4	0.45746386
8	0xbe628ea0	-0.2212472
9	0xbf4964fc	-0.78669715
10	0xbda1ac50	-0.07894194
11	0xbe3dae10	-0.18523431
12	0x3e9986bf	0.29985616
13	0xbef6b178	-0.48182273
14	0xbf51ee92	-0.82004654
15	0xbe94e850	-0.2908349

conv1.lin_node_msg_compact.ue.0.0.bias f4 [16]
0	0x3ee7868c	0.4521984
1	0x3ee885c5	0.45414558
2	0x3e38dba0	0.1805253
3	0x3f5925dd	0.848234
4	0x3f4c427f	0.79788965
5	0xbf369720	-0.7132435
6	0xbe498f68	-0.19683611
7	0x3e29179b	0.16512911
8	0x3e787d00	0.24266434
9	0xbf0627bc	-0.5240438
10	0xbf629e92	-0.8852321
11	0xbe9af8c0	-0.30267906
12	0x3ee3826a	0.44435436
13	0x3f7826d4	0.96934247
14	0x3f2c0fe4	0.6721175
15	0xbee4d8e8	-0.44696736

conv1.lin_node_msg_compact.ue.1.0.weight f4 [32, 16]
0	0x3da84600	0.082164764
1	0x3e5aa308	0.21351254
2	0x3e5a09ec	0.21292847
3	0x3e0cc9d4	0.13748866
4	0x3e39f8b7	0.18161283
5	0xbdc226c0	-0.09480047
6	0x3cfb6c20	0.030691206
7	0xbde465bb	-0.11152216
8	0x3e23f4e4	0.16011387
9	0x3e69f192	0.22846058
10	0x3debf4b4	0.11521283
11	0x3d679fb0	0.056548774
12	0xbe2a63b4	-0.16639596
13	0x3e7343fc	0.23756403
14	0xbe3200fc	-0.17383188
15	0x3e11c2c0	0.14234447
16	0x3e1fd8f8	0.15610111
17	0x3e386bfc	0.18009943
18	0x3de4d074	0.11172572
19	0x3e4a4ba1	0.19755413
20	0xbd250269	-0.0402855
21	0x3ddc11ac	0.10745558
22	0xbe42ca80	-0.1902256
23	0x3e5bd106	0.21466455
24	0xbe3e408e	-0.18579313
25	0xbdf5c014	-0.119995266
26	0x3da43f8c	0.08019933
27	0x3e303d00	0.1721077
28	0x3e8a5696	0.27019185
29	0x3e1867dc	0.14883369
30	0xbe0eb6a4	-0.1393686
31	0x3e706a52	0.23478058
32	0xbe1a9d9e	-0.15099189
33	0xbc003e8d	-0.007827413
34	0x3d88f608	0.06687552
35	0x3b493f1f	0.003070779
36	0x3e4e61a1	0.2015443
37	0xbe3d4712	-0.18484142
38	0xbe417262	-0.1889129
39	0xbd28dfe6	-0.04122915
40	0x3e5af9be	0.21384332
41	0xbd6da968	-0.058022887
42	0xbda715f4	-0.08158484
43	0xbde9148c	-0.11380872
44	0x3d5e3138	0.054246157
45	0xbe230be0	-0.15922499
46	0x3dcd1bac	0.100150436
47	0xbcfb1af0	-0.030652493
48	0xbd749e58	-0.05972132
49	0xbe5d789a	-0.21628037
50	0xbe1a6b02	-0.15079883
51	0x3dcffcf8	0.10155672
52	0xbe684058	-0.22680795
53	0x3d576188	0.052583247
54	0x3ca97d60	0.020689666
55	0xbb56ab00	-0.0032755733
56	0xbd67e430	-0.0566141
57	0x3e385832	0.18002394
58	0xbe63b624	-0.2223745
59	0xbcebc170	-0.028778762
60	0x3e2ec6c6	0.17068014
61	0x3d56b300	0.0524168
62	0x3e425356	0.18977103
63	0x3e64fff8	0.2236327
64	0xbe483200	-0.19550323
65	0x3eab6be9	0.33480766
66	0xbd3becf0	-0.045880258
67	0x3db6fc1e	0.08934806
68	0x3e612724	0.21987587
69	0x3e1265b8	0.14296615
70	0xbdeff2f4	-0.117162615
71	0x3dc001a8	0.09375316
72	0x3e3ab9e6	0.18234977
73	0x3d3a8198	0.045533746
74	0xbe5eb932	-0.21750334
75	0xbe687c62	-0.22703698
76	0x3ea77a57	0.32710525
77	0xbe7aca6a	-0.24491277
78	0xbd2776c8	-0.040884763
79	0xbe555fa0	-0.2083726
80	0xbd4373e0	-0.04771793
81	0x3d88e74a	0.0668474
82	0x3c600460	0.013672918
83	0x3e0c6488	0.13710225
84	0x3e9097f4	0.2824093
85	0x3d313c00	0.04327011
86	0xbd4294a0	-0.04750502
87	0x3e2767e8	0.16348231
88	0x3cca41f0	0.024689645
89	0xbdfc6540	-0.123239994
90	0x3cf834b0	0.03029856
91	0xbdeb5668	-0.1149109
92	0xbdc61df5	-0.096736826
93	0xbd8f2234	-0.069889456
94	0x3e63349a	0.22188035
95	0xbd6dee18	-0.058088392
96	0xbd7c0540	-0.061528444
97	0x3de7ed34	0.1132454
98	0x3e686e74	0.22698385
99	0x3d449e10	0.048002303
100	0xbd4e1440	-0.05031228
101	0xbe7f3888	-0.24923909
102	0xbdc07aac	-0.09398398
103	0xbe7ff19a	-0.24994507
104	0x3cd8bc30	0.026456922
105	0xbe181630	-0.14852214
106	0xbe3f65bc	-0.18691152
107	0x3e29de0a	0.16588607
108	0x3d69a8b0	0.05704564
109	0xbe25aa8a	-0.16178337
110	0xbe3f1c24	-0.18663079
111	0x3e1d3382	0.1535168
112	0xbe731e86	-0.23742113
113	0xbe60a286	-0.21936998
114	0xbc213780	-0.009839892
115	0xbd328f10	-0.043593466
116	0xbe58f444	-0.2118693
117	0x3e3cdca2	0.1844354
118	0xbb673a00	-0.0035282373
119	0x3e4fc266	0.20289001
120	0x3ceb1390	0.028695852
121	0xbde3b6cc	-0.1111885
122	0x3d909388	0.07059389
123	0xbe53f816	-0.20700106
124	0x3e37e992	0.17960194
125	0xbe133f78	-0.1437968
126	0xbd3225e8	-0.04349318
127	0xbe21a96c	-0.15787286
128	0x3d85e694	0.0653812
129	0xbdb5cb08	-0.08876616
130	0xbe1e6768	-0.15469134
131	0x3d9bce87	0.07607751
132	0x3e7ee280	0.2489109
133	0xbadcb900	-0.0016839802
134	0xbcddf140	-0.027092576
135	0x3da91b35	0.082571425
136	0xbe5d2038	-0.21594322
137	0x3e63443a	0.22193995
138	0xbe00a4aa	-0.12562814
139	0x3e4b5a1e	0.19858596
140	0x3dfe4c6f	0.12416922
141	0xbdbb9bb8	-0.0916056
142	0xbe498374	-0.19679052
143	0xbe0396b6	-0.1285046
144	0x3d5c9788	0.05385545
145	0x3e2961a5	0.16541155
146	0x3caa1730	0.02076301
147	0x3dfe7998	0.12425536
148	0x3e472f94	0.19451743
149	0xbd199038	-0.037491053
150	0xbc8be180	-0.0170753
151	0x3d1437dc	0.036186084
152	0x3ce6af00	0.028159618
153	0x3e55ae08	0.20867169
154	0xbdeaab7c	-0.11458489
155	0xbdb464d0	-0.08808291
156	0xbe04fa68	-0.12986147
157	0xbe6ccd78	-0.23125255
158	0x3e4d0ff4	0.20025617
159	0x3e62139c	0.22077793
160	0x3b722e00	0.0036953688
161	0x3e43c124	0.19116646
162	0x3d503b70	0.050837934
163	0x3e94b7bb	0.29046425
164	0x3ddbb257	0.10727375
165	0x3a87b400	0.0010353327
166	0x3d5a1e50	0.053251565
167	0xbcf00429	-0.029298859
168	0xbe006e3c	-0.12542051
169	0xbd161d60	-0.036649108
170	0x3d3116d8	0.043234676
171	0x3e7f954a	0.24959293
172	0x3dd1b57a	0.10239692
173	0xbd331408	-0.043720275
174	0xbc996060	-0.018722713
175	0x3dadfcac	0.08495459
176	0xbe352b2a	-0.17692247
177	0x3e04cce4	0.12968785
178	0x3e2a9db0	0.16661716
179	0xbe374d30	-0.17900538
180	0xbe682eae	-0.22674057
181	0xbdf3d648	-0.11906105
182	0xbe682c22	-0.22673085
183	0xbe2bb8fa	-0.16769782
184	0x3d0288e8	0.031868845
185	0xbc33c960	-0.0109733045
186	0xbc05a900	-0.0081579685
187	0x3cc3a1e0	0.023880899
188	0x3e4c3c3e	0.19944856
189	0x3e489dee	0.19591495
190	0x3e17bfdc	0.14819282
191	0xbcd75610	-0.026286155
192	0x3e3803e6	0.17970237
193	0x3e7d3560	0.24727392
194	0x3e5b7960	0.2143302
195	0xbdca2d94	-0.098719746
196	0xbda15610	-0.07877743
197	0xbd13ce38	-0.036085337
198	0x3e471362	0.19440988
199	0x3dba736c	0.09104046
200	0xbbc0fb40	-0.0058893263
201	0xbdc378e0	-0.095445395
202	0xbcc5ee60	-0.024161518
203	0xbe62aed4	-0.22137004
204	0xbe5abfe4	-0.21362263
205	0x3e4e7932	0.2016342
206	0x3df293cc	0.11844596
207	0xbcdccfd0	-0.026954561
208	0xbc3650c0	-0.011127651
209	0x3cfa611e	0.030563887
210	0xbe5b956a	-0.21443716
211	0x3e41baac	0.18918866
212	0x3eb87f71	0.3603473
213	0xbdf1e0d0	-0.11810458
214	0xbd2570b8	-0.0403907
215	0x3e2a665f	0.16640614
216	0xbe5d8f1a	-0.2163662
217	0x3dc2456c	0.094858974
218	0x3d854e3c	0.06509063
219	0x3ddbfd44	0.10741666
220	0x3d219292	0.03944642
221	0x3ded5888	0.115891516
222	0xbe3a5c30	-0.18199229
223	0x3e63a164	0.22229534
224	0xbe30ffb2	-0.1728504
225	0x3d522470	0.05130428
226	0xbe501376	-0.20319924
227	0x3ea45284	0.32094204
228	0x3e9aca57	0.30232498
229	0xbe0b92ee	-0.13630268
230	0x3b4c7e00	0.0031203032
231	0x3e9b446b	0.30325636
232	0x3e182f9e	0.14861915
233	0x3c8e4c70	0.017370433
234	0xbe27aa78	-0.16373622
235	0x3e01ff8a	0.12695137
236	0xbcf33c5d	-0.02969187
237	0x3e6ab452	0.22920349
238	0x3d8491a0	0.06473088
239	0x3d5432d8	0.0518063
240	0x3e40db5e	0.18833682
241	0xbdcc164c	-0.0996519
242	0x3d58aec0	0.05290103
243	0xbe3b11bc	-0.18268484
244	0xbe786aac	-0.24259442
245	0x3e1ed6b4	0.1551159
246	0x3da2ce68	0.07949525
247	0xbc6e86c0	-0.014558494
248	0x3d80a5d4	0.06281629
249	0x3d60bf80	0.05487013
250	0xbe73df00	-0.23815536
251	0x3c544440	0.012955725
252	0xbdecbb28	-0.11559135
253	0x3dafb7b8	0.085799634
254	0x3bfddf80	0.0077475905
255	0xbc3a2780	-0.011361957

conv1.lin_node_msg_compact.ue.1.0.bias f4 [32]
0	0xbdeb98a3	-0.115037225
1	0x3e5173a2	0.20454267
2	0x3da1b9c6	0.078967616
3	0xbd58abe8	-0.052898318
4	0xbd42bec4	-0.04754521
5	0x3d0be882	0.034157284
6	0x3defa8c0	0.117021084
7	0x3ce8fa00	0.028439522
8	0xbe08062d	-0.13283606
9	0xbd0de035	-0.03463765
10	0xbd415a5d	-0.047205318
11	0xbdaa3e88	-0.08312708
12	0xbe64de92	-0.22350529
13	0xbdf9cdcd	-0.121974565
14	0x3dad443d	0.08460281
15	0xbe2fba7e	-0.17160985
16	0x3de1cf16	0.11025827
17	0x3e2cd038	0.16876304
18	0xbddfd62c	-0.10929522
19	0x3ea0c250	0.3139825
20	0xbc958263	-0.01825065
21	0xbda4a71c	-0.08039686
22	0xbe22aa80	-0.15885353
23	0xbc813d70	-0.015776366
24	0x3e64751e	0.22310302
25	0x3dc18729	0.09449608
26	0x3eb20c37	0.34774944
27	0x3ce0f90e	0.027462509
28	0x3e7d6a88	0.2474767
29	0xbe54258c	-0.20717448
30	0xbe6a0aac	-0.22855633
31	0xbe0c0854	-0.13675052

conv1.lin_edge_compact.ue__uplink__ap.0.0.weight f4 [16, 1]
0	0x3f0f4eaf	0.55979437
1	0x3f6cef5d	0.9255274
2	0xbea3b4e4	-0.31973946
3	0x3f56bf57	0.8388571
4	0x3ea45720	0.3209772
5	0xbf61503e	-0.88013065
6	0x3f01c35b	0.50688714
7	0x3f84c2ef	1.0371989
8	0xbf0c30c8	-0.54761934
9	0x3f16ede6	0.58956754
10	0x3e685b5d	0.22691102
11	0xbef70518	-0.48246074
12	0x3dcdc602	0.100475326
13	0x3f3f9693	0.74839133
14	0xbe525466	-0.20540008
15	0xbf08ac20	-0.5338764

conv1.lin_edge_compact.ue__uplink__ap.0.0.bias f4 [16]
0	0xbec1a576	-0.3782155
1	0x3f3158e8	0.69276285
2	0xbf397a02	-0.72451794
3	0x3ef66be7	0.48129198
4	0x3f601555	0.8753255
5	0xbf6da9f4	-0.9283745
6	0x3e82623d	0.25465575
7	0xbe949f34	-0.29027712
8	0xbe5c6410	-0.21522546
9	0xbf01cbcf	-0.5070161
10	0x3d940406	0.0722733
11	0xbe2cc040	-0.16870213
12	0x3f2aed50	0.6676836
13	0xbc7ec45e	-0.015549747
14	0x3f372767	0.715445
15	0xbec4ed5c	-0.3846234

conv1.lin_edge_compact.ue__uplink__ap.1.0.weight f4 [32, 16]
0	0xbe77033a	-0.24122325
1	0xbdeaeb60	-0.114706755
2	0x3de17a94	0.11009708
3	0x3da74d40	0.08169031
4	0xbe6b95ec	-0.2300641
5	0xbe6a767c	-0.2289676
6	0x3df206c0	0.11817694
7	0xbdcf6168	-0.10126001
8	0xbded1564	-0.115763456
9	0x3e7ba562	0.24574807
10	0xbe335eda	-0.17516652
11	0xbe3dd238	-0.18537223
12	0x3d9adfc4	0.07562211
13	0xbbbc1f80	-0.00574106
14	0xbe296ede	-0.16546199
15	0xbdc40b74	-0.09572497
16	0x3e25217d	0.16126056
17	0x3e341cf4	0.1758917
18	0xbe095806	-0.13412485
19	0x3d692e05	0.056928653
20	0xbd13e371	-0.036105577
21	0xbdada440	-0.08478594
22	0xbe5a6e54	-0.2133115
23	0x3e166d94	0.14690238
24	0xbe4eed9c	-0.20207828
25	0xbd032ac7	-0.032023218
26	0xbc28280d	-0.010263455
27	0xbe242876	-0.1603106
28	0xbd83ac38	-0.064293325
29	0x3e26c108	0.16284573
30	0xbd3572ee	-0.04429906
31	0x3e39c1ac	0.18140286
32	0x3d03a1a0	0.03213656
33	0xbe507268	-0.20356143
34	0xbda3aef8	-0.07992357
35	0xbd508658	-0.05090937
36	0xbe6d8866	-0.23196563
37	0x3e2dd80a	0.16976944
38	0x3e405208	0.18781292
39	0xbe5347d4	-0.20632869
40	0x3e3cb5b6	0.18428692
41	0xbd7956f0	-0.060873926
42	0xbdbecbf0	-0.09316242
43	0xbd109098	-0.035294145
44	0x3ca1e340	0.019761682
45	0xbdebfbe0	-0.11522651
46	0xbe3e4d8c	-0.1858427
47	0xbd94bcf0	-0.072625995
48	0xbcf05030	-0.029335111
49	0xbe63d842	-0.22250465
50	0x3e0f82f4	0.14014798
51	0x3c3353e0	0.01094529
52	0xbcc5e4d0	-0.024156958
53	0xbe583bc8	-0.21116555
54	0xbe74e408	-0.23915112
55	0xbd442a28	-0.047891766
56	0xbe050fb0	-0.12994266
57	0xbcbc5ce0	-0.022993505
58	0xbe11adbc	-0.1422643
59	0x3d973080	0.073822975
60	0xbdf5fd04	-0.120111495
61	0x3ddc92e8	0.10770208
62	0x3dfd2c48	0.123619616
63	0x3daf0c8c	0.08547315
64	0xbe58ed3e	-0.2118425
65	0xbe6acfc2	-0.22930816
66	0xbdfe43a0	-0.12415242
67	0xbe1a3728	-0.15060103
68	0x3e0ae646	0.13564405
69	0xbe4a497a	-0.19754592
70	0xbe4ab4a6	-0.19795474
71	0xbe432030	-0.19055247
72	0xbe77eb4a	-0.2421085
73	0x3de1ba8c	0.11021909
74	0xbe070c12	-0.13188198
75	0xbdce2cac	-0.10067114
76	0xbd7edba0	-0.06222117
77	0xbd647938	-0.055779666
78	0xbbe61e00	-0.0070226192
79	0xbd35a9e0	-0.04435146
80	0xbde7dfb8	-0.11321968
81	0xbd09f85f	-0.03368413
82	0xbe7fd406	-0.24983224
83	0x3d865de9	0.06560881
84	0xbe101289	-0.1406957
85	0x3e7d6550	0.24745679
86	0xbe485f45	-0.19567592
87	0xbd699f8e	-0.05703693
88	0x3dfc7d94	0.123286396
89	0x3e2d3ae2	0.16916993
90	0x3e69ea21	0.2284322
91	0x3d1da758	0.03848967
92	0xbe474e5f	-0.1946349
93	0x3deeacc0	0.11654043
94	0xbe626a6a	-0.22110906
95	0xbe40fbe0	-0.18846083
96	0x3e426015	0.18981965
97	0xbde46975	-0.11152927
98	0xbdf1de68	-0.11809999
99	0xbd0379f3	-0.03209872
100	0x3dc82cb3	0.09774151
101	0xbe62885c	-0.2212233
102	0x3d730a55	0.059336025
103	0xbc88e889	-0.016712444
104	0x3d051d40	0.032498598
105	0x3e7703fb	0.24122612
106	0x3e4095bc	0.18807119
107	0xbe18764a	-0.14888874
108	0xbe24ae04	-0.16082007
109	0xbe6b994f	-0.23007701
110	0x3d0d2ee5	0.03446855
111	0x3d945058	0.07241887
112	0x3df72e00	0.12069321
113	0xbda16b49	-0.07881791
114	0xbd0902e0	-0.033450007
115	0x3e124ada	0.14286366
116	0xbe612fc0	-0.21990871
117	0x3db7cb20	0.0897429
118	0x3e5e508c	0.21710414
119	0xbe81c9ce	-0.25349277
120	0xbcafb220	-0.021447241
121	0xbe3eed04	-0.18645102
122	0xbe1e7789	-0.15475287
123	0x3e7b096c	0.24515313
124	0xbd3cf7ba	-0.046134688
125	0xbe0f9316	-0.14020953
126	0x3c4e580d	0.012594235
127	0xbe6fe5f6	-0.23427567
128	0xbe385bee	-0.18003818
129	0x3e23f2e7	0.16010629
130	0xbd894ebc	-0.067044705
131	0x3d954545	0.07288603
132	0xbc40d425	-0.011769329
133	0xbd4b8b98	-0.049693674
134	0xbd4a6bf0	-0.049419343
135	0x3e09b5f1	0.13448311
136	0xbdef8a90	-0.116963506
137	0xbdf0d560	-0.11759448
138	0xbdbac894	-0.091202885
139	0x3e31ea44	0.17374521
140	0x3e54ca22	0.20780233
141	0xbe00d980	-0.1258297
142	0x3e81ce73	0.2535282
143	0xbe734b96	-0.23759302
144	0x3e0a7f61	0.13525154
145	0x3e744070	0.23852706
146	0x3e6dad0a	0.2321054
147	0xbd1bd83b	-0.03804801
148	0x3e91aae3	0.2845069
149	0x3e7285aa	0.23683801
150	0xbde97d71	-0.11400879
151	0xbd675202	-0.056474693
152	0xbe635b90	-0.22202897
153	0xbe13001b	-0.14355509
154	0x3e499210	0.19684625
155	0xbe06dc10	-0.13169885
156	0x3d3e95c1	0.046529535
157	0xbc7afc9d	-0.015319017
158	0x3dad83bd	0.08472393
159	0xbe1dd0f8	-0.15411747
160	0x3e93a0c8	0.28833604
161	0xbe0a0abf	-0.13480662
162	0xbd101f40	-0.035186052
163	0x3bd04987	0.0063564214
164	0x3e69cc91	0.22831942
165	0x3d9230f0	0.0713824
166	0x3bc54f1e	0.0060213944
167	0x3d478d72	0.048718877
168	0xbe49ab9a	-0.19694367
169	0xbe2f392c	-0.17111653
170	0xbd16ba03	-0.03679849
171	0x3c908190	0.017639905
172	0xbc3db3a9	-0.011578479
173	0x3d88d7dc	0.06681797
174	0x3e62f22b	0.22162692
175	0x3d3a0570	0.04541534
176	0x3e1badd8	0.15203035
177	0xbd2a7d08	-0.041623145
178	0xbe2ce888	-0.16885579
179	0xbe47f96a	-0.19528738
180	0xbe0c781e	-0.13717696
181	0x3e545d04	0.20738608
182	0xbd7619a0	-0.06008303
183	0xbdf7cc58	-0.12099522
184	0x3e33c364	0.17555004
185	0xbbb41dc0	-0.0054967105
186	0x3d88d324	0.06680897
187	0x3e3eb378	0.1862315
188	0xbe3bbd5e	-0.18333957
189	0xbe5e12bc	-0.21686834
190	0x3e7d3f2e	0.24731132
191	0xbd140e80	-0.03614664
192	0xbd01a420	-0.031650662
193	0x3e0a4c66	0.13505706
194	0x3e64f00e	0.22357199
195	0xbe774a2e	-0.24149391
196	0xbe232c76	-0.15934929
197	0x3b3a2a00	0.0028406382
198	0xbdb396c0	-0.08768988
199	0x3d54b728	0.051932484
200	0x3e584486	0.2111989
201	0x3e18161a	0.14852181
202	0xbdd3696c	-0.10322842
203	0xbe6ff9ce	-0.23435137
204	0x3dd398f0	0.10331905
205	0xbceb80b0	-0.028747886
206	0xbe266d3a	-0.16252604
207	0x3e056962	0.13028482
208	0xbe1f6502	-0.15565875
209	0x3db551f3	0.08853521
210	0x3e3a2e66	0.18181762
211	0x3e6697b9	0.22518815
212	0x3da5849b	0.08081933
213	0x3df87c7c	0.121331185
214	0x3e57e2ec	0.21082658
215	0xbe023b0a	-0.12717834
216	0xbe657920	-0.22409487
217	0xbe0b0ed5	-0.13579877
218	0x3dabdb59	0.083914466
219	0x3e136e38	0.14397514
220	0xbc562b2b	-0.0130718155
221	0x3b895ff1	0.0041923453
222	0x3e30a265	0.17249449
223	0x3c524be0	0.012835473
224	0xbdfe0741	-0.12403727
225	0x3e504e04	0.2034226
226	0x3e4c4314	0.19947463
227	0xbe2a88c8	-0.1665374
228	0x3d2805e6	0.04102125
229	0xbe3b8436	-0.18312153
230	0xbd100ffe	-0.0351715
231	0x3e6d1e3b	0.23156063
232	0x3ded0978	0.11574072
233	0xbe4b3c9d	-0.19847341
234	0xbe27ab10	-0.16373849
235	0xbe42bdce	-0.19017717
236	0x3e64fdba	0.22362414
237	0x3df362b6	0.11884062
238	0xbdb3e698	-0.08784217
239	0xbd1b70e8	-0.037949473
240	0x3d9c323e	0.076267704
241	0x3e16e76e	0.14736721
242	0xbe1508dc	-0.14554161
243	0xbbbde393	-0.005794951
244	0xbe012114	-0.12610275
245	0x3e07a786	0.13247499
246	0x3e1c9321	0.152905
247	0x3e9a15db	0.300948
248	0x3e25a6a6	0.16176853
249	0x3d4b880a	0.049690284
250	0xbe06b985	-0.13156708
251	0x3e049ec4	0.1295119
252	0x3e9bc66a	0.30424815
253	0x3d86a776	0.065749094
254	0x3d9a41c5	0.07532076
255	0xbe2679d4	-0.16257411

conv1.lin_edge_compact.ue__uplink__ap.1.0.bias f4 [32]
0	0xbdb0dd7c	-0.08635995
1	0xb8800da8	-6.106059e-05
2	0x3dcd6518	0.10029048
3	0xbe6b9578	-0.23006237
4	0x3dd74acc	0.10512313
5	0xbdbd36ec	-0.09238991
6	0x3e646bce	0.22306749
7	0x3e146b8b	0.1449415
8	0xbe40d868	-0.18832552
9	0x3dc28e88	0.09499842
10	0x3e944846	0.2896139
11	0x3c196d60	0.009364456
12	0xbdb7d804	-0.089767486
13	0x3dbbd436	0.091713354
14	0xbdeccf79	-0.1156301
15	0x3e97ed62	0.29673296
16	0x3d806cb8	0.062707365
17	0x3e990164	0.29883873
18	0x3ea873d8	0.32900882
19	0x3d7c0b08	0.061533958
20	0x3e7fec0f	0.24992393
21	0x3e22d24c	0.15900534
22	0xbd910af4	-0.07082167
23	0xbcd2c84d	-0.025730276
24	0x3e46114a	0.19342533
25	0xbe0c0d7c	-0.13677019
26	0xbd0d7460	-0.034534812
27	0x3e90aabd	0.28255263
28	0x3e60fcd8	0.21971452
29	0x3e7516b5	0.23934443
30	0xbdc911d7	-0.09817856
31	0x3e43ac1e	0.19108626

conv1.lin_edge_compact.ap__downlink__ue.0.0.weight f4 [16, 1]
0	0xbf46a536	-0.7759584
1	0xbee8ef93	-0.4549528
2	0x3e89ee6a	0.26939708
3	0xbdba1cb0	-0.09087503
4	0x3f03164a	0.51205885
5	0xbf06a338	-0.525928
6	0xbee815d0	-0.45329142
7	0xbf516508	-0.81794786
8	0xbf19e770	-0.6011877
9	0x3f1b4650	0.60654163
10	0x3e2369f9	0.15958394
11	0x3ec36358	0.3816173
12	0x3e13e189	0.14441504
13	0xbf055d2a	-0.5209528
14	0x3ec36bca	0.38168174
15	0x3f1f8386	0.62310064

conv1.lin_edge_compact.ap__downlink__ue.0.0.bias f4 [16]
0	0x3f17468e	0.5909203
1	0x3f5a508f	0.8527917
2	0x3f30bcd8	0.6903815
3	0xbf5a4240	-0.8525734
4	0x3f37dc8d	0.7182091
5	0x3f51ded4	0.81980634
6	0xbf0265b6	-0.5093645
7	0x3ea1bf16	0.315911
8	0xbf39e09c	-0.7260835
9	0x3e809caa	0.25119525
10	0xbf3596b0	-0.70933056
11	0x3f3e0ff8	0.74243116
12	0x3df85313	0.1212522
13	0xbde8e430	-0.11371648
14	0x3f60cf73	0.8781654
15	0xbeab2c5a	-0.33432275

conv1.lin_edge_compact.ap__downlink__ue.1.0.weight f4 [31, 16]
0	0x3d0ddad1	0.034632508
1	0x3e219dc2	0.15782836
2	0x3e5ca720	0.21548128
3	0x3e00b272	0.12568071
4	0x3d0af9ce	0.03392964
5	0x3e990f0d	0.29894295
6	0xbc3188e0	-0.010835856
7	0x3e03d4a3	0.12874083
8	0x3e2606ca	0.16213527
9	0x3e9c46fd	0.3052291
10	0xbcd0c15d	-0.025482828
11	0xbe2ffc82	-0.17186168
12	0x3e700ba7	0.23441945
13	0x3e4578ce	0.19284365
14	0x3e95d9bf	0.2926769
15	0x3e8d8e5d	0.27647677
16	0xbe215f36	-0.15758976
17	0xbd6a0bf8	-0.05714032
18	0xbe688e00	-0.22710419
19	0xbde14f24	-0.11001423
20	0x3dbda7bc	0.092605084
21	0x3d9f5800	0.077804565
22	0xbe3620c8	-0.17785943
23	0x3e7a6fe4	0.24456745
24	0xbdd27840	-0.10276842
25	0xbd9aa7a4	-0.07551506
26	0x3df56a28	0.11983138
27	0x3e14d80c	0.1453554
28	0x3d98ba40	0.07457399
29	0x3e0b3fb8	0.13598526
30	0xbdbe9380	-0.09305477
31	0xbe493d62	-0.19652322
32	0xbe6b91fa	-0.23004904
33	0xbdb6bbae	-0.08922516
34	0x3e8c57c6	0.27410716
35	0x3e6d0000	0.23144531
36	0x3e219503	0.157795
37	0xbe1837b4	-0.14864999
38	0xbdcdc700	-0.10047722
39	0xbe02b3ad	-0.12763853
40	0xba496c00	-0.0007683635
41	0x3cad56a7	0.021159483
42	0x3e214c06	0.15751657
43	0xbdd90166	-0.1059597
44	0xbce78eb7	-0.028266294
45	0xbd5160e8	-0.051117808
46	0x3e66eeb2	0.22551993
47	0x3dcedd80	0.101008415
48	0x3e967cad	0.29391995
49	0xbdde5279	-0.10855574
50	0x3d7763b3	0.060397815
51	0xbd7df8c8	-0.062004834
52	0xbe2b9631	-0.16756512
53	0xbcac4b7d	-0.02103209
54	0x3caf7c00	0.021421432
55	0x3d3d3ece	0.046202473
56	0xbe2451e4	-0.16046864
57	0x3e94a924	0.29035294
58	0x3e955950	0.29169703
59	0x3e8837ee	0.2660517
60	0x3e0c46b9	0.13698854
61	0x3e15f004	0.1464234
62	0x3e80c88b	0.25153002
63	0xbcd7f363	-0.026361173
64	0x3c01e480	0.007928014
65	0xbd8cead5	-0.06880728
66	0x3d99b965	0.07506064
67	0x3e129d5e	0.14317843
68	0x3d0099fc	0.03139685
69	0xbd63ed19	-0.055646036
70	0x3e4f1a8e	0.20224974
71	0x3db7ac38	0.08968395
72	0x3e6da0aa	0.2320582
73	0x3e393674	0.18087178
74	0xbd2d2018	-0.042266935
75	0x3db6dca3	0.08928802
76	0xbdb49546	-0.08817534
77	0xbe4edca0	-0.2020135
78	0xbdfd9b26	-0.12383108
79	0x3da3ec55	0.08004061
80	0x3d666013	0.056243967
81	0x3e5e8890	0.21731782
82	0x3e295541	0.16536428
83	0x3e77f9fc	0.24216455
84	0xbe0fd0f0	-0.14044547
85	0x3e9fa53b	0.31180748
86	0xbe0117e4	-0.1260677
87	0xba83a613	-0.0010044001
88	0xbd5ec560	-0.05438745
89	0x3e84cf4e	0.2593941
90	0xbd4df66d	-0.050283838
91	0xbe193f0f	-0.14965461
92	0xbe57accd	-0.21062012
93	0xbe3c37de	-0.18380687
94	0x3e1ff734	0.15621644
95	0xbdf5d849	-0.12004144
96	0xbe11180d	-0.14169331
97	0x3e356595	0.17714532
98	0xbd04f5f5	-0.032461125
99	0xbdf5b4d0	-0.11997378
100	0x3e2785fc	0.16359705
101	0xbdfbbe80	-0.12292194
102	0x3dd7095c	0.10499832
103	0x3e938b7e	0.28817362
104	0xbe440bc8	-0.19145119
105	0x3e2e6218	0.17029607
106	0x3cc89203	0.024483686
107	0x3e4bd0f4	0.19903928
108	0x3e50f812	0.20407131
109	0x3dc6de04	0.09710315
110	0xbe4e58df	-0.20151089
111	0x3d467af8	0.048457116
112	0xbdaab2d4	-0.0833489
113	0xbe5d894c	-0.21634406
114	0x3d2cecf8	0.04221818
115	0x3d953e88	0.072873175
116	0x3bd5d040	0.0065250695
117	0x3d32bbc8	0.043636113
118	0x3e5d799c	0.21628422
119	0x3d612820	0.054969907
120	0xbe2b7682	-0.16744426
121	0x3d46d7b0	0.04854554
122	0xbd4d33b0	-0.05009812
123	0xbe694750	-0.2278111
124	0xbe4c8516	-0.19972643
125	0xbe7af406	-0.2450715
126	0xbdd3ef7c	-0.103484124
127	0xbb0aa800	-0.0021157265
128	0x3ddfb49e	0.10923122
129	0x3ea6cbf3	0.32577476
130	0x3e643114	0.22284347
131	0xbd2ecf20	-0.042678
132	0x3e53ec48	0.20695603
133	0xbc8102f6	-0.015748482
134	0x3e574c44	0.21025187
135	0x3e8ca4d4	0.27469504
136	0xbe172f0a	-0.14764038
137	0xbcc53947	-0.024075164
138	0x3d256461	0.040378932
139	0xbe00e204	-0.12586218
140	0x3e8cb55f	0.27482125
141	0x3cd49b40	0.025952935
142	0x3d848f3d	0.06472633
143	0xbe42be3f	-0.19017886
144	0xbd923bb0	-0.07140291
145	0xbe3c5b52	-0.18394211
146	0x3e469660	0.19393301
147	0x3e7870b0	0.24261737
148	0xbd58e8f0	-0.05295652
149	0xbd8b8eb0	-0.06814325
150	0xbc4c49e0	-0.012468785
151	0xbdfadc88	-0.12249094
152	0x3d0caac8	0.034342557
153	0x3db98674	0.09058848
154	0x3e66dcbe	0.22545144
155	0xbe7ee9da	-0.24893895
156	0x3dd39f48	0.10333115
157	0xbe3c0714	-0.18362075
158	0x3c6f9f60	0.0146254
159	0xbe18aa4a	-0.1490871
160	0xbe64b0aa	-0.22333017
161	0xbd8287e0	-0.06373572
162	0xbcd93339	-0.026513683
163	0x3d64d6f8	0.055869073
164	0x3e747c68	0.23875582
165	0x3c266a0d	0.01015712
166	0x3d014d10	0.031567633
167	0x3e5ae408	0.2137605
168	0xbe0b676a	-0.13613668
169	0xbe05681b	-0.13027994
170	0x3d46cc10	0.048534453
171	0x3de3814b	0.11108645
172	0xbe5ab033	-0.21356277
173	0xbe69cd12	-0.22832134
174	0xbde4a0ab	-0.111634575
175	0x3e434b76	0.19071755
176	0x3c25b412	0.010113733
177	0x3ddd64b4	0.10810223
178	0xbdd395b4	-0.10331288
179	0x3e2cfbd6	0.16892943
180	0xbc8182ef	-0.015809504
181	0x3e32f8b0	0.17477679
182	0xbe0802b8	-0.13282287
183	0xbcdf5f8f	-0.027267246
184	0x3e583364	0.21113354
185	0xbddfefcd	-0.1093441
186	0x3dafc80d	0.085830785
187	0x3e32cb22	0.17460302
188	0x3e6a5f73	0.22887973
189	0x3d945dcc	0.07244453
190	0x3d3fefe0	0.046859622
191	0x3e925f7a	0.28588468
192	0xbe47ca22	-0.19510701
193	0xbcbd47c9	-0.023105519
194	0xbd560b43	-0.052256834
195	0xbe4ae902	-0.19815448
196	0x3d6d06ba	0.057867743
197	0xbe5e7db3	-0.21727638
198	0xbe5df20e	-0.21674368
199	0x3e557042	0.20843604
200	0x3e08247c	0.13295168
201	0x3e060a3e	0.13089845
202	0x3e5b9866	0.21444854
203	0xbe4d63c9	-0.20057596
204	0x3e27f8ac	0.16403455
205	0xbd03aa90	-0.032145083
206	0x3c89bcce	0.016813662
207	0xbe782f03	-0.24236684
208	0x3e2ea46d	0.17054911
209	0xbd47d9c4	-0.04879166
210	0x3e3b49e5	0.18289907
211	0xbe32bd38	-0.17454994
212	0xbe6e8cd2	-0.23295906
213	0x3c44dde9	0.012015798
214	0x3e234bc6	0.15946874
215	0x3e7abcf9	0.2448615
216	0x3e7cda34	0.24692613
217	0x3cd08f40	0.025458932
218	0xbe60782f	-0.21920846
219	0x3e5b6b57	0.21427666
220	0xbb7f853d	-0.0038989328
221	0x3e15fd82	0.14647487
222	0x3e77c60d	0.24196644
223	0xbe304d98	-0.172171
224	0x3e6f2309	0.23353209
225	0x3e286ace	0.16446993
226	0xbdb1f6e3	-0.08689668
227	0xbe37228e	-0.17884275
228	0x3e4fc47c	0.20289797
229	0x3e988f44	0.29796803
230	0x3c8981f0	0.016785592
231	0xbdf08f05	-0.11746029
232	0xbe6734d8	-0.22578752
233	0xbe05cf00	-0.13067245
234	0xbe05b88d	-0.13058682
235	0x3e1b9ce5	0.1519657
236	0xbe1ffbd0	-0.15623403
237	0xbe11b6ea	-0.14229932
238	0x3e1d7b11	0.15378977
239	0x3ceb286b	0.028705796
240	0xbd121ba0	-0.035670877
241	0xbc1a6f60	-0.009425968
242	0xbdf17954	-0.1179072
243	0xbdc588b4	-0.09645215
244	0xbe2ac200	-0.16675568
245	0xbe2dbf6c	-0.16967553
246	0xbda39994	-0.07988277
247	0x3e151046	0.14556989
248	0x3da4d6d4	0.08048788
249	0x3e4ca2ee	0.19984028
250	0xbe559236	-0.20856556
251	0xbe75222a	-0.23938814
252	0x3e432fda	0.19061223
253	0xbe164256	-0.14673743
254	0xbe59dfa0	-0.21276712
255	0xbe7ac5f0	-0.2448957

conv1.lin_edge_compact.ap__downlink__ue.1.0.bias f4 [31]
0	0x3e574480	0.21022224
1	0xbd3bbf08	-0.04583648
2	0xbe872ab7	-0.26399776
3	0x3e1c7dc0	0.15282345
4	0xbe0e68d6	-0.13907179
5	0xba50674c	-0.0007949963
6	0x3e283a62	0.16428521
7	0x3d98fb70	0.07469833
8	0x3e9abeed	0.3022379
9	0xbe494476	-0.19655022
10	0xbe241add	-0.16025873
11	0x3eb60ccc	0.35556638
12	0x3e1efe68	0.15526736
13	0x3e37a24e	0.17933008
14	0x3e2fe0d7	0.17175613
15	0xbe0b7e6a	-0.13622442
16	0x3e26198d	0.16220684
17	0xbe6a434b	-0.22877233
18	0x3e57daf4	0.21079618
19	0xbd81d216	-0.06338899
20	0x3de77275	0.11301128
21	0xbdabdaf0	-0.083913684
22	0x3ded602d	0.1159061
23	0x3dd9958d	0.10624228
24	0xbd03ca46	-0.032175325
25	0x3e876e33	0.26451263
26	0xbd052d86	-0.032514118
27	0x3db56680	0.08857441
28	0xbde793ee	-0.11307512
29	0x3daa7a62	0.08324124
30	0xbe27f502	-0.16402057

conv1.lin_node_upd.ue.0.0.weight f4 [16, 1]
0	0xbf460a16	-0.7735914
1	0xbf78e982	-0.97231305
2	0x3f5479bf	0.8299827
3	0x3c973781	0.018459084
4	0xbe5c4bf8	-0.21513355
5	0xbf59a4de	-0.8501719
6	0xbd9de110	-0.07708943
7	0xbc511900	-0.012762308
8	0xbeca0330	-0.39455557
9	0x3f81c1e8	1.01373
10	0xbe567e08	-0.20946515
11	0x3e82a3d2	0.2551561
12	0x3f270d5c	0.6525476
13	0xbf0c29b2	-0.5475112
14	0xbf47253c	-0.7779119
15	0xbef437e4	-0.4769889

conv1.lin_node_upd.ue.0.0.bias f4 [16]
0	0xbf329680	-0.69760895
1	0xbf4e288e	-0.8053063
2	0x3f20f45d	0.6287287
3	0xbebda59f	-0.3704042
4	0xbef8343c	-0.48477352
5	0xbe4c1828	-0.1993109
6	0x3f5ea7b4	0.86974645
7	0xbf79b362	-0.9753934
8	0xbf7e4d32	-0.9933654
9	0x3d2df2d9	0.042467926
10	0xbd149fa0	-0.036285043
11	0x3f83f436	1.0308902
12	0x3f2083bf	0.6270103
13	0x3e8925dc	0.26786697
14	0xbf5160d6	-0.81788385
15	0x3f017be0	0.50579643

conv1.lin_node_upd.ue.1.0.weight f4 [31, 16]
0	0xbdb5d07c	-0.08877656
1	0x3ded49fc	0.11586377
2	0x3e81b11f	0.25330445
3	0xbe417c40	-0.18895054
4	0x3d8bba4c	0.06822643
5	0xbe79e288	-0.24402821
6	0xbe1ff528	-0.15620863
7	0xbe667afc	-0.22507852
8	0x3e1b03f0	0.15138221
9	0xbcd64c5c	-0.026159458
10	0x3e184470	0.14869857
11	0x3e6e9553	0.2329915
12	0xbd4a15d6	-0.04933723
13	0xbdd3f9d0	-0.10350382
14	0x3e0e311a	0.13885918
15	0xbda2a858	-0.07942265
16	0xbdcde8ac	-0.10054144
17	0x3de67d4c	0.11254367
18	0x3ea17222	0.3153239
19	0xbdfa9aaf	-0.12236535
20	0x3dbc56c0	0.09196234
21	0xbd904968	-0.07045251
22	0x3e13c808	0.14431775
23	0x3e73c654	0.23806125
24	0x3e7257b0	0.23666263
25	0xbd938306	-0.07202725
26	0x3e49dc74	0.19713002
27	0x3e5eadd1	0.21745993
28	0x3e273058	0.16327035
29	0x3d77d190	0.06050259
30	0xbe2df7e0	-0.16989088
31	0x3e11c6a2	0.14235929
32	0xbe26ff58	-0.16308343
33	0x3e274a10	0.16336846
34	0x3e25a9f4	0.16178113
35	0xbcfeae30	-0.031088918
36	0x3d4e5e88	0.05038312
37	0x3c01aae0	0.007914275
38	0x3dcf146c	0.10111317
39	0xbe016176	-0.12634835
40	0xbe05fd00	-0.13084793
41	0xbe0e950a	-0.13924041
42	0x3e49a7dc	0.1969294
43	0xbe62db5c	-0.22153991
44	0x3da8c24c	0.08240184
45	0x3e07bb0e	0.1325495
46	0x3d9b3034	0.075775534
47	0xbda7b4d0	-0.08188784
48	0x3e111af0	0.14170432
49	0xbac74f00	-0.0015206039
50	0xbe05abc6	-0.13053808
51	0x3d137d30	0.03600806
52	0x3e04fdd2	0.1298745
53	0xbe01631e	-0.12635466
54	0x3e5681c4	0.20947939
55	0x3e4253f8	0.18977344
56	0xbe229c1a	-0.1587986
57	0x3df5b568	0.11997491
58	0xbe49ba66	-0.19700012
59	0x3e144d94	0.14482719
60	0xbdd6b15c	-0.10483047
61	0x3e6bc26c	0.23023385
62	0xbd3baa58	-0.04581675
63	0x3e75dc8a	0.2400991
64	0xbd8e6a68	-0.06953889
65	0x3e04ed16	0.12981066
66	0x3d124000	0.035705566
67	0x3e513410	0.20430017
68	0xbe089c0a	-0.13340774
69	0xbe0c18c0	-0.13681316
70	0xbd9c2050	-0.076233506
71	0x3dacfd90	0.08446801
72	0xbe772552	-0.2413533
73	0x3d094440	0.033512354
74	0x3d9e3904	0.077257186
75	0x3dbfc3b0	0.09363496
76	0xbe6e6748	-0.23281586
77	0xbe1f5620	-0.15560198
78	0x3db419c8	0.0879398
79	0x3d367da0	0.0445534
80	0x3de07758	0.10960263
81	0x3e701c08	0.23448193
82	0x3ddeee39	0.10885281
83	0xbe76e13e	-0.2410936
84	0xbdf8d768	-0.121504605
85	0xbdfa48e4	-0.12220934
86	0x3d365f88	0.0445247
87	0xbe04d5ce	-0.12972185
88	0xbdf2c6c8	-0.11854321
89	0x3dfa253b	0.122141324
90	0xbe07920c	-0.13239306
91	0x3e551d5b	0.2081198
92	0xbdf6fce2	-0.12059952
93	0xbe24ea58	-0.1610502
94	0xbe7306be	-0.2373304
95	0x3e534b16	0.20634112
96	0xbe39ba18	-0.18137395
97	0x3d0f4d08	0.034985572
98	0x3e5978e7	0.21237527
99	0x3d0063b9	0.031345103
100	0xbe238260	-0.15967703
101	0x3de5f9b0	0.11229265
102	0xbdcbbf1c	-0.099485606
103	0x3e1a9468	0.15095675
104	0x3bab7bc0	0.005233258
105	0x3e76323e	0.24042603
106	0xbce05ab0	-0.027386993
107	0x3dc8a849	0.09797723
108	0x3d628fc7	0.055312898
109	0xbe1509ac	-0.14554471
110	0x3e650692	0.22365788
111	0x3ca9af20	0.020713389
112	0xbdd10dd4	-0.10207716
113	0x3c94bed0	0.018157393
114	0xbdbebd27	-0.09313422
115	0x3cc84d57	0.024450941
116	0xbe19c50e	-0.15016577
117	0xbd79dea0	-0.061003327
118	0x3e4c98aa	0.19980112
119	0xbe522c9c	-0.2052483
120	0xbd113708	-0.035452873
121	0x3d38d0ba	0.045120932
122	0xbe4f6d86	-0.20256624
123	0x3bce4dde	0.0062959036
124	0x3d87ba76	0.066273615
125	0xbddc959c	-0.10770723
126	0xbe790cf2	-0.24321344
127	0xbe353228	-0.17694914
128	0x3e0156f0	0.1263082
129	0x3e03baf2	0.12864283
130	0x3ea71e28	0.32640195
131	0xbd6f647d	-0.058445442
132	0xbe312f82	-0.17303279
133	0xbe480a7c	-0.1953525
134	0xbe26ff2a	-0.16308275
135	0xbdc5cf8c	-0.09658727
136	0xbe30d9ba	-0.17270556
137	0xbd7927c2	-0.06082893
138	0xbe66d7c6	-0.22543249
139	0xbd449487	-0.04799321
140	0x3ea80280	0.32814407
141	0xbe30c0f8	-0.17261112
142	0xbe12f8a2	-0.14352658
143	0x3dcf6c14	0.10128036
144	0x3e42578e	0.18978712
145	0xbe5acb0a	-0.21366516
146	0xbe35b53c	-0.17744917
147	0x3e6e96bc	0.23299688
148	0x3dbb519c	0.09146425
149	0xbe3ce15a	-0.1844534
150	0x3d4dabe8	0.05021277
151	0xbe5538f4	-0.20822507
152	0xbdbb1fdc	-0.09136936
153	0xbe5f9b82	-0.21836665
154	0x3e4cac9e	0.19987723
155	0x3e737b90	0.23777604
156	0xbd71d630	-0.059042156
157	0xbc84e140	-0.016220689
158	0x3e636fe2	0.22210649
159	0xbdd9f83c	-0.1064305
160	0x3dea2428	0.114326775
161	0x3d5be188	0.05368188
162	0x3bc8e700	0.006131053
163	0x3e6802c8	0.22657311
164	0x3dcf92f8	0.10135454
165	0xbdb3e0b4	-0.08783093
166	0x3e24e54c	0.16103095
167	0xbb1e1900	-0.0024123788
168	0x3e796500	0.24354935
169	0xbe2bd87a	-0.16781798
170	0x3c4e8ce0	0.012606829
171	0x3e2145a6	0.15749225
172	0xbe629082	-0.22125438
173	0x3e3c2416	0.1837314
174	0xbddee874	-0.10884181
175	0xbe520608	-0.20510113
176	0x3e234f36	0.15948185
177	0x3e2e3e98	0.17016065
178	0x3e951bfd	0.29122916
179	0x3c3e1545	0.011601751
180	0xbd944ee8	-0.07241613
181	0xbe74e732	-0.23916319
182	0x3c58dc80	0.013236165
183	0xbe69cd7c	-0.22832292
184	0xbdf12530	-0.11774671
185	0x3eac436c	0.3364519
186	0xbd947690	-0.072491765
187	0x3e1d4f82	0.15362361
188	0x3da864e8	0.08222371
189	0x3e7b4348	0.24537385
190	0xbe0ec5e8	-0.13942683
191	0xbccda0c0	-0.025101066
192	0x3d79bdf0	0.060972154
193	0xbcc55570	-0.024088591
194	0xbe30b1d6	-0.17255339
195	0xbe6c2a80	-0.23063087
196	0x3e719e8c	0.23595637
197	0xbc919a80	-0.017773867
198	0xbb263600	-0.0025361776
199	0xbded8254	-0.11597124
200	0xbe4acbe6	-0.19804344
201	0xbcad0e10	-0.02112487
202	0x3e0a3008	0.13494885
203	0xbe5da3f0	-0.21644568
204	0x3db14dfc	0.086574525
205	0x3d926b40	0.071493626
206	0x3d2b89e0	0.041879535
207	0xbd893980	-0.067004204
208	0xbe51fb36	-0.20505986
209	0x3e7fe722	0.24990514
210	0x3e7b64b2	0.24550131
211	0xbe4d3668	-0.20040286
212	0x3e1f7414	0.15571624
213	0x3e5bc84e	0.21463129
214	0x3de42578	0.11139959
215	0x3e0341c0	0.1281805
216	0x3d8fa984	0.070147544
217	0xbe03f458	-0.12886178
218	0x3da9d030	0.08291662
219	0xbe7406d6	-0.23830733
220	0xbe099506	-0.13435754
221	0xbd6836f8	-0.056693047
222	0xbe173334	-0.14765626
223	0x3db2a998	0.08723754
224	0x3d9ff7a8	0.078109086
225	0x3e44f4d0	0.19234014
226	0xbd95e670	-0.07319343
227	0xbe52dc9c	-0.20591968
228	0x3e52a2f6	0.20569977
229	0xbe459922	-0.19296697
230	0x3e48dfb8	0.19616592
231	0x3e495cbc	0.19664282
232	0xbc8a53e0	-0.016885698
233	0xbe79bbea	-0.2438809
234	0xbe17852a	-0.14796892
235	0xbde3fe4c	-0.11132488
236	0xbe0ac99a	-0.13553467
237	0xbe293748	-0.16524994
238	0xbe355726	-0.17709026
239	0xbe281366	-0.1641365
240	0xbe0085ae	-0.12550995
241	0xbd681a58	-0.05666575
242	0xbe527570	-0.20552611
243	0x3e0d936e	0.13825771
244	0xbdd11d70	-0.10210693
245	0x3e1f3b42	0.15549949
246	0xbd91bda8	-0.07116252
247	0xbe3d3698	-0.18477857
248	0xbe417234	-0.18891221
249	0xbe0e4c20	-0.13896227
250	0xbe223c28	-0.1584326
251	0xbe457a0c	-0.19284838
252	0x3dedcbc8	0.11611134
253	0xbe5fd182	-0.21857265
254	0x3d4f29e8	0.050577074
255	0xbe07df26	-0.13268718

conv1.lin_node_upd.ue.1.0.bias f4 [31]
0	0xbdadd73a	-0.08488317
1	0xbdffe976	-0.12495701
2	0xb9a1e800	-0.00030881166
3	0x3df2b550	0.11850989
4	0x3d02a238	0.031892985
5	0xbe179146	-0.14801511
6	0xbe04a800	-0.12954712
7	0xbe8b180f	-0.27166793
8	0x3e52b73a	0.20577708
9	0xbe401a50	-0.18760037
10	0xbe7f0506	-0.2490426
11	0x3cc83c38	0.024442777
12	0x3cea24d0	0.028582007
13	0x3e44a168	0.19202197
14	0x3dfe349c	0.12412378
15	0xbe6825ae	-0.22670624
16	0x3de66a2e	0.11250721
17	0x3e5ede28	0.21764433
18	0x3e23e7de	0.16006419
19	0xbdb8d0a5	-0.09024171
20	0xbd870edd	-0.06594632
21	0xbe3f7de9	-0.18700375
22	0xbe37b64a	-0.17940632
23	0x3ea55a8a	0.32295638
24	0x3dca0029	0.09863312
25	0x3d527368	0.05137959
26	0x3ded4d44	0.11587003
27	0xbdec92dc	-0.11551449
28	0xbe781d2e	-0.24229881
29	0xbe38c3ac	-0.18043393
30	0x3e5619fd	0.20908351

conv1.lin_node_upd.ap.0.0.bias f4 [16]
0	0x00000000	0.0
1	0x00000000	0.0
2	0x00000000	0.0
3	0x00000000	0.0
4	0x00000000	0.0
5	0x00000000	0.0
6	0x00000000	0.0
7	0x00000000	0.0
8	0x00000000	0.0
9	0x00000000	0.0
10	0x00000000	0.0
11	0x00000000	0.0
12	0x00000000	0.0
13	0x00000000	0.0
14	0x00000000	0.0
15	0x00000000	0.0

conv1.lin_node_upd.ap.1.0.weight f4 [31, 16]
0	0x3de255f0	0.110515475
1	0x3e2fafb4	0.17156869
2	0xbe2d224e	-0.16907617
3	0x3e2c4008	0.16821301
4	0x3c2dd660	0.010610193
5	0xbe0da14e	-0.13831064
6	0xbe518dd6	-0.20464262
7	0x3ced5a20	0.028973639
8	0x3e23e5e8	0.16005671
9	0x3e7b6be2	0.24552873
10	0xbe093e3c	-0.13402647
11	0xbe75e82e	-0.24014351
12	0xbe398d84	-0.1812039
13	0xbde43cb8	-0.11144394
14	0xbd90021c	-0.07031652
15	0xbc936160	-0.017990768
16	0x3e16f852	0.14743164
17	0xbe397a0e	-0.18112966
18	0xbd1731e0	-0.0369128
19	0xbd9c4b04	-0.076314956
20	0xbe25cacc	-0.16190642
21	0x3e08d47c	0.13362306
22	0x3c9553c0	0.018228412
23	0xbe03afa6	-0.12859973
24	0x3dac9150	0.08426154
25	0xbc0124e0	-0.007882327
26	0x3db404e8	0.08789998
27	0xbe5a67d4	-0.2132867
28	0xbd85a63c	-0.06525847
29	0x3d057e00	0.032590866
30	0xbdc7aea4	-0.09750107
31	0x3e1b095e	0.15140292
32	0xbe006e68	-0.12542117
33	0x3c7519e0	0.014959782
34	0xbe01f088	-0.12689412
35	0xbde334ec	-0.110940784
36	0x3d57ab48	0.05265358
37	0xbdf4d164	-0.119540006
38	0x3e3721ca	0.17883983
39	0xbdcecd60	-0.10097766
40	0xbe64c8d8	-0.22342241
41	0xbd526810	-0.051368773
42	0xbdde36a4	-0.108502656
43	0xbd0a4eb0	-0.03376645
44	0x3cbecfa0	0.023292363
45	0xbe605b84	-0.2190991
46	0x3d7cda38	0.061731547
47	0xbb8c2000	-0.0042762756
48	0xbe393012	-0.18084744
49	0x3d4260f8	0.047455758
50	0xbe565588	-0.20931065
51	0x3e109106	0.14117822
52	0xbcbe7580	-0.023249388
53	0xbceabad0	-0.028653532
54	0xbca312f0	-0.019906491
55	0x3e7b9158	0.24567163
56	0xbe6798fc	-0.22616953
57	0x3d9626ec	0.073316425
58	0xbe4de3d0	-0.20106435
59	0xbe3d90da	-0.18512288
60	0x3de25780	0.110518456
61	0xbe37d438	-0.17952049
62	0x3daddfb0	0.08489931
63	0x3d98a6a8	0.07453662
64	0xbddb08e0	-0.10695052
65	0x3df6eaec	0.120565265
66	0xbe01ef26	-0.12688884
67	0x3e463d04	0.19359213
68	0xbcd66320	-0.026170313
69	0x3e16dd4e	0.14732859
70	0xbb952ec0	-0.004552692
71	0xbe4e6b6e	-0.20158169
72	0x3cfd1740	0.030894876
73	0xbdc91c64	-0.09819868
74	0xbe462db4	-0.19353372
75	0x3e0b3bcc	0.1359703
76	0xbdb17888	-0.08665568
77	0x3e1e6d5c	0.15471405
78	0x3d936798	0.07197493
79	0xbd18de78	-0.037321538
80	0xbe7953b6	-0.2434834
81	0x3d2d9b80	0.042384624
82	0xbe03282e	-0.12808296
83	0xbd80a738	-0.062818944
84	0x3e199a02	0.15000156
85	0x3e20715a	0.1566824
86	0xbc0322e0	-0.00800392
87	0xbc595bc0	-0.013266504
88	0xbe2a523a	-0.1663293
89	0xbcb64b40	-0.022252679
90	0xbda7a6e8	-0.08186132
91	0xbd95a078	-0.073059976
92	0xbda06d00	-0.0783329
93	0x3e4d71aa	0.2006289
94	0x3e7a2e70	0.24431777
95	0xbde660d4	-0.11248937
96	0xbd1a2370	-0.037631452
97	0xbe6525b2	-0.22377661
98	0x3dd89b90	0.10576546
99	0x3b5c6100	0.0033627152
100	0xbcae6630	-0.021288961
101	0xb9f95000	-0.00047552586
102	0xbe703ee8	-0.23461497
103	0x3e77f194	0.24213248
104	0xbdc54c4c	-0.09633693
105	0x3e3f5944	0.18686396
106	0xbe21f5a2	-0.15816358
107	0xbe757810	-0.23971581
108	0xbe5e7778	-0.21725261
109	0xbe071194	-0.131903
110	0xbe438630	-0.19094157
111	0xbd5a6358	-0.053317398
112	0x3e697790	0.22799516
113	0x3dbd03e8	0.09229261
114	0xbe136cca	-0.14396968
115	0xbe0227a2	-0.12710431
116	0x3e4e0378	0.2011851
117	0xbdb9d068	-0.090729535
118	0x3e1230ac	0.1427638
119	0x3dc8eb10	0.098104596
120	0xbc94b2f0	-0.01815173
121	0xbc906d80	-0.017630339
122	0xbe59ee66	-0.21282348
123	0x3abbf600	0.0014340281
124	0x3e0f2d2e	0.13982078
125	0x3d629738	0.055319995
126	0x3dd79494	0.10526386
127	0xbd622a98	-0.0552164
128	0xbe6d8580	-0.23195457
129	0x3e54cd22	0.20781377
130	0x3c066c60	0.00820455
131	0xbe45c56e	-0.19313595
132	0xbe2253a0	-0.15852213
133	0x3d73bb58	0.059504837
134	0x3e492f74	0.19647008
135	0xbcffb070	-0.031212062
136	0x3db36b7c	0.087607354
137	0x3cf0cd60	0.029394805
138	0x3d584f00	0.052809715
139	0xbe2f446a	-0.17115942
140	0xbd8f0ff0	-0.06985462
141	0xbdae3b98	-0.0850746
142	0xbe06b14e	-0.13153574
143	0xbdee1e08	-0.11626822
144	0xbe4c20f0	-0.1993444
145	0x3e50bb16	0.20383868
146	0xbe572c3c	-0.21012968
147	0x3d5d3a00	0.05401039
148	0xbc2efb60	-0.01068005
149	0x3e3050f0	0.17218375
150	0x3e4c28e0	0.19937468
151	0xbc7b82e0	-0.015351027
152	0xbe2cbc92	-0.16868809
153	0xbc03b6a0	-0.008039147
154	0xbe634af8	-0.22196567
155	0xbe1fd9e6	-0.15610465
156	0x3e16f14a	0.14740482
157	0x3e697b6a	0.22800985
158	0xbcd2a960	-0.02571553
159	0xbe3980aa	-0.18115488
160	0xbda739b8	-0.08165306
161	0xbde13e0c	-0.109981626
162	0xbe4b4e72	-0.19854143
163	0x3d2ee110	0.042695105
164	0x3d621718	0.055197805
165	0xbe3b0976	-0.18265328
166	0x3da1c778	0.07899374
167	0xbe251bb0	-0.16123843
168	0x3e403196	0.18768916
169	0xbdcc1298	-0.09964484
170	0xbdfa74f8	-0.12229341
171	0xbd03a540	-0.032140017
172	0x3d8a762c	0.06760821
173	0x3e506520	0.20351076
174	0xbe0e5494	-0.13899451
175	0xbe5166d2	-0.20449379
176	0x3e2b1f18	0.1671108
177	0xbd8583e8	-0.065193
178	0xbd89b2dc	-0.06723568
179	0x3e0fd916	0.14047655
180	0xbcf44260	-0.029816806
181	0xbd4c8da8	-0.04993978
182	0x3e2e7b54	0.17039233
183	0xbe60bb14	-0.21946365
184	0xbc22acc0	-0.009928882
185	0xbe7c44ca	-0.24635616
186	0x3d610ca8	0.05494371
187	0xbe76a744	-0.24087244
188	0xbe22bb12	-0.15891674
189	0xbe42f7d6	-0.19039854
190	0xbc8c6010	-0.01713565
191	0xbd1d4cb8	-0.038403243
192	0xbd99acd4	-0.075036675
193	0xbe7b386c	-0.24533242
194	0xbe185ebe	-0.14879891
195	0xb9a00800	-0.0003052354
196	0x3c4d3980	0.012525916
197	0xbdeb2f48	-0.114836276
198	0xbcbfc950	-0.023411423
199	0xbdf343d8	-0.118781745
200	0xbe0c74ca	-0.13716426
201	0x3d8820c4	0.066468745
202	0x3e6f4136	0.2336472
203	0xbe0946bc	-0.1340589
204	0xbd255258	-0.040361732
205	0x3e2e305e	0.17010638
206	0x3dcfe590	0.101512074
207	0xbb591880	-0.0033126175
208	0xbcfea220	-0.031083167
209	0x3e3cc7bc	0.18435568
210	0xbd983718	-0.07432383
211	0xbe19d32e	-0.15021965
212	0x3d729d40	0.059231997
213	0x3e632c34	0.22184831
214	0xbe7b6af2	-0.24552515
215	0xbde27074	-0.11056605
216	0x3dfbe678	0.12299818
217	0x3d4ad7f8	0.04952237
218	0x3e6ce30c	0.23133487
219	0x3e4fb5a0	0.20284128
220	0xbdf0f7d0	-0.117660165
221	0x3e662740	0.2247591
222	0x3d9cd1e0	0.07657218
223	0x3e6440b2	0.22290304
224	0x3e0c6502	0.13710406
225	0x3e1e05be	0.15431878
226	0x3e17ee32	0.14836958
227	0x3e04351c	0.12910885
228	0xbe7e9076	-0.24859795
229	0xbde1c1b0	-0.11023271
230	0x3e4f3372	0.20234469
231	0x3d73d050	0.059524834
232	0xbd856b64	-0.06514624
233	0xbe0248ae	-0.12723038
234	0xbe3ed826	-0.18637142
235	0x3e3dc3cc	0.18531722
236	0x3e2fe7c0	0.1717825
237	0xbc16c3e0	-0.009201974
238	0xbd3bdb70	-0.04586357
239	0xbde64d04	-0.11245158
240	0xbde020b4	-0.109437376
241	0x3de1c95c	0.110247344
242	0xbd8decc0	-0.06929922
243	0x3bcc59c0	0.006236285
244	0xbd2e7318	-0.04259023
245	0x3e73ae2e	0.23796913
246	0xbd81eb98	-0.06343764
247	0x3e09ec6a	0.13469091
248	0xbe527494	-0.20552284
249	0x3e34df64	0.17663342
250	0x3e2a7bd2	0.16648796
251	0x3da56a9c	0.08076975
252	0x3e0e83b0	0.13917422
253	0xba5c4000	-0.0008401871
254	0xbdb0ab64	-0.0862644
255	0x3dee0828	0.116226494

conv1.lin_node_upd.ap.1.0.bias f4 [31]
0	0x3e27b768	0.16378558
1	0xbdcae584	-0.09907058
2	0x3e7cd3ca	0.24690166
3	0x3d0bba88	0.034113437
4	0x3e6956bc	0.22786993
5	0x3e3e37a8	0.18575919
6	0xbd87f770	-0.06638992
7	0xbe5fda6c	-0.21860665
8	0xbd8c8b10	-0.068624616
9	0xbdf36834	-0.118851095
10	0x3e42f47e	0.19038579
11	0xbe7312a8	-0.23737586
12	0x3d788558	0.06067404
13	0x3dbbebbc	0.09175822
14	0xbd439be0	-0.047756076
15	0x3dcd62c0	0.10028601
16	0xbbd5c540	-0.006523758
17	0x3d347b20	0.044062734
18	0xbe4986ee	-0.19680378
19	0x3d58d340	0.05293584
20	0x3e7770f8	0.24164188
21	0x3e560c6c	0.20903176
22	0xbe0cdc6a	-0.13755956
23	0xbddfa9b8	-0.10921043
24	0x3dab9280	0.08377552
25	0x3e7949b2	0.24344519
26	0xbe08d22a	-0.13361421
27	0xbde6ee5c	-0.11275932
28	0xbe39e464	-0.1815353
29	0xbdf6f3e4	-0.12058237
30	0x3e14eb50	0.1454289

conv2.lin_node_msg.ue.0.0.weight f4 [16, 32]
0	0x3d9a75d2	0.07542004
1	0x3df092ca	0.11746748
2	0x3d94a69e	0.07258342
3	0xbdbebd7b	-0.09313484
4	0x3d267603	0.04063989
5	0xbe06f5d0	-0.13179708
6	0x3c7d34be	0.015454469
7	0xbdf1f38c	-0.11814031
8	0xbe05b8a8	-0.13058722
9	0xbd7549b0	-0.059884727
10	0x3e0e272b	0.13882129
11	0xbe043502	-0.12910846
12	0xbe11ee32	-0.1425102
13	0xbb7cd0c7	-0.003857659
14	0xbdeb0a4d	-0.11476574
15	0xbd983f0a	-0.07433899
16	0x3c9104f6	0.01770256
17	0x3e06d22d	0.13166113
18	0xbe2d3e33	-0.16918258
19	0x3e03d18e	0.12872908
20	0x3e12940d	0.1431429
21	0xbca2e7d5	-0.019885937
22	0xbdaa25de	-0.08308004
23	0x3dc48f41	0.09597636
24	0x3e18ef2a	0.14934984
25	0x3e0f0e5d	0.13970323
26	0xbe2fd23b	-0.1717004
27	0xbdd45941	-0.10368586
28	0x3d846913	0.06465354
29	0x3e08f041	0.133729
30	0x3d42e700	0.04758358
31	0xbda34389	-0.07971866
32	0x3e31f69a	0.17379227
33	0xbe15829b	-0.14600603
34	0xbe05af3a	-0.13055125
35	0x3d429e8b	0.04751448
36	0x3da28bff	0.079368584
37	0x3d836575	0.06415836
38	0xbde2fc1d	-0.11083243
39	0xbe3055ce	-0.17220232
40	0x3e1b5ea0	0.15172815
41	0x3c58c6fa	0.013231033
42	0xbdaf5dc4	-0.08562806
43	0xbca2bf2c	-0.019866548
44	0x3e0fb6a2	0.14034513
45	0x3cc4b7ec	0.024013482
46	0x3d9478d8	0.072496116
47	0x3d97c880	0.07411289
48	0xbdb6fbef	-0.08934771
49	0x3d6f4f55	0.058425266
50	0xbe078a40	-0.13236332
51	0x3c245d2f	0.010031982
52	0xbc177907	-0.009245164
53	0xbe157e08	-0.14598858
54	0xbd21e486	-0.039524578
55	0x3e0bbe36	0.13646778
56	0x3dc3457a	0.09534736
57	0x3e04bdc2	0.12963012
58	0xbdfb1d30	-0.122614264
59	0x3d34a0df	0.04409873
60	0xbe0043b9	-0.12525834
61	0x3db5a9fe	0.08870314
62	0x3c5368e4	0.012903426
63	0x3dc938e8	0.09825307
64	0x3e0f82c1	0.14014722
65	0x3e2fa840	0.17154026
66	0xbc473419	-0.012158417
67	0x3e062e0e	0.13103506
68	0xbd76bda6	-0.060239457
69	0xbd84298c	-0.06453237
70	0x3dcc6ce8	0.0998171
71	0xbe26ff5f	-0.16308354
72	0x3dfb9d05	0.122858085
73	0x3da9f8c7	0.08299404
74	0x3db4c955	0.088274635
75	0xbe0f0afe	-0.13969037
76	0xbd8530f1	-0.065034755
77	0xbcff8d63	-0.031195348
78	0xbd73cd99	-0.059522245
79	0x3d9d41c4	0.076785594
80	0x3b3e9603	0.0029081113
81	0xbc4b5e81	-0.012412668
82	0x3ddcbbf9	0.107780404
83	0xbe1666d5	-0.14687665
84	0xbddb1d41	-0.10698939
85	0xbd18a483	-0.037266266
86	0xbdb70dd0	-0.089381814
87	0xbc912f36	-0.017722707
88	0x3d5c729c	0.053820238
89	0x3c2beffb	0.0104942275
90	0x3cd7ef7c	0.026359312
91	0xbe1892c4	-0.14899737
92	0x3dad9817	0.084762745
93	0x3d376893	0.044777464
94	0xbda1aaf6	-0.07893936
95	0xbd1c676f	-0.03818458
96	0x3db4556f	0.08805358
97	0xbdec965c	-0.11552116
98	0x3e2d7869	0.16940464
99	0x3e0e3018	0.13885534
100	0xbdb9ca9f	-0.0907185
101	0x3e2aed4b	0.16692083
102	0xbdf5f1f8	-0.120090425
103	0x3e18c5f4	0.14919263
104	0x3d2188cc	0.0394371
105	0x3e0587eb	0.1304013
106	0x3ddd479b	0.10804673
107	0xbe349e86	-0.17638597
108	0xbd354a72	-0.04426045
109	0xbde4a956	-0.11165111
110	0xbe317736	-0.17330632
111	0x3d4cb1ce	0.049974255
112	0xbe26520c	-0.16242236
113	0xbdbc3da6	-0.09191446
114	0x3da95bcf	0.08269464
115	0x3dc8e68a	0.09809597
116	0x3e1320d1	0.14367987
117	0x3dc0592b	0.093920074
118	0x3e2bb5fe	0.16768643
119	0xbd873c8e	-0.06603347
120	0xbe007ea4	-0.1254831
121	0x3d90c492	0.07068743
122	0xbcf267b1	-0.02959046
123	0x3d4862ce	0.048922352
124	0xbe110226	-0.14160976
125	0x3d5dd550	0.05415851
126	0xbd5db4f1	-0.054127637
127	0xbdb0b1dd	-0.08627675
128	0x3dd1749a	0.10227318
129	0xbdb2ffa5	-0.087401666
130	0xbe1a51a1	-0.15070201
131	0xbe177bec	-0.14793366
132	0xbcaf470d	-0.021396184
133	0xbdcfb915	-0.101427235
134	0x3e305029	0.17218079
135	0x3d403d1b	0.046933275
136	0x3db49315	0.08817116
137	0x3d1129dd	0.035440315
138	0xbca31d9e	-0.019911584
139	0x3e1c2267	0.15247498
140	0x3d6976da	0.05699811
141	0x3de9242d	0.11383853
142	0xbe2ab533	-0.16670685
143	0x3c457809	0.012052544
144	0x3bf8cca4	0.0075927544
145	0xbe1220ac	-0.14270276
146	0xbd045e48	-0.032316476
147	0xbde2ef02	-0.11080743
148	0xbe2906dd	-0.16506524
149	0x3d9e819c	0.07739565
150	0xbdd4cf4e	-0.10391103
151	0xbcf499d7	-0.029858513
152	0x3d993cdf	0.07482313
153	0x3c0757b4	0.008260656
154	0xbe339582	-0.17537501
155	0x3c9175f7	0.017756445
156	0xbcd60510	-0.02612546
157	0xbe1b9da8	-0.1519686
158	0xbc98b849	-0.018642562
159	0xbdab7279	-0.08371443
160	0x3d5b8429	0.053592835
161	0xbd5e9967	-0.054345515
162	0xbe04676f	-0.12930082
163	0xbe15d4b0	-0.14631915
164	0xbe31815c	-0.17334503
165	0x3e1ef4e1	0.15523101
166	0xbc41219d	-0.011787799
167	0xbd946d41	-0.07247401
168	0x3e274088	0.1633321
169	0xbd72b3c0	-0.059253454
170	0xbde67928	-0.112535775
171	0x3e31f8a7	0.1738001
172	0x3db01294	0.085972935
173	0x3d7f6772	0.062354513
174	0xbd19ffbe	-0.03759741
175	0x3ccc7c9e	0.024961766
176	0xbe2817fd	-0.16415401
177	0x3dace384	0.08441833
178	0xbe0d312a	-0.13788286
179	0xbe0c3649	-0.13692583
180	0x3dc80fee	0.09768663
181	0x3cce69de	0.025196966
182	0xbbc9fc3e	-0.006164103
183	0xbdf6b71e	-0.120466456
184	0x3dd8195f	0.10551714
185	0xbdd36808	-0.10322577
186	0x3ddd9ad3	0.10820546
187	0x3e2ff1c3	0.17182069
188	0x3e2ecbbc	0.17069906
189	0xbdebde06	-0.11516957
190	0xbc06bf3b	-0.008224304
191	0x3d4c095c	0.049813613
192	0xbce56fc8	-0.028007403
193	0x3e146a43	0.1449366
194	0x3e00ff3c	0.12597364
195	0xbced2f2b	-0.028953156
196	0x3dddd67f	0.108319275
197	0x3c8be854	0.017078556
198	0xbe05f78f	-0.13082717
199	0xbcced181	-0.025246384
200	0xbd89798b	-0.067126356
201	0x3b0ebb64	0.0021779174
202	0x3d9ae032	0.07562293
203	0xbd53360c	-0.051565215
204	0x3dff85ee	0.12476717
205	0x3e0f024e	0.13965723
206	0xbd7270c0	-0.059189558
207	0x3deff8fc	0.11717412
208	0x3daf8c50	0.08571684
209	0x3c41be3d	0.0118251415
210	0xbe1ac16a	-0.15112844
211	0xbdf0e9be	-0.11763333
212	0x3d2603e1	0.040531043
213	0xbd9c4bea	-0.07631667
214	0x3dbdb43d	0.09262893
215	0xbd351e4b	-0.044218343
216	0x3e32b040	0.17450047
217	0xbe313e99	-0.17309035
218	0x3dd49673	0.103802584
219	0x3e23be8b	0.15990655
220	0xbe156d85	-0.1459256
221	0x3df5d60a	0.12003715
222	0xbe31f2b8	-0.17377746
223	0x3e10fe66	0.14159545
224	0xbc67c8c7	-0.01414699
225	0x3db67f5d	0.08911011
226	0xba33022d	-0.00068286323
227	0xbd71c97f	-0.059030052
228	0x3d4d827d	0.05017327
229	0xbd9c2ce9	-0.076257534
230	0x3e03c504	0.12868124
231	0xbe1fedc9	-0.15618052
232	0xbdb4bb36	-0.0882477
233	0x3cf9221d	0.030411774
234	0x3cbd6557	0.023119612
235	0x3b6761a0	0.0035305992
236	0xbd89d49b	-0.067300044
237	0x3e0f831d	0.1401486
238	0xbd404663	-0.046942126
239	0xbe0c9c57	-0.13731514
240	0x3c71b443	0.01475245
241	0x3dde2f0d	0.10848818
242	0x3d93ff44	0.072264224
243	0x3cc7412e	0.024323072
244	0x3da7fdb7	0.08202689
245	0xbd497305	-0.049181957
246	0xbe03fe2b	-0.12889926
247	0xbdc08678	-0.09400648
248	0xbdf4460f	-0.11927425
249	0xbdb0b689	-0.08628566
250	0x3e2514b6	0.16121182
251	0xbe0f9782	-0.1402264
252	0x3e0ab3d2	0.13545159
253	0x3dba4f97	0.09097212
254	0x3bdb145a	0.0066857757
255	0x3e0480b9	0.12939729

conv2.lin_node_msg.ue.0.0.bias f4 [16]
0	0xbda646d5	-0.08118979
1	0xbdc9c451	-0.098518975
2	0x3d0ff525	0.035145897
3	0x3de5db7b	0.11223503
4	0xbd881d4b	-0.06646212
5	0x3e10f45f	0.1415572
6	0x3d9bf690	0.076153874
7	0x3cb3beb5	0.021941522
8	0xbd63767c	-0.055532917
9	0xbdea1f22	-0.11431719
10	0x3d49ed2c	0.04929845
11	0xbdd60505	-0.10450176
12	0xbd9e8fd7	-0.07742279
13	0x3e20c278	0.15699184
14	0xbda8a347	-0.08234268
15	0x3b5c5f74	0.003362623
