Model/1000sam16batch_gpu.pth (torch, 121314 bytes, 79 tensors)

conv1.lin_node_msg_compact.ue.0.0.weight f4 [16, 1]
0	0xbe95d39c	-0.29263008
1	0x3cbe3a5b	0.023221185
2	0xbf6127ce	-0.8795136
3	0xbf03d22e	-0.51492584
4	0x3f93d101	1.1548158
5	0x3eb22dff	0.34800717
6	0xbf6095dc	-0.8772867
7	0xbf271dfa	-0.65280116
8	0x3bb7bd00	0.0056072474
9	0xbd343e40	-0.04400468
10	0xbd7b7ea0	-0.061400056
11	0xbf779662	-0.9671384
12	0xbf58906a	-0.8459536
13	0xbf591062	-0.84790623
14	0x3f6a7be0	0.9159527
15	0x3ea42d69	0.32065895

conv1.lin_node_msg_compact.ue.0.0.bias f4 [16]
0	0x3ecb6080	0.3972206
1	0xbf00000a	-0.5000006
2	0xbf14a8a4	-0.58069825
3	0x3f0ebaa2	0.5575353
4	0x3f76a24d	0.963414
5	0x3f91b008	1.1381845
6	0xbf226dea	-0.63448966
7	0x3e33b318	0.17548788
8	0xbf361776	-0.7112955
9	0x3f20b0f2	0.6277
10	0xbd6932c0	-0.056933165
11	0xbd1d4e20	-0.038404584
12	0x3f076d0e	0.5290078
13	0xbf4ce370	-0.8003454
14	0x3ef23ad0	0.47310495
15	0xbedabaee	-0.4272074

conv1.lin_node_msg_compact.ue.1.0.weight f4 [32, 16]
0	0xbe2b539c	-0.16731113
1	0xbe4a7d50	-0.19774365
2	0x3e5b2cb4	0.21403772
3	0x3da942c8	0.08264691
4	0xbab0e900	-0.0013497174
5	0x3d9dc734	0.077040106
6	0x3dc1c960	0.09462237
7	0x3e42f486	0.19038591
8	0x3e0e9c20	0.13926744
9	0xbe7b66d8	-0.2455095
10	0xbe6b4148	-0.22974122
11	0xbe2d9c3a	-0.16954127
12	0x3e55000c	0.20800799
13	0xbe619a92	-0.2203162
14	0xbdf6bdfc	-0.120479554
15	0x3e66be38	0.225335
16	0x3bfc9340	0.0077079833
17	0xbca73410	-0.020410568
18	0xbd45d9e8	-0.048303515
19	0xbde232c4	-0.11044839
20	0x3d207d60	0.039182067
21	0xbe5fbb04	-0.21848685
22	0x3e2d0b1a	0.16898766
23	0xbcb19a60	-0.021680057
24	0x3e59e722	0.21279576
25	0xbe01d48a	-0.12678733
26	0x3e790474	0.24318105
27	0xbdcb7e14	-0.09936157
28	0xbe2e5d18	-0.170277
29	0xbe61bcda	-0.22044697
30	0xbd1d4318	-0.038394064
31	0xbe6bd57e	-0.2303066
32	0xbe42308e	-0.18963835
33	0x3d972ab8	0.07381195
34	0x3e39dcdc	0.18150657
35	0xbd3b5ff0	-0.04574579
36	0xbe6534b2	-0.22383383
37	0x3e51a666	0.20473632
38	0xbcc72350	-0.02430883
39	0x3d65d798	0.05611381
40	0xbe1f9a6e	-0.15586254
41	0xbe6954b8	-0.22786224
42	0xbe730d10	-0.23735452
43	0xbe3de6d8	-0.18545091
44	0xbe5a49b4	-0.21317178
45	0xbd954f08	-0.07290465
46	0xbe6f7104	-0.23382956
47	0x3cf624c0	0.03004682
48	0xbdcf2ea0	-0.10116315
49	0x3da6368e	0.08115874
50	0xbe0a581a	-0.1351017
51	0x3e40b030	0.1881721
52	0x3dfa2e15	0.12215821
53	0x3d29e0b5	0.041474063
54	0xbe1b9b3c	-0.15195936
55	0x3dcb7ae8	0.09935552
56	0x3df5a65c	0.11994621
57	0xbd68fc70	-0.05688137
58	0x3de414e8	0.111368
59	0x3e1258a8	0.14291632
60	0xbddd55ac	-0.10807356
61	0xbe3d7254	-0.18500644
62	0xbe3f22b6	-0.18665585
63	0x3cba6d4c	0.022757195
64	0xbe559d9a	-0.20860901
65	0x3dc73fd8	0.09728974
66	0x3e509d52	0.20372513
67	0xbdec70e8	-0.11544973
68	0xbe004ec8	-0.12530053
69	0x3e26cec2	0.1628981
70	0x3e114672	0.14187029
71	0xbd5581b0	-0.052125633
72	0x3e553ffc	0.2082519
73	0x3dd38020	0.10327172
74	0xbbaff240	-0.0053694546
75	0xbe40b99e	-0.18820807
76	0x3dc2e704	0.09516719
77	0xbde086cc	-0.109632105
78	0xbcf4dfa0	-0.029891789
79	0xbdb802f0	-0.08984935
80	0xbe5a3a44	-0.21311289
81	0xbdec7918	-0.11546534
82	0x3e4c772e	0.19967338
83	0x3e3abc58	0.1823591
84	0xbe204640	-0.15651798
85	0x3dc513a8	0.0962289
86	0x3bf9f580	0.007628143
87	0xbddd0d90	-0.107936025
88	0xbd568fb0	-0.052383125
89	0xbe09bcbc	-0.13450903
90	0x3e0c050e	0.13673803
91	0x3dcfd594	0.10148159
92	0xbe677ad8	-0.22605455
93	0xbe330b72	-0.17484835
94	0xbe5e549c	-0.21711963
95	0xbc215400	-0.009846687
96	0xbe534bba	-0.20634356
97	0xbe1f37cd	-0.1554863
98	0xbd8513e0	-0.064979315
99	0xbd28aa28	-0.0411779
100	0x3e8c7128	0.2743008
101	0xbd0f6aba	-0.03501389
102	0xbddcc2a0	-0.10779309
103	0xbe11aafa	-0.14225379
104	0xbd7f5f28	-0.062346607
105	0xbdac9c7c	-0.084282845
106	0x3dae05b8	0.084971845
107	0x3e2ce574	0.16884404
108	0x3e46ee7a	0.19426909
109	0xbddab524	-0.10679081
110	0x3e39e71a	0.18154564
111	0xbe14e614	-0.14540893
112	0xbc040ba0	-0.008059412
113	0xbdb29714	-0.08720222
114	0xbb87ae40	-0.0041406453
115	0xbe3fdb24	-0.1873594
116	0x3d92db2c	0.0717071
117	0x3d64a008	0.05581668
118	0xbe341cb0	-0.17589068
119	0xbe38c586	-0.18044099
120	0x3c0dac80	0.008647084
121	0xbd473638	-0.04863569
122	0x3d71bf00	0.059020042
123	0xbe7b874c	-0.2456333
124	0xbe47bb12	-0.19504955
125	0x3e1b168e	0.15145323
126	0xbe29f42c	-0.1659705
127	0xbdc26dd0	-0.09493601
128	0xbe6a9b3e	-0.22910783
129	0xbc39e37e	-0.011345742
130	0x3e142014	0.14465362
131	0xbda1c25c	-0.07898399
132	0xbdb9f995	-0.09080807
133	0xbdd7cdc4	-0.105372936
134	0xbe5cce9c	-0.2156319
135	0x3dbba1d4	0.09161726
136	0x3e23d0a2	0.15997556
137	0x3e2a28aa	0.16617075
138	0xbe4a853e	-0.1977739
139	0x3e5f3b48	0.21799958
140	0x3e19093a	0.14944926
141	0xbdb87e24	-0.090084344
142	0x3e0195a0	0.12654734
143	0x3d65be9a	0.056089975
144	0x3ccd25c0	0.025042415
145	0xbdbfc67b	-0.09364029
146	0x3cf39dd0	0.029738337
147	0xbe0c0828	-0.13674986
148	0x3ead9264	0.3390075
149	0x3e62ab8e	0.22135755
150	0x3c5b2e20	0.013377696
151	0x3d97b044	0.07406667
152	0x3d0f1a38	0.034937114
153	0xbd93007c	-0.07177827
154	0xbe4fc8a2	-0.20291379
155	0xbe42f17e	-0.19037434
156	0xbe7ec5be	-0.2488012
157	0x3cba8750	0.0227696
158	0x3e833192	0.25623757
159	0xbdaf1170	-0.08548248
160	0x3dce80d8	0.10083169
161	0x3e037092	0.12835911
162	0x3c03e6a0	0.008050591
163	0x3e59b600	0.21260834
164	0xbe68e732	-0.22744444
165	0xbda7866c	-0.08179936
166	0x3d6b96d0	0.057516873
167	0x3e307134	0.17230684
168	0xbdfa6170	-0.12225616
169	0x3e53e030	0.2069099
170	0x3d66cd60	0.056348205
171	0xbe6af130	-0.22943568
172	0xbe1e12ee	-0.15436909
173	0x3e65db3c	0.22446913
174	0xbe599a28	-0.21250212
175	0xbd3b0218	-0.045656294
176	0x3e0ac1f4	0.1355055
177	0x3dc9e985	0.098589934
178	0x3d825cc4	0.0636535
179	0x3df61ccc	0.12017211
180	0x3e98cb83	0.29842767
181	0x3e985c91	0.29758123
182	0x3dc0fd6c	0.094233364
183	0xbd8370d8	-0.064180076
184	0x3d732d28	0.059369236
185	0x3e38bd42	0.18040946
186	0x3e550106	0.20801172
187	0xbddab0b0	-0.10678232
188	0xbe1170e4	-0.1420322
189	0xbe199928	-0.1499983
190	0x3dbcedad	0.092250206
191	0x3e61500e	0.22003195
192	0xbd1e9160	-0.03871286
193	0xbe30b206	-0.1725541
194	0xbde1204c	-0.10992488
195	0x3e27e8fc	0.1639747
196	0xbe6dae2a	-0.2321097
197	0xbc146520	-0.009057313
198	0x3e24943e	0.16072175
199	0xbde71448	-0.11283165
200	0x3e7fd684	0.24984175
201	0xbe0c32b2	-0.13691214
202	0xbccd63f0	-0.025072068
203	0x3ddeb8c4	0.10875085
204	0xbd86be24	-0.06579235
205	0x3d3f59c8	0.04671648
206	0xbd4ca120	-0.04995835
207	0xbe6acfe8	-0.22930872
208	0xbe60e7f8	-0.21963489
209	0x3d57a190	0.052644312
210	0x3e670536	0.22560582
211	0x3dca8440	0.09888506
212	0xbdfe5b80	-0.12419796
213	0xbe40e26a	-0.1883637
214	0x3e4232fc	0.18964761
215	0xbce6ae50	-0.02815929
216	0xbe18d510	-0.14925027
217	0xbcfa7ec0	-0.030578017
218	0xbe001a06	-0.12509927
219	0xbe5be570	-0.21474242
220	0x3d8231b4	0.06357136
221	0x3dc89220	0.09793496
222	0x3d8d91ec	0.06912598
223	0xbe4276bc	-0.18990606
224	0x3d882ff4	0.06649771
225	0xbe017066	-0.12640533
226	0x3dc5abc0	0.09651899
227	0x3dcf0408	0.10108191
228	0x3e1968c5	0.14981373
229	0xbe20b773	-0.1569498
230	0x3e1642e8	0.1467396
231	0xbdbfe090	-0.09369004
232	0xbb7ced00	-0.0038593411
233	0x3e1388ae	0.14407608
234	0x3dda15fc	0.106487244
235	0xbe33e6e8	-0.17568552
236	0xbdd334d8	-0.103128135
237	0xbd28c3b0	-0.041202247
238	0xbdaf4691	-0.08558381
239	0xbe47b365	-0.19502027
240	0xbd38ed78	-0.045148343
241	0xbd503b08	-0.050837547
242	0xbe784dbc	-0.24248403
243	0x3e2a7ca0	0.16649103
244	0xbe2dc450	-0.16969419
245	0xbe04c756	-0.12966666
246	0xbd0045f8	-0.031316727
247	0x3e3e779c	0.18600315
248	0x3e6c7d26	0.23094615
249	0x3e5c632e	0.21522209
250	0x3d93a908	0.072099745
251	0xbd8103e0	-0.06299567
252	0x3d67cbd8	0.056590885
253	0xbdadb780	-0.084822655
254	0xbd2dc3c0	-0.04242301
255	0xbe40f132	-0.18842009

conv1.lin_node_msg_compact.ue.1.0.bias f4 [32]
0	0x3d99f4b4	0.075173765
1	0xbe0c58bc	-0.13705724
2	0xbd5b40c8	-0.053528577
3	0xbcbc092f	-0.022953598
4	0xbd052808	-0.03250888
5	0x3e17284e	0.14761469
6	0xbd92053c	-0.07129905
7	0x3de46f5c	0.111540526
8	0xbdb40d95	-0.08791653
9	0xbc093b08	-0.008375891
10	0x3d7a4d48	0.061108857
11	0x3d8958cc	0.0670639
12	0x3d688c38	0.056774348
13	0xbdb40930	-0.08790815
14	0xbe9c1cfe	-0.3049087
15	0xbe5d5080	-0.2161274
16	0x3ce2c850	0.027683407
17	0x3e62fd86	0.22167024
18	0x3dc4e5a0	0.0961411
19	0xbe51b9cd	-0.20481034
20	0xbe5541ac	-0.20825833
21	0xbd98ff6c	-0.07470593
22	0x3e1712f1	0.1475332
23	0xbd64b5a8	-0.055837303
24	0x3e7c789c	0.24655384
25	0xbe44ea7c	-0.19230074
26	0x3c503dbf	0.012710034
27	0x3e81fa0f	0.25386092
28	0xbe2a6ee0	-0.16643858
29	0xbd0572d5	-0.032580215
30	0xbdc742d4	-0.09729543
31	0x3ea3d8d6	0.3200137

conv1.lin_edge_compact.ue__uplink__ap.0.0.weight f4 [16, 1]
0	0x3f6ff329	0.9373041
1	0x3f141e79	0.57859
2	0xbf449e00	-0.7680359
3	0xbd8373fb	-0.06418606
4	0x3f5702e9	0.83988816
5	0x3d4fad77	0.05070254
6	0x3f336a9e	0.7008456
7	0x3d4d7f35	0.050170142
8	0xbda8aed4	-0.08236471
9	0x3f85b240	1.0445023
10	0xbe0b0e1d	-0.13579603
11	0x3f62b5c6	0.88558614
12	0x3ef38e64	0.47569573
13	0x3e973fda	0.29540902
14	0xbf6e93e6	-0.93194425
15	0x3f423935	0.7586854

conv1.lin_edge_compact.ue__uplink__ap.0.0.bias f4 [16]
0	0x3f245b0d	0.6420143
1	0x3f0448e5	0.5167373
2	0xbcefaec0	-0.029258132
3	0x3f2da75a	0.67833483
4	0x3eb06022	0.34448344
5	0xbf556a9a	-0.83365786
6	0x3e2fbcc3	0.1716185
7	0xbe8fa99e	-0.28059095
8	0x3ec0ad9b	0.3763245
9	0xbf367c20	-0.7128315
10	0x3f338738	0.701282
11	0xbf37200a	-0.7153326
12	0xbf4f9dee	-0.81100357
13	0xbec9f75d	-0.39446536
14	0xbf68b150	-0.9089556
15	0x3ed2f0a0	0.41199207

conv1.lin_edge_compact.ue__uplink__ap.1.0.weight f4 [32, 16]
0	0x3e635e80	0.22204018
1	0x3de5f7ba	0.11228891
2	0xbe28464a	-0.16433063
3	0xbc8aaebf	-0.016929029
4	0x3dc3a6df	0.095533125
5	0xbe06db9d	-0.13169713
6	0x3e2ec408	0.17066967
7	0xbd890c9e	-0.0669186
8	0xbe3cf5a3	-0.18453078
9	0xbb483c1f	-0.0030553413
10	0xbea6fa85	-0.32613006
11	0x3db2aa2e	0.087238654
12	0xbe2243b4	-0.15846139
13	0x3e19299c	0.14957279
14	0x3e2403e0	0.16017103
15	0x3e938314	0.28810942
16	0x3c0ff210	0.00878574
17	0x3da9dc2a	0.08293946
18	0xbdacd298	-0.08438605
19	0x3d05bfbb	0.03265355
20	0xbce0331d	-0.027368123
21	0xbe3b871e	-0.18313262
22	0xbd23d93f	-0.040002104
23	0xbe1e16c2	-0.15438369
24	0x3b066965	0.0020509597
25	0xbd7b980e	-0.061424308
26	0x3e844752	0.25835663
27	0x3cd1453f	0.025545714
28	0xbe2a31b0	-0.16620517
29	0x3df2495f	0.11830401
30	0x3d2936c0	0.04131198
31	0x3e917261	0.28407577
32	0x3cf063a8	0.029344395
33	0xba9b75f7	-0.0011860718
34	0xbdde04e4	-0.108407766
35	0x3de09824	0.109665185
36	0x3e10505b	0.14093153
37	0x3d13cdab	0.036084812
38	0xbdc4b822	-0.09605433
39	0xbd09da53	-0.033655476
40	0x3e21d971	0.15805604
41	0xbe03c2ec	-0.12867326
42	0xbdf52e59	-0.11971731
43	0xbe34be02	-0.17650607
44	0x3d81df93	0.063414715
45	0x3ddddc0e	0.10832988
46	0xbe066a6c	-0.13126534
47	0x3e4e26af	0.20131944
48	0x3d5474ac	0.05186908
49	0xbe3d134e	-0.18464395
50	0x3d5476f8	0.05187127
51	0x3e4e4190	0.20142198
52	0x3bfe82bb	0.007767049
53	0x3c50da36	0.012747338
54	0x3e28b191	0.16473986
55	0x3e90069b	0.2813004
56	0xbccb5aea	-0.024823625
57	0xbd0702e9	-0.03296176
58	0xbdf97757	-0.121809654
59	0x3e81d08a	0.25354415
60	0x3e79c71c	0.2439236
61	0x3e1db246	0.15400037
62	0x3daf3648	0.08555275
63	0x3d8f099e	0.06984256
64	0x3dfe3d58	0.12414044
65	0x3db74628	0.08948928
66	0x3e320c92	0.17387608
67	0xbe472864	-0.19449002
68	0xbe4316d2	-0.19051674
69	0x3cfb0be0	0.03064531
70	0xbbb53c40	-0.005530864
71	0xbb5ca180	-0.0033665597
72	0xbe3915be	-0.180747
73	0x3e10223e	0.14075562
74	0x3e21e722	0.15810826
75	0xbdf5907c	-0.11990449
76	0x3db5e094	0.088807255
77	0xbe3464ee	-0.17616627
78	0x3e6b25d0	0.22963643
79	0xbe5f6116	-0.21814379
80	0x3e8b2616	0.27177495
81	0x3e8e548f	0.27798888
82	0x3c355b20	0.011069089
83	0xbdcd1cd5	-0.10015265
84	0x3e409258	0.18805826
85	0xbc771f28	-0.015083112
86	0x3e1329c8	0.14371407
87	0xbe24d6f5	-0.16097625
88	0xbe01bad2	-0.12668923
89	0x3d56b175	0.05241533
90	0x3d719488	0.05897954
91	0x3e34f5e5	0.17671926
92	0x3e84578d	0.25848046
93	0x3dd70fe0	0.10501075
94	0xbe13f2de	-0.14448115
95	0x3e13fa62	0.14450982
96	0xbdc389ec	-0.09547791
97	0xbd787028	-0.060653836
98	0xbde04018	-0.10949725
99	0x3d1cc900	0.038277626
100	0xbb062c00	-0.0020473003
101	0xbdfcbe3c	-0.12340972
102	0xbe6c9676	-0.23104271
103	0xbe01ece6	-0.12688026
104	0xbe6a4656	-0.22878394
105	0x3e104e3e	0.14092347
106	0xbe15f826	-0.14645442
107	0xbda1af8c	-0.07894811
108	0xbe326702	-0.17422107
109	0x3e20d9b4	0.15708047
110	0xbd3987a8	-0.045295388
111	0x3d3616a8	0.0444552
112	0xbdf84134	-0.121218115
113	0x3e049c82	0.12950328
114	0xbe62317e	-0.22089192
115	0xbe40c306	-0.18824396
116	0xbe0a35ae	-0.1349704
117	0xbe6240ba	-0.22095004
118	0xbdc03850	-0.09385741
119	0xbe60dd92	-0.21959522
120	0x3e289c06	0.16465768
121	0xbe1a47f2	-0.15066507
122	0x3dcf2914	0.10115257
123	0xbe1ba488	-0.15199482
124	0xbd9aa574	-0.07551089
125	0xbe00c48a	-0.12574974
126	0x3d5d4a18	0.05402574
127	0xbd29ebf8	-0.041484803
128	0xbda81d74	-0.08208743
129	0xbda2cd40	-0.079493046
130	0xbc252260	-0.010078996
131	0x3d673a18	0.056451887
132	0x3d8ede18	0.06975955
133	0xbe497670	-0.19674087
134	0xbe2e025a	-0.16993085
135	0xbd981754	-0.074263245
136	0x3e59e85a	0.21280041
137	0x3e39b4e6	0.18135414
138	0xbe0d2ab0	-0.13785815
139	0x3e787ea0	0.24267054
140	0x3d2f1100	0.04274082
141	0xbe499ed6	-0.19689497
142	0xbe5daa6c	-0.21647042
143	0xbe7d1bba	-0.24717608
144	0xbd4f385a	-0.05059085
145	0xbe394192	-0.1809142
146	0xbc667800	-0.014066696
147	0x3e50336c	0.20332116
148	0xbe8489d9	-0.2588642
149	0x3e6ddd58	0.23228967
150	0xbd19c8c2	-0.037544973
151	0x3e04e3be	0.12977502
152	0xbe5c6f25	-0.21526773
153	0x3d0995d8	0.033590168
154	0x3cd93f6c	0.0265195
155	0xbcc50920	-0.024052203
156	0x3c259120	0.010105401
157	0x3c9a67c0	0.0188483
158	0xbe3320ca	-0.17492977
159	0x3e6006e6	0.21877632
160	0x3e8d70f7	0.27625248
161	0x3e1ed116	0.15509447
162	0xbd963a44	-0.07335332
163	0xbe4c0d5c	-0.19926971
164	0x3e2059f2	0.15659311
165	0x3be6c738	0.0070427917
166	0x3e6ace17	0.2293018
167	0x3d6b4ce0	0.05744636
168	0xbd90a7f5	-0.07063285
169	0xbe4799c9	-0.19492258
170	0xbe4a75a5	-0.1977144
171	0xbe11dc55	-0.14244206
172	0x3e4b301d	0.19842573
173	0x3e5ddd3e	0.21666428
174	0xbe70e604	-0.23525244
175	0x3e4417db	0.19149725
176	0xbda2e1a4	-0.07953194
177	0x3df608e8	0.120134175
178	0xbe2a9736	-0.16659245
179	0xbe3ef91a	-0.18649712
180	0x3df88855	0.12135378
181	0x3e6fa3dd	0.23402353
182	0x3e27c73d	0.16384597
183	0x3dd9dc38	0.106377065
184	0x3e90502e	0.28186172
185	0x3d037bba	0.032100417
186	0xbd9c857c	-0.076426476
187	0x3da2fc54	0.07958284
188	0x3d995a75	0.074879564
189	0x392792cd	0.00015981049
190	0x3e7a60fa	0.24451056
191	0xbdbf3bdf	-0.093375914
192	0xbe386c36	-0.18010029
193	0xbe4003be	-0.18751428
194	0xbdf97960	-0.121813536
195	0x3ebc6c42	0.36801344
196	0x3e1f63f1	0.15565468
197	0x3e378e81	0.17925455
198	0x3e2a1509	0.16609587
199	0x3d251434	0.04030247
200	0x3d46da18	0.048547834
201	0xbdbb3729	-0.0914138
202	0x3ebe80ff	0.3720779
203	0x3e2bdafc	0.16782755
204	0x3e386e72	0.18010882
205	0x3e506465	0.20350797
206	0xbe5692e8	-0.20954478
207	0xbe1cc9cf	-0.15311359
208	0x3ea07bf1	0.3134456
209	0x3df9f611	0.122051366
210	0x3db76408	0.08954626
211	0x3ccd00ef	0.02502486
212	0xbd9cf42c	-0.076637596
213	0x3e90808b	0.2822307
214	0x3e91f7d0	0.28509378
215	0x3e799afa	0.24375525
216	0x3e25b7b0	0.16183352
217	0x3e90b3cb	0.2826217
218	0xbe00a8c0	-0.12564373
219	0x3e8d8524	0.2764064
220	0x3e1e97d5	0.15487607
221	0x3e10fb2f	0.14158319
222	0xbe5ba34c	-0.21449012
223	0x3e33f04c	0.17572135
224	0x3e72f2a4	0.23725373
225	0xbc3d2a7c	-0.011545774
226	0xbe018834	-0.12649614
227	0xbe1ae63b	-0.15126888
228	0xbce60ff3	-0.028083777
229	0x3dd3a96f	0.10335051
230	0x3ea35571	0.31901124
231	0x3d9af95e	0.07567094
232	0xbdbe0309	-0.09277923
233	0x3ea08665	0.31352535
234	0x3e2d501f	0.16925095
235	0x3e5fd6f2	0.21859339
236	0x3e02fab2	0.12790945
237	0x3dcce909	0.100053854
238	0xbdfdd1d8	-0.1239354
239	0x3e0a3221	0.13495685
240	0xbdaa57de	-0.083175406
241	0xbc983a20	-0.018582404
242	0xbdf0f6a4	-0.11765793
243	0x3c6b70e8	0.014370181
244	0x3e97f1ef	0.29676768
245	0xbde1a884	-0.1101847
246	0x3e3e4290	0.18580079
247	0xbe1f939d	-0.15583654
248	0x3e443bb5	0.19163401
249	0x3e31b04c	0.17352408
250	0x3d98d270	0.07462013
251	0x3e5bc881	0.21463205
252	0x3e91a2c6	0.284445
253	0xbe1c628c	-0.15271968
254	0x3e106f60	0.14104986
255	0xbe2d5715	-0.1692775

conv1.lin_edge_compact.ue__uplink__ap.1.0.bias f4 [32]
0	0x3d8b9f8e	0.06817542
1	0x3eaf8a0f	0.34285018
2	0x3e837f5d	0.25683108
3	0x3e616cd4	0.22014171
4	0xbac0d700	-0.0014712512
5	0xbe1e61c9	-0.1546699
6	0xbe223390	-0.15839982
7	0xbc638fe0	-0.013889283
8	0xbde16b60	-0.11006808
9	0x3d515f30	0.05111617
10	0xbe9a9e27	-0.30198786
11	0xbe1b8b88	-0.15189946
12	0x3df385c1	0.11890746
13	0xbe1abfb2	-0.15112188
14	0xbd156f23	-0.03648294
15	0x3de387b4	0.11109868
16	0x3e3291c2	0.17438415
17	0xbe6a23ee	-0.22865269
18	0x3d5c36de	0.053763263
19	0xbdc380b8	-0.095460355
20	0x3d0fd7f8	0.035118073
21	0xbd25c6f8	-0.040472955
22	0xbe8179e0	-0.25288296
23	0xbd4be4c2	-0.049778707
24	0xbe86e00c	-0.2634281
25	0x3daa74b1	0.08323038
26	0xbe29d178	-0.16583812
27	0xbe48fa2e	-0.19626686
28	0xbe8b6ddd	-0.27232257
29	0xbe4d7fbe	-0.20068261
30	0xbd47e6f4	-0.04880424
31	0xbe5999b4	-0.2125004

conv1.lin_edge_compact.ap__downlink__ue.0.0.weight f4 [16, 1]
0	0x3f4a2a11	0.7897044
1	0x3f5d57e3	0.8646223
2	0xbea26ac0	-0.3172207
3	0x3f76662a	0.9624964
4	0xbf03cf18	-0.51487875
5	0x3deb5a38	0.11491817
6	0x3f5867a5	0.8453315
7	0x3e4cb56f	0.19991086
8	0x3f57b775	0.8426431
9	0x3e798174	0.24365789
10	0xbbb0048a	-0.005371635
11	0x3e8422c0	0.25807762
12	0xbc1cab55	-0.009562333
13	0xbf0d22cc	-0.5513122
14	0x3d853706	0.065046355
15	0x3f09e810	0.53869724

conv1.lin_edge_compact.ap__downlink__ue.0.0.bias f4 [16]
0	0xbee55a42	-0.44795424
1	0xbd8170d4	-0.063203484
2	0xbefeba2c	-0.49751413
3	0x3bb1e937	0.0054294127
4	0xbf5ebdac	-0.87008166
5	0x3e42efcc	0.19036788
6	0xbd80c310	-0.06287205
7	0xbdd03f5e	-0.10168336
8	0x3eadf057	0.33972427
9	0x3ef77688	0.4833262
10	0xbee9b5b9	-0.45646456
11	0x3f1b5e8f	0.6069116
12	0x3f879215	1.0591456
13	0x3f60d00c	0.87817454
14	0x3f225d95	0.63424045
15	0x3f86f65a	1.054393

conv1.lin_edge_compact.ap__downlink__ue.1.0.weight f4 [31, 16]
0	0x3dcd11cb	0.10013159
1	0x3e4183b1	0.18897893
2	0xbd9e51f4	-0.07730475
3	0xbe2d5db7	-0.1693028
4	0xbc32b460	-0.010907263
5	0xbe157fac	-0.14599484
6	0x3e12139a	0.1426529
7	0x3e8b2a73	0.27180824
8	0x3e87aa7b	0.26497254
9	0x3e8e4b76	0.27791947
10	0x3db55547	0.08854156
11	0x3cbec1e5	0.023285815
12	0x3d0068b7	0.031349864
13	0x3ecfd66d	0.4059328
14	0xbd2451b0	-0.040116966
15	0x3dbce640	0.09223604
16	0xbe45c439	-0.19313134
17	0xbe5abcbd	-0.2136106
18	0x3df8e470	0.12152946
19	0x3df517c9	0.11967427
20	0xbda0848c	-0.07837781
21	0xbe39e507	-0.18153773
22	0x3cbda4fc	0.02314996
23	0x3b7fc8b9	0.0039029552
24	0x3e1b5905	0.15170677
25	0xbd9be56c	-0.07612118
26	0xbe105f98	-0.14098966
27	0x3e2292de	0.15876338
28	0x3eb2a9b4	0.34895098
29	0x3e75d7a1	0.24008037
30	0xbbdd214b	-0.0067483536
31	0x3e819d3d	0.25315276
32	0xbc8cecf2	-0.017202828
33	0x3e48370c	0.19552249
34	0x3e7f90ca	0.24957576
35	0xbe169536	-0.14705357
36	0x3c49ddc0	0.012320936
37	0x3dc9bc29	0.09850342
38	0xbdc49c81	-0.09600163
39	0xbde53fc9	-0.11193807
40	0xbc2d3c15	-0.010573407
41	0xbca082ab	-0.019593557
42	0xbda9ab94	-0.08284679
43	0xbd4460a9	-0.047943745
44	0x3e808ceb	0.25107512
45	0x3e96d093	0.29456005
46	0x3db693bb	0.08914896
47	0x3e8414e9	0.25797203
48	0xbd93e25c	-0.07220909
49	0x3e3370d4	0.1752351
50	0x3ddbb178	0.10727209
51	0xbdabbc00	-0.083854675
52	0xbe19417a	-0.14966384
53	0xbe3ad226	-0.18244228
54	0x3e45c720	0.19314241
55	0xbe506b7a	-0.20353499
56	0xbe27ed76	-0.16399178
57	0xbcd58bb0	-0.026067585
58	0x3e22b964	0.15891033
59	0x3e4d753a	0.2006425
60	0xbe0b702a	-0.13617006
61	0xbd8fdbf0	-0.070243716
62	0xbe419340	-0.18903828
63	0xbd875858	-0.06608647
64	0xbdd58fa3	-0.10427787
65	0x3c058194	0.00814857
66	0x3e32a856	0.17447028
67	0xbd86682c	-0.06562838
68	0xbe34e8ec	-0.17666978
69	0x3e45788b	0.19284265
70	0x3d260e93	0.040541243
71	0x3db1a552	0.086741105
72	0x3e5e52a6	0.21711215
73	0xbd9bf206	-0.07614522
74	0x3d2fe199	0.042939756
75	0x3b7ce310	0.0038587488
76	0xbdd6a1e4	-0.10480097
77	0x3cb36070	0.02189657
78	0x3e058cda	0.13042012
79	0xbe57b531	-0.21065213
80	0x3e9ec4d6	0.3100955
81	0xbd3c16f0	-0.045920312
82	0x3d20e988	0.039285213
83	0x3e71b362	0.23603585
84	0xbd6febe0	-0.058574557
85	0xbd2e0088	-0.042480975
86	0x3e6f22ba	0.23353091
87	0xbe07ea9a	-0.13273087
88	0xbdbe614b	-0.09295901
89	0xbd1cab71	-0.038249437
90	0xbe3699dd	-0.17832132
91	0xbe199f07	-0.1500207
92	0x3e51e7c3	0.20498566
93	0x3e4dd2bd	0.20099922
94	0x3e630817	0.22171055
95	0xbdfaf49b	-0.12253686
96	0xbe01239c	-0.1261124
97	0xbe31f044	-0.1737681
98	0xbe1d9b40	-0.15391254
99	0x3d0b1848	0.033958703
100	0xbd5bcea0	-0.05366385
101	0xbde8cfc8	-0.11367756
102	0xbd7e2a50	-0.06205207
103	0xbd5f7e28	-0.05456367
104	0xbe5d9c38	-0.21641624
105	0x3d50d028	0.050979763
106	0x3d1bc400	0.038028717
107	0x3dc238c4	0.094834834
108	0xbde11ccc	-0.10991821
109	0x3e0c9c38	0.13731468
110	0x3dc9eac8	0.09859234
111	0xbdbdba4c	-0.09264049
112	0xbdd9e994	-0.106402546
113	0xbd7841a0	-0.06060946
114	0x3e79c758	0.2439245
115	0xbe3d5704	-0.18490225
116	0xbe06a2a8	-0.13147986
117	0xbe28a30a	-0.16468444
118	0x3e6e142c	0.23249882
119	0x3e1d80c2	0.15381148
120	0xbca408c0	-0.020023704
121	0x3e130ac0	0.1435957
122	0x3e60f3d4	0.21968013
123	0xbe50788a	-0.20358482
124	0x3e46f08c	0.19427699
125	0xbdc6d230	-0.09708059
126	0xbe2a5fc4	-0.16638094
127	0xbd5471e0	-0.051866412
128	0xbdb057d5	-0.08610503
129	0x3ea18785	0.31548706
130	0xbe469436	-0.19392475
131	0x3e6db479	0.23213376
132	0x3d928944	0.071550876
133	0x3c7fa524	0.015603337
134	0x3d8c6a2f	0.068561904
135	0xbd08b91f	-0.03337967
136	0xbe1d1e56	-0.15343603
137	0x3e814e8b	0.25255236
138	0xbdc2fa4f	-0.09520399
139	0x3e2541f3	0.16138439
140	0x3ee0ef6c	0.43932664
141	0x3da3ba89	0.07994563
142	0x3e45aaf0	0.19303489
143	0x3e4430d7	0.19159256
144	0x3dcf4ab6	0.10121672
145	0x3d355602	0.044271477
146	0x3e38982c	0.18026799
147	0xbc25aff3	-0.01011275
148	0xbe60fd08	-0.21971524
149	0x3d8f8bfe	0.07009123
150	0xbcc2ed21	-0.023794712
151	0x3d2f4062	0.04278601
152	0x3b2b0b90	0.002609942
153	0xbe92f0a0	-0.28699207
154	0x3d643d03	0.055722248
155	0xbe65052d	-0.22365256
156	0x3e026237	0.12732778
157	0x3dd01cc2	0.10161735
158	0x3cd9e658	0.026599094
159	0x3e497a93	0.19675665
160	0xbe4cf23e	-0.20014283
161	0x3e2161ee	0.15760013
162	0x3c597e40	0.013274729
163	0xbe352ca0	-0.17692804
164	0xbb0b9880	-0.0021300614
165	0xbe309abc	-0.17246526
166	0xbcd4c720	-0.025973856
167	0xbdd64704	-0.10462764
168	0x3d820e60	0.06350398
169	0xbdfd8888	-0.12379557
170	0xbd50a810	-0.050941527
171	0x3e67b52c	0.22627705
172	0x3dec28cc	0.11531219
173	0xbdde9780	-0.1086874
174	0xbcee3030	-0.029075712
175	0x3cca34c0	0.024683356
176	0x3e94d1f8	0.29066443
177	0x3c232b22	0.009959014
178	0xbdb04dcc	-0.086085886
179	0xbd61fddf	-0.05517375
180	0xbdf1752c	-0.11789927
181	0x3d4f4429	0.050602112
182	0x3e86c7a9	0.26324204
183	0x3df0bd47	0.11754852
184	0x3df1c97b	0.118060075
185	0x3e8045aa	0.2505315
186	0xbd9907be	-0.0747218
187	0x3ea86589	0.32889965
188	0x3d92d427	0.07169371
189	0x3cfb980a	0.030712146
190	0x3e6335a0	0.22188425
191	0x3ea9cd55	0.33164468
192	0x3dbbeaef	0.091756694
193	0x3e27650b	0.16347139
194	0x3e107124	0.1410566
195	0xbdad7f79	-0.08471579
196	0xbe74ef2c	-0.23919362
197	0x3d3d2998	0.046182245
198	0x3e057581	0.13033105
199	0x3def2cf5	0.11678497
200	0xbe84ba25	-0.25923267
201	0x3e2652d8	0.1624254
202	0x3e555217	0.20832096
203	0xbe6eb949	-0.23312868
204	0x3d31541d	0.043293107
205	0x3e3e6299	0.185923
206	0x3d6ceee9	0.05784503
207	0xbd975413	-0.07389083
208	0x3b3c7000	0.002875328
209	0xbe70a360	-0.23499823
210	0xbd2e81e0	-0.042604327
211	0xbd90f290	-0.07077515
212	0xbd481530	-0.04884833
213	0xbd7fb3f0	-0.06242746
214	0xbe7ed764	-0.24886853
215	0xbde6eb24	-0.11275318
216	0x3dcbf050	0.09957945
217	0xbe7dfe76	-0.248041
218	0x3e7ccfee	0.24688694
219	0x3c5bdfa0	0.013420016
220	0xbe60a350	-0.21937299
221	0x3d6f6758	0.058448166
222	0xbd8fd9b8	-0.070239484
223	0xbdbf0d60	-0.09328723
224	0x3e5cd121	0.21564151
225	0x3ea50134	0.3222748
226	0x3d109eb0	0.035307586
227	0xbd4fe03b	-0.050750952
228	0xbd8e7638	-0.06956142
229	0x3e30c255	0.17261632
230	0x3e838434	0.256868
231	0x3e4a631e	0.19764373
232	0x3daf82ca	0.08569868
233	0x3e29cc48	0.16581833
234	0xbe70eb9d	-0.2352738
235	0x3e96421f	0.2934732
236	0x3f08c86b	0.53430814
237	0x3cbae6b6	0.02281509
238	0x3e89110f	0.26770827
239	0x3d4babcd	0.04972439
240	0xbe7923ae	-0.24330017
241	0x3e57cf26	0.21075115
242	0xbe16c3ae	-0.14723083
243	0xbde28b56	-0.110617325
244	0xbd7a8210	-0.061159194
245	0x3e18414e	0.14868662
246	0xbe2fd403	-0.1717072
247	0x3e3bc08b	0.18335168
248	0x3e336a16	0.17520937
249	0x3dd928b5	0.106034674
250	0x3e16eb56	0.14738211
251	0x3d60e0fc	0.05490206
252	0x3ea93a4d	0.33052292
253	0x3de4d9aa	0.111743286
254	0xbc972c64	-0.018453784
255	0x3d3a318c	0.045457408

conv1.lin_edge_compact.ap__downlink__ue.1.0.bias f4 [31]
0	0x3dfa6a75	0.12227336
1	0x3e91fb0b	0.28511843
2	0x3d2ad395	0.041705687
3	0xbdaa45c8	-0.08314091
4	0xbe2ace6e	-0.16680309
5	0xbd8f0a02	-0.06984331
6	0xbdac81e4	-0.08423212
7	0x3cdcfae0	0.026975095
8	0x3ee985e0	0.4560995
9	0xbe2129b7	-0.15738569
10	0xbe3f6db6	-0.18694195
11	0x3ecde829	0.40216187
12	0xbdcc930c	-0.099889845
13	0xbdb92dcc	-0.09041938
14	0x3ea675d5	0.32511774
15	0x3cb929c1	0.022602918
16	0xbdec35f4	-0.11533728
17	0x3ee03340	0.437891
18	0x3e0d07d1	0.13772513
19	0x3db3ddc2	0.08782531
20	0x3c888d49	0.016668933
21	0xbe3def50	-0.18548322
22	0xbc897511	-0.016779454
23	0x3d11d942	0.035607584
24	0x3dec6180	0.11542034
25	0x3ea02c15	0.31283632
26	0x3d87eee8	0.066373646
27	0xbd5715c0	-0.052510977
28	0x3d928468	0.07154161
29	0x3d820360	0.063483
30	0x3de6918e	0.11258231

conv1.lin_node_upd.ue.0.0.weight f4 [16, 1]
0	0xbe213198	-0.15741575
1	0xbe91f6a0	-0.28508472
2	0x3e9bd07d	0.304325
3	0xbedddfdc	-0.43334854
4	0xbf205ba4	-0.6263983
5	0x3f30932d	0.6897457
6	0xbc6f7000	-0.014614105
7	0xbf32570c	-0.69664073
8	0x3f03d852	0.51501954
9	0xbe4e9ea0	-0.20177698
10	0xbd50cc40	-0.050976038
11	0x3f9090dd	1.1294209
12	0x3f7c0285	0.98441344
13	0xbf189598	-0.5960326
14	0xbf598fba	-0.84984934
15	0x3f888096	1.0664241

conv1.lin_node_upd.ue.0.0.bias f4 [16]
0	0x3e1e9cc8	0.15489495
1	0x3e088f40	0.13335896
2	0x3f23e9c6	0.64028585
3	0xbe413458	-0.18867624
4	0xbe59bf48	-0.21264374
5	0x3f879044	1.0590901
6	0xbe6d7fe8	-0.23193324
7	0x3b8ecb00	0.0043576956
8	0x3d85bc44	0.065300494
9	0xbf134ae0	-0.57536125
10	0x3eb6a1f8	0.35670447
11	0xbd687118	-0.05674848
12	0xbea3ff72	-0.32030827
13	0x3f71e5b4	0.94491124
14	0x3e1bc090	0.15210176
15	0xbee99bb2	-0.456266

conv1.lin_node_upd.ue.1.0.weight f4 [31, 16]
0	0x3e0e3502	0.13887408
1	0xbce4a4c0	-0.02791059
2	0x3c86b910	0.016445667
3	0xbdfdce10	-0.12392819
4	0x3b9e58c0	0.004832357
5	0xbd0f9930	-0.0350582
6	0x3ca000b0	0.019531578
7	0xbe0826f8	-0.13296115
8	0xbde8ee84	-0.11373618
9	0xbe492f0c	-0.19646853
10	0xbd365e00	-0.04452324
11	0x3d945bdc	0.07244083
12	0xbe5432d6	-0.20722517
13	0x3e4eb802	0.20187381
14	0x3da84a78	0.08217329
15	0xbe2e9504	-0.17049032
16	0xbe0ee990	-0.13956285
17	0x3bd00600	0.0063483715
18	0x3ee43bae	0.44576782
19	0xbe0d65c4	-0.13808352
20	0x3e43a058	0.19104135
21	0x3e781d45	0.24229915
22	0xbdc320c8	-0.09527737
23	0x3d03a578	0.032140225
24	0x3dd54ee0	0.10415435
25	0x3e734326	0.23756084
26	0xbda1d0fc	-0.07901189
27	0x3e0a89e5	0.13529165
28	0x3ec15f2a	0.37767917
29	0x3dae6444	0.08515218
30	0x3d26ba08	0.040704757
31	0x3e41e4e1	0.18934967
32	0xbe048c8e	-0.12944242
33	0xbde17484	-0.11008552
34	0x3e19b19e	0.15009162
35	0x3e315f9a	0.17321625
36	0xbe76391a	-0.2404522
37	0xbd87dac4	-0.06633523
38	0x3d920528	0.0712989
39	0x3db72a28	0.089435875
40	0xbddd23d0	-0.10797846
41	0x3e37bfa6	0.17944202
42	0x3deeefb4	0.116668135
43	0x3df315ac	0.11869368
44	0xbe446dc4	-0.19182497
45	0xbe5eb880	-0.21750069
46	0x3e7e283a	0.24820033
47	0xbcb1d3e0	-0.021707475
48	0x3e1b39fe	0.15158841
49	0xbe2f0ebc	-0.17095464
50	0x3e8d25ab	0.275678
51	0xbe239102	-0.15973285
52	0x3e0a28c4	0.13492113
53	0x3dad23d7	0.084541015
54	0xbd42b938	-0.04753992
55	0xbe3e8c8e	-0.18608305
56	0xbde3afc9	-0.11117513
57	0x3e36c6ec	0.1784932
58	0x3d6746a0	0.056463838
59	0x3ea40530	0.32035208
60	0x3e8977ab	0.26849112
61	0xbe0b7604	-0.13619238
62	0xbe2bb70c	-0.16769046
63	0x3e336fb9	0.17523088
64	0x3c8e4410	0.01736644
65	0x3d419968	0.04726544
66	0x3cdbea0c	0.026845
67	0xbe304938	-0.1721543
68	0xbd05b2b8	-0.032641143
69	0x3ec75a24	0.3893596
70	0xbae0ac00	-0.0017141104
71	0xbdef34ec	-0.11680016
72	0xbd32229c	-0.043490037
73	0x3e02ae92	0.12761906
74	0x3e6e0550	0.23244214
75	0x3eaaa6ff	0.33330533
76	0x3e17a565	0.14809187
77	0x3e6bb394	0.23017722
78	0x3df7c0b8	0.12097305
79	0x3dd6f753	0.10496392
80	0xbde048e4	-0.10951403
81	0xbe750042	-0.2392588
82	0xbe746c44	-0.23869425
83	0x3e1a4e02	0.1506882
84	0xbe539c00	-0.20664978
85	0x3e01736c	0.12641686
86	0xbe00ba3a	-0.1257104
87	0xbdf950d8	-0.12173623
88	0xbe3c46aa	-0.18386331
89	0xbde92d14	-0.11385551
90	0x3e00b78e	0.1257002
91	0xbe5b5cee	-0.21422169
92	0x3d5158c0	0.05111003
93	0x3dbd1d94	0.09234157
94	0x3de5cb50	0.112204194
95	0xbe4b5b08	-0.19858944
96	0xbe152564	-0.14565045
97	0xbe65e0fa	-0.22449103
98	0x3d968dd2	0.07351269
99	0xb9273000	-0.00015944242
100	0x3dff93c8	0.12479359
101	0x3eba34aa	0.36368304
102	0x3dad7e84	0.084713966
103	0xba8a9a00	-0.001057446
104	0x3edaef60	0.42760754
105	0xbe0cbc90	-0.13743806
106	0x3e709bd0	0.23496938
107	0x3ee1378f	0.439877
108	0x3e71ea56	0.23624548
109	0xbd62dbe0	-0.05538547
110	0xbe4854ea	-0.19563642
111	0x3ea509ed	0.32234135
112	0xbca02050	-0.019546658
113	0x3dcddd64	0.100519925
114	0x3de139bc	0.1099734
115	0x3e35a122	0.17737249
116	0x3da6ccbc	0.08144519
117	0x3c7f1ba0	0.015570551
118	0x3e48b2a0	0.1959939
119	0x3d8f5f48	0.07000595
120	0xbd2530f0	-0.040329874
121	0x3e3af2e2	0.18256715
122	0x3d9b4f84	0.07583526
123	0xbe7bde38	-0.24596488
124	0xbe7e63f2	-0.24842814
125	0x3e33ef0e	0.17571661
126	0xbd772178	-0.060334653
127	0xbe3f9fe2	-0.18713334
128	0xbd0ed380	-0.03486967
129	0xbe08e960	-0.13370275
130	0xbe0dfbbc	-0.1386556
131	0x3d891088	0.06692606
132	0x3e52ee62	0.20598748
133	0x3df6bd68	0.12047845
134	0x3d1e9360	0.038714767
135	0xbe4a6e9c	-0.19768757
136	0xbe5bab0c	-0.21451968
137	0xbdad8c6c	-0.08474049
138	0xbe23de3e	-0.16002747
139	0xbddb24f8	-0.107004106
140	0xbd3a1830	-0.045433223
141	0xbdb3c5e8	-0.08777982
142	0x3e13aeee	0.14422199
143	0xbe74305e	-0.23846576
144	0xbdaa65d0	-0.083202004
145	0x3d8b8bf0	0.068138
146	0x3dcab84c	0.09898433
147	0xbdafbc30	-0.08580816
148	0xbe15f118	-0.14642751
149	0x3d0064e5	0.03134622
150	0xbe6b0de4	-0.22954518
151	0xbe094394	-0.13404685
152	0x3cfbee1b	0.030753186
153	0x3e2a1b4a	0.16611972
154	0x3acfda00	0.0015857816
155	0x3df0eba4	0.11763695
156	0x3e7f8d25	0.24956186
157	0x3d29b228	0.04142967
158	0x3bb10940	0.005402714
159	0x3e1be316	0.15223345
160	0x3e1a3088	0.15057576
161	0x3e28d486	0.16487321
162	0xbe5dc658	-0.21657693
163	0xbdf96a0c	-0.1217843
164	0x3db51c7c	0.088433236
165	0xbdc37d74	-0.09545413
166	0xbe4938ae	-0.19650528
167	0xbe2a946a	-0.16658178
168	0xbd95094c	-0.07277164
169	0x3e610698	0.21975172
170	0xbe196dc2	-0.14983276
171	0x3d32a768	0.043616682
172	0xbe44df66	-0.19225845
173	0x3e5eb6ce	0.21749422
174	0xbd8b58fc	-0.06804082
175	0xbd860e60	-0.065457106
176	0xbca601d0	-0.020264536
177	0xbd2b12c8	-0.041765958
178	0xbe08930a	-0.13337341
179	0xbe5a0cf4	-0.21294004
180	0xbe426016	-0.18981966
181	0xbd9a03a1	-0.075202234
182	0x3d9982cc	0.07495651
183	0x3d8a8c20	0.06765008
184	0x3e3fe32e	0.18739006
185	0xbdaa110c	-0.08304033
186	0x3d6189f0	0.055063188
187	0x3df520ff	0.11969184
188	0xbe124a22	-0.14286092
189	0xbdfccb40	-0.12343454
190	0xbe7f7918	-0.24948537
191	0xbb76d535	-0.0037663702
192	0xbe3a68f8	-0.18204105
193	0xbe02be52	-0.12767914
194	0xbd07d870	-0.033165395
195	0x3e65b0ca	0.22430721
196	0xbd1a8410	-0.0377236
197	0x3d35c698	0.044378847
198	0xbc8a5a20	-0.016888678
199	0xbda4fdf8	-0.08056253
200	0xbe59335c	-0.21210998
201	0x3d7740e8	0.060364634
202	0xbe295814	-0.16537505
203	0xbe22b410	-0.15889001
204	0x3e632756	0.22182974
205	0x3d8c902c	0.06863436
206	0xbcb632e0	-0.022241056
207	0xbe417ff0	-0.1889646
208	0xbcb82000	-0.022476196
209	0xbe3836fc	-0.17989725
210	0x3ef6a30f	0.4817128
211	0xbe410c1a	-0.18852273
212	0xbdc080ac	-0.09399542
213	0x3ea5d2d2	0.32387406
214	0x3d868bd4	0.06569639
215	0x3dd48720	0.103773355
216	0x3e0dd8dd	0.13852258
217	0xbd9f4ca8	-0.07778293
218	0x3bdbbb40	0.0067056715
219	0x3e9104e6	0.2832405
220	0x3ecad6e9	0.39617088
221	0x3e33e868	0.17569125
222	0x3ca116e0	0.019664228
223	0x3f0fd831	0.56189257
224	0x3dd1dd70	0.10247314
225	0xbd7fb510	-0.062428534
226	0x3df35348	0.11881119
227	0x3dcca028	0.09991485
228	0xbd125218	-0.035722822
229	0x3d2f9070	0.042862356
230	0xbe32a210	-0.17444634
231	0xbd012e40	-0.031538248
232	0xbe575452	-0.2102826
233	0xbde8a9ac	-0.11360487
234	0xbe38f806	-0.18063363
235	0xbe275baa	-0.16343561
236	0xbd6ff7a8	-0.058585793
237	0x3cfb0000	0.030639648
238	0xbe5a9cc6	-0.21348867
239	0x3e41cfe0	0.18926954
240	0x3de1648c	0.11005506
241	0xbe1b1468	-0.15144503
242	0x3c246360	0.0100334585
243	0xbd856fd4	-0.0651547
244	0xbdbfdcf0	-0.09368312
245	0x3e166870	0.14688277
246	0x3e747952	0.23874405
247	0xbe28916a	-0.16461721
248	0xbdd3c69c	-0.10340616
249	0x3e7dd212	0.24787167
250	0xbe3fb50e	-0.1872141
251	0xbbfc9f40	-0.0077094138
252	0xbe7d0ce0	-0.24711943
253	0xbc3f2040	-0.011665404
254	0xbd3e3e90	-0.046446383
255	0xbdb197a4	-0.08671501

conv1.lin_node_upd.ue.1.0.bias f4 [31]
0	0x3e5d0832	0.21585158
1	0x3eaef079	0.3416784
2	0x3ba0be00	0.0049054623
3	0x3e899c6f	0.26877162
4	0x3d7e1e2a	0.062040485
5	0x3d894c44	0.06704
6	0x3dd5396e	0.104113445
7	0x3e45f25a	0.19330731
8	0x3d9e6c1c	0.07735464
9	0x3ea2f257	0.31825516
10	0xbe4b4fbe	-0.19854638
11	0x3da7634d	0.08173237
12	0x3d8ccbe4	0.068748266
13	0x3ee6e989	0.45100048
14	0x3e7d9c0c	0.24766558
15	0xbe53ef3a	-0.20696726
16	0x3c684aa0	0.014177948
17	0x3e9141d7	0.28370544
18	0xbc7a6060	-0.015281767
19	0x3eee4b41	0.4654179
20	0xbd5a3ac6	-0.053278707
21	0xbcb8f5f0	-0.02257821
22	0xbe234f82	-0.15948299
23	0x3e57aa3a	0.2106103
24	0x3da71eb7	0.08160155
25	0xbd4f9dc0	-0.05068755
26	0x3d8e53d4	0.06949583
27	0x3e5243fe	0.2053375
28	0xbe52af74	-0.20574743
29	0xbdd46a00	-0.103717804
30	0x3eb393f7	0.35073826

conv1.lin_node_upd.ap.0.0.bias f4 [16]
0	0x00000000	0.0
1	0x00000000	0.0
2	0x00000000	0.0
3	0x00000000	0.0
4	0x00000000	0.0
5	0x00000000	0.0
6	0x00000000	0.0
7	0x00000000	0.0
8	0x00000000	0.0
9	0x00000000	0.0
10	0x00000000	0.0
11	0x00000000	0.0
12	0x00000000	0.0
13	0x00000000	0.0
14	0x00000000	0.0
15	0x00000000	0.0

conv1.lin_node_upd.ap.1.0.weight f4 [31, 16]
0	0x3c932990	0.017964154
1	0xbdf9aad0	-0.12190783
2	0x3e4f9e6a	0.20275274
3	0xbd029c78	-0.0318875
4	0x3cd17400	0.025568008
5	0xbe420aba	-0.18949404
6	0xbd1b76f0	-0.037955225
7	0xbd311b50	-0.043238938
8	0xbe771514	-0.24129134
9	0x3d173f50	0.036925614
10	0xbb92cec0	-0.004480213
11	0x3dde9634	0.10868493
12	0xbd892fd0	-0.06698573
13	0x3df9c6d4	0.121961266
14	0x3dad32f0	0.08456981
15	0xbbd1b140	-0.0063993037
16	0xbe2833f8	-0.16426075
17	0x3e201488	0.15632832
18	0x3e3ceac0	0.18448925
19	0xbddbdfd4	-0.10736051
20	0xbd55c4b0	-0.05218953
21	0x3e6d6aae	0.23185226
22	0xbe317e94	-0.17333442
23	0xbd500b38	-0.05079195
24	0x3e2da032	0.16955641
25	0x3b896bc0	0.004193753
26	0x3d532b50	0.051554978
27	0xbd3a7128	-0.04551807
28	0xbd92cda8	-0.07168132
29	0x3e22b93e	0.15890977
30	0x3e3c097c	0.18362993
31	0xbc7d3100	-0.015453577
32	0x3e74694e	0.23868296
33	0x3e21e39a	0.1580948
34	0x3d620f38	0.055190295
35	0x3e05bea8	0.13061011
36	0x3db5cfdc	0.08877537
37	0x3e309844	0.17245585
38	0x3e672792	0.22573689
39	0xbd472dc8	-0.048627645
40	0x3e49cb84	0.19706541
41	0xbd3776f0	-0.044791162
42	0x3e234d28	0.15947402
43	0xbe164482	-0.14674571
44	0x3dbbad4c	0.09163913
45	0x3e02ac8e	0.12761137
46	0x3e368222	0.17823079
47	0xbdab9e98	-0.08379859
48	0xbdb674dc	-0.08909008
49	0x3ddc7d68	0.10766107
50	0xbd9902d0	-0.074712396
51	0x3e7c0138	0.2460984
52	0x3e67544c	0.2259075
53	0xbe648330	-0.22315669
54	0xbe378956	-0.17923483
55	0x3e42cbb8	0.19023025
56	0xbc440b40	-0.011965573
57	0x3db4de54	0.08831468
58	0x3db69204	0.08914569
59	0x3e5b7b1a	0.21433678
60	0x3dfb9f70	0.1228627
61	0x3b738400	0.0037157536
62	0x3e1a7a5c	0.15085739
63	0x3e141598	0.14461362
64	0xbe3c4ee4	-0.1838947
65	0x3e3e3086	0.18573198
66	0x3d7da928	0.061928898
67	0x3e3c1934	0.18368989
68	0x3dd51228	0.10403854
69	0xbe058668	-0.13039553
70	0x3d072aa8	0.032999665
71	0xbe190ec6	-0.14947042
72	0x3d90abf0	0.070640445
73	0xbdc70bc0	-0.09719038
74	0xbdf5d7a0	-0.12004018
75	0xbba91e00	-0.005161047
76	0xbe1e9a94	-0.15488654
77	0xbe6ddd5a	-0.2322897
78	0x3b6bde80	0.0035990775
79	0xbd476eb0	-0.048689544
80	0xbdd01420	-0.101600885
81	0xbe43253a	-0.1905717
82	0x3d9a3f18	0.075315654
83	0x3b637280	0.0034705698
84	0xbe2077c8	-0.15670693
85	0xbdc1e708	-0.09467894
86	0xbe6e451e	-0.23268554
87	0xbd348950	-0.044076264
88	0x3e41f4f2	0.18941095
89	0xbdb2ee90	-0.087369084
90	0x3d83ee94	0.064419895
91	0x3dbcdf04	0.09222224
92	0x3e3a0a14	0.18167907
93	0x3e358b7c	0.1772899
94	0xb9fed000	-0.00048601627
95	0xbe29a1bc	-0.16565603
96	0x3e17fe2a	0.1484305
97	0x3e64fee4	0.22362858
98	0x3e3cb498	0.18428266
99	0xbe3e7ec6	-0.18603048
100	0x3c8359f0	0.016034096
101	0xbe0f2bca	-0.13981548
102	0xbd8e17bc	-0.06938121
103	0xbe4923a4	-0.19642502
104	0x3d2f8c10	0.042858183
105	0xbcb52740	-0.022113442
106	0x3ddca164	0.1077297
107	0x3dc29138	0.095003545
108	0x3db8a15c	0.09015152
109	0xbe4b2b5e	-0.19840762
110	0xbe04d276	-0.1297091
111	0xbd65e5f0	-0.05612749
112	0x3dca72a4	0.09885147
113	0x3e78f654	0.24312717
114	0xbd5d9be8	-0.054103762
115	0xbe561e62	-0.20910028
116	0x3d1d7708	0.038443595
117	0xbe31f8f2	-0.17380121
118	0xbe67d19e	-0.22638556
119	0x3e1cea0e	0.1532366
120	0xbd649368	-0.05580464
121	0x3e18b02a	0.14910951
122	0x3d0e55f0	0.034749925
123	0xbd9ffe30	-0.07812154
124	0x3d322e70	0.043501318
125	0x3da4047c	0.08008668
126	0x3e2f58e2	0.1712375
127	0x3dc51760	0.09623599
128	0x3e416760	0.1888709
129	0x3e0e3210	0.13886285
130	0xbd1ef7f8	-0.0388107
131	0xbe69e63c	-0.22841734
132	0x3e5a72b2	0.21332815
133	0x3e139c1e	0.14415023
134	0xbdcb2cd8	-0.09920663
135	0x3e69e4a2	0.22841123
136	0x3dd736b4	0.10508481
137	0x3d9612f8	0.07327837
138	0x3da64188	0.08117968
139	0x3e0bbe84	0.13646895
140	0xbe4b7162	-0.19867471
141	0xbe053faa	-0.13012567
142	0xbdd8f5bc	-0.10593745
143	0xbe5828f6	-0.21109375
144	0x3d9eaaa0	0.07747388
145	0xbe47a69c	-0.1949715
146	0x3e03c10a	0.12866607
147	0x3e65832a	0.22413316
148	0xbe631868	-0.22177279
149	0x3e0f2356	0.13978323
150	0xbdce0f58	-0.1006152
151	0xbdf11518	-0.117716014
152	0x3e731516	0.23738512
153	0xbdf14da4	-0.11782387
154	0xbd625f80	-0.055266857
155	0xbd0e0eb8	-0.034682006
156	0x3e45da64	0.1932159
157	0xbe521dda	-0.205192
158	0x3d4c7c80	0.04992342
159	0x3de8e124	0.11371067
160	0xbe3b039e	-0.18263099
161	0xbe04d29e	-0.12970969
162	0x3e23202e	0.15930244
163	0xbe701eb0	-0.23449206
164	0x3df785fc	0.12086102
165	0xbd8f1e58	-0.069882095
166	0xbe04b41e	-0.12959334
167	0xbe387fc2	-0.18017486
168	0xbd856c20	-0.06514764
169	0x3df39768	0.11894113
170	0x3e4ef378	0.20210063
171	0x3df1d5bc	0.11808345
172	0xbe6e47ce	-0.23269579
173	0x3ddd8f8c	0.10818395
174	0xbe6de1be	-0.23230645
175	0xbe705e9e	-0.23473594
176	0x3d1d93d0	0.038471043
177	0x3df2f964	0.11863974
178	0xbdc91f58	-0.098204315
179	0xbe238a44	-0.15970713
180	0xbe529a0c	-0.20566577
181	0xbc050ce0	-0.008120745
182	0x3ccdbd00	0.025114536
183	0xbe57247a	-0.21010008
184	0x3e3bb6f6	0.18331513
185	0x3d7953b8	0.060870856
186	0xbcb95770	-0.022624701
187	0xbd9b7144	-0.07589963
188	0x3e63d6ac	0.2224986
189	0xbe6a5f08	-0.22887814
190	0xbe45d404	-0.19319159
191	0xbd6c73b8	-0.057727545
192	0x3e0f3a34	0.13987046
193	0x3e1d8770	0.15383697
194	0xbe0b5706	-0.13607416
195	0x3de80fec	0.11331162
196	0x3d85a314	0.06525245
197	0x3e390550	0.18068433
198	0xbe596e8a	-0.21233574
199	0xbdfb7e70	-0.122799754
200	0x3dc4f23c	0.09616515
201	0xbe572940	-0.2101183
202	0x3e0c6308	0.13709652
203	0x3e7614b0	0.24031329
204	0xbdaaf77c	-0.08347985
205	0xbe613716	-0.2199367
206	0x3e459bb2	0.19297674
207	0x3cbf1a70	0.023328036
208	0xbd090de8	-0.033460528
209	0xbdcd43b0	-0.10022676
210	0x3e390fde	0.18072459
211	0x3dd5c5e8	0.10438138
212	0xbbaedcc0	-0.005336374
213	0xbe512728	-0.20425093
214	0x3d5cf2c0	0.053942442
215	0xbe7d98dc	-0.24765342
216	0xbd2c7098	-0.042099565
217	0x3e791a76	0.243265
218	0x3e09b738	0.13448799
219	0xbd534348	-0.051577836
220	0xbe2c2f9e	-0.1681504
221	0x3e5a9132	0.2134445
222	0x3cb068f0	0.021534413
223	0x3e0c24d6	0.13685927
224	0x3d436360	0.047702193
225	0x3d44c418	0.048038572
226	0x3e758f42	0.2398043
227	0x3cd904a0	0.026491463
228	0xbc5491a0	-0.012974173
229	0xbe47fbd6	-0.19529662
230	0x3d6a2090	0.05715996
231	0x3d9ca5e4	0.076488286
232	0xbe5f7b1e	-0.21824309
233	0x3e4e9f18	0.20177877
234	0xbe5d4118	-0.21606863
235	0xbe013e8c	-0.12621516
236	0x3dd990ec	0.10623345
237	0xbdc7f78c	-0.09764013
238	0xbdab5244	-0.083653
239	0xbd6bc788	-0.057563335
240	0x3e37eaf4	0.17960721
241	0x3e7edf4a	0.24889866
242	0x3da20324	0.07910755
243	0xbe33e2b0	-0.17566943
244	0xbe6a204a	-0.2286388
245	0x3e6d5770	0.23177886
246	0x3e035b8e	0.12827894
247	0x3e10ca00	0.14139557
248	0xbd978908	-0.073991835
249	0xbc05c180	-0.00816381
250	0xbe4ba2b6	-0.19886288
251	0x3d162400	0.036655426
252	0xbe63b0d6	-0.22235426
253	0x3de3e0a4	0.11126831
254	0x3dea3e94	0.11437717
255	0x3ce68e40	0.028144002

conv1.lin_node_upd.ap.1.0.bias f4 [31]
0	0xbd4a0f48	-0.04933098
1	0xbcdbdc10	-0.026838332
2	0x3d9e0a50	0.07716811
3	0xbe4251b4	-0.1897648
4	0xbe0bf026	-0.13665828
5	0x3da5f650	0.08103621
6	0xbe43749c	-0.19087452
7	0xbe4d2784	-0.20034605
8	0xbe637f6c	-0.22216576
9	0x3d72b198	0.059251398
10	0x3e62ab0c	0.22135562
11	0xbe618744	-0.22024256
12	0x3d4bf5c0	0.049794912
13	0x3e749788	0.2388593
14	0xbcb6c410	-0.022310287
15	0x3e466d84	0.19377714
16	0x3e76c644	0.2409907
17	0xbe41c9fc	-0.18924707
18	0x3d8573e4	0.06516245
19	0xbdcc41f0	-0.09973514
20	0xbe45843c	-0.19288725
21	0x3dbae674	0.09125987
22	0xbe79cf80	-0.24395561
23	0xbcd12e70	-0.025534838
24	0xbe1ef47c	-0.15522951
25	0x3c7d9f60	0.0154798925
26	0xbe141a26	-0.144631
27	0x3d2dc498	0.042423815
28	0xbdff5134	-0.1246666
29	0xbd8c067c	-0.06837174
30	0x3db16b5c	0.08663055

conv2.lin_node_msg.ue.0.0.weight f4 [16, 32]
0	0xbe23528d	-0.1594946
1	0xbe004a38	-0.12528312
2	0xbd9f73f8	-0.07785791
3	0xbe28ad4b	-0.16472356
4	0xbdaba587	-0.08381181
5	0xbdf89b06	-0.121389434
6	0xbde89239	-0.11356015
7	0x3e1099e0	0.14121199
8	0x3de7c091	0.11316026
9	0x3df90f88	0.121611655
10	0xbe07041d	-0.13185163
11	0x3e25823c	0.16162962
12	0x3d9371b6	0.07199423
13	0xbcc6e41b	-0.024278691
14	0x3d96d52e	0.073648795
15	0xbdf5d9ba	-0.12004419
16	0x3e30b7b2	0.17257574
17	0x3b17c9fe	0.0023161168
18	0xbdb42fbc	-0.08798167
19	0xbe05e83e	-0.13076875
20	0x3dfad17b	0.122469865
21	0xbdf52403	-0.11969759
22	0xbdb87280	-0.09006214
23	0x3d20684c	0.039161965
24	0x3e0b5afc	0.13608927
25	0x3e224c4d	0.15849419
26	0x3e3182a4	0.17334992
27	0xbdcb1267	-0.09915619
28	0x3dda7919	0.10667629
29	0x3c801e9e	0.0156396
30	0x3de66e26	0.11251478
31	0xbe2a59ed	-0.16635866
32	0xbe285282	-0.16437724
33	0xbe226637	-0.15859304
34	0x3ca83ce7	0.020536853
35	0x3dddaf02	0.10824396
36	0x3e115cf7	0.1419562
37	0xbca61682	-0.020274404
38	0xbda467b9	-0.08027596
39	0x3df299c6	0.11845736
40	0xbe273295	-0.1632789
41	0x3d8069fe	0.062702164
42	0xbca279a8	-0.0198334
43	0x3dafec21	0.0858996
44	0xbe2674f7	-0.16255556
45	0x3de7c41d	0.113167025
46	0xbdf9932f	-0.12186276
47	0xbe0049ef	-0.12528203
48	0x3d786058	0.060638756
49	0xbe29772c	-0.16549367
50	0xbe06b8d4	-0.13156444
51	0xbbee47ce	-0.0072717434
52	0x3d24e838	0.040260524
53	0x3de231d6	0.11044662
54	0x3e0414ec	0.12898606
55	0x3d25d70b	0.040488284
56	0x3e2f3113	0.17108564
57	0x3db65506	0.08902936
58	0x3cabad78	0.02095674
59	0x3d8d7950	0.06907904
60	0x3dcbc34d	0.0994936
61	0x3da5e5a6	0.081004426
62	0xbc0ccc81	-0.008593679
63	0x3dda8a09	0.10670859
64	0xbd2ffcf4	-0.042965844
65	0x3d3cc199	0.046083067
66	0x3e144251	0.14478423
67	0xbd76f6dc	-0.060294017
68	0xbd600388	-0.054690868
69	0xbd97605e	-0.073914275
70	0x3e0b79f1	0.13620736
71	0xbcc07db2	-0.023497436
72	0x3cddd529	0.027079182
73	0xbd885486	-0.066567466
74	0x3e1d122b	0.15338962
75	0x3e19e866	0.15030059
76	0xbc928792	-0.01788691
77	0x3df8b9fe	0.1214485
78	0x3db0290a	0.086015776
79	0x3deb6a64	0.11494902
80	0x3dcc44b0	0.099740386
81	0xbd9d87db	-0.07691928
82	0x3d557afa	0.052119233
83	0x3c4d7b9e	0.01254168
84	0x3deae1c6	0.11468844
85	0x3a525798	0.0008023917
86	0xbdbec4c3	-0.09314873
87	0x3c4e5a72	0.012594806
88	0xbc11ebec	-0.008906346
89	0x3dc97f10	0.098386884
90	0xbe110440	-0.14161777
91	0xbd972611	-0.073803075
92	0xbe13766a	-0.1440064
93	0x3bb6f3ed	0.0055832774
94	0xbde2524f	-0.11050855
95	0xbdefdf0d	-0.117124654
96	0x3c4c2084	0.012458924
97	0x3dac0b21	0.0840056
98	0xbd600475	-0.05469175
99	0x3d1c546e	0.038166456
100	0xbdc205e0	-0.09473777
101	0x3e0234cf	0.12715457
102	0x3e13b9de	0.14426371
103	0x3d8f230f	0.06989109
104	0xbdccce69	-0.10000307
105	0xbd1cd9e0	-0.03829372
106	0xbb8e27f5	-0.0043382593
107	0x3e1733f8	0.14765918
108	0xba524262	-0.0008020756
109	0xbddd89be	-0.10817288
110	0xbcba213b	-0.022720924
111	0xbdc78707	-0.09742551
112	0xbcbac83d	-0.02280056
113	0x3e09ae72	0.13445452
114	0xbdd5cda5	-0.10439614
115	0xbd8817d9	-0.066451736
116	0xbe2634f6	-0.1623114
117	0x3dcc1597	0.099650554
118	0x3d86616b	0.0656155
119	0x3db7133f	0.08939218
120	0x3b422d9b	0.0029629234
121	0xbe240352	-0.16016892
122	0x3ca82953	0.020527517
123	0xbdf4324e	-0.11923657
124	0xbdd70128	-0.104982674
125	0xbd7e53c3	-0.0620916
126	0xbdf6996c	-0.12040982
127	0x3d7e415b	0.062074047
128	0x3d6d2a71	0.057901803
129	0xbdeeb9ef	-0.11656558
130	0x3e157156	0.14594015
131	0xbd034d7e	-0.032056324
132	0x3e19bf0c	0.15014285
133	0xbd63fb39	-0.055659506
134	0xbe19e2d4	-0.15027934
135	0x3c556783	0.013025167
136	0xbdf1a76f	-0.117995135
137	0xbe17e907	-0.14834987
138	0x3e03e297	0.12879406
139	0xbe15ac51	-0.14616515
140	0x3e1eb454	0.15498477
141	0xbd2e5ac4	-0.04256703
142	0x3dc39da5	0.09551553
143	0x3d691129	0.05690113
144	0xbe1c2e2c	-0.15251988
145	0xbe33c445	-0.1755534
146	0xbe15bcb5	-0.14622767
147	0x3e1d0791	0.15334918
148	0x3dddea21	0.10835672
149	0x3e168cd2	0.14702156
150	0xbdf3eba6	-0.11910181
151	0x3daad09f	0.083405726
152	0xbdc116eb	-0.094281994
153	0xbcc0ddd2	-0.023543272
154	0x3e1eeeca	0.15520778
155	0xbdf58cf9	-0.11989779
156	0x3d9874a6	0.07444124
157	0x3e1e24b5	0.1544369
158	0xbce6d111	-0.028175863
159	0x3df35144	0.118807346
160	0xbd025738	-0.03182146
161	0x3d2913d7	0.041278686
162	0x3e2a6142	0.16638663
163	0x3dcc7f39	0.09985203
164	0x3d419002	0.047256477
165	0x3d9d33ae	0.07675873
166	0x3e2b89bf	0.16751765
167	0xbd7e8dbf	-0.0621469
168	0xbe339990	-0.17539048
169	0x3c241bf4	0.01001643
170	0xbe1c29c4	-0.15250307
171	0x3e32e910	0.17471719
172	0x3df97e8f	0.12182342
173	0x3dc367ba	0.09541269
174	0xbe2220ee	-0.15832874
175	0x3da7cda7	0.08193522
176	0xbd5f0e13	-0.05445678
177	0x3ddce365	0.107855596
178	0x3e26a27b	0.16272919
179	0x3d12cb7a	0.03583858
180	0xbe0931d9	-0.13397922
181	0xbd13bef7	-0.03607079
182	0x3db5a65b	0.088696204
183	0x3dea969c	0.11454508
184	0xbcd94417	-0.026521726
185	0xbe12eac4	-0.14347368
186	0x3ddca126	0.10772924
187	0x3e02c321	0.12769748
188	0xbe269005	-0.16265877
189	0xbe04be00	-0.12963104
190	0x3dbd0c66	0.092308804
191	0xbe0bb001	-0.13641359
192	0x3dff34d5	0.12461249
193	0x3e1fd07e	0.15606877
194	0x3dc85a28	0.09782821
195	0x3c77c04c	0.015121531
196	0x3cafca4f	0.021458773
197	0x3e1451db	0.1448435
198	0x3b84146e	0.0040307557
199	0x3d317aba	0.04332993
200	0xbe34ff6a	-0.17675558
201	0xbe245f5f	-0.16052006
202	0x3bcb2ef3	0.006200665
203	0x3e33b098	0.17547834
204	0xbd97abc1	-0.07405806
205	0x3dbcdd90	0.09221947
206	0xbe0a3ce6	-0.13499793
207	0x3dd819d6	0.10551803
208	0x3de0518e	0.10953055
209	0xbd95e25a	-0.07318564
210	0xbe047e6d	-0.12938853
211	0x3bab7711	0.0052326997
212	0x3e0b1717	0.13583027
213	0x3dd316d5	0.10307089
214	0x3e0870d8	0.13324296
215	0xbcea91ce	-0.028633978
216	0x3cbd4e5c	0.023108654
217	0xbdfb27a3	-0.122634195
218	0xbdde1653	-0.10844102
219	0xbc4acb29	-0.012377539
220	0x3ddcc103	0.107790016
221	0x3c24f903	0.010069135
222	0xbe327dd0	-0.17430806
223	0x3be18827	0.0068826857
224	0x3de2cbc9	0.11074025
225	0x3d043b58	0.032283157
226	0xbe220022	-0.15820363
227	0x3dc4778e	0.09593116
228	0x3e00fbfc	0.12596124
229	0xbdc3b4f5	-0.09555999
230	0xbe27dcc2	-0.16392806
231	0x3b16beb5	0.0023001854
232	0xbc1aa524	-0.009438787
233	0xbdace989	-0.08442981
234	0xbc977af9	-0.018491255
235	0xbc47d4ca	-0.012196729
236	0x3d939857	0.07206791
237	0x3e182323	0.14857154
238	0x3dad3050	0.084564805
239	0x3de84192	0.113406315
240	0xbe1e4fb4	-0.15460092
241	0x3d91576e	0.07096754
242	0xbc7297c6	-0.014806693
243	0xbded6cfd	-0.115930535
244	0x3dd56a3b	0.104206525
245	0x3e257aa7	0.1616007
246	0xbdf44535	-0.11927263
247	0xbdbd2f72	-0.09237565
248	0xbd02c845	-0.031929273
249	0x3e0e0c19	0.13871802
250	0x3df0d5db	0.1175954
251	0x3d73697a	0.059426762
252	0xbe16c5a8	-0.14723837
253	0x3e188670	0.14895034
254	0xbdf24db4	-0.11831227
255	0x3ddf11a2	0.10892035

conv2.lin_node_msg.ue.0.0.bias f4 [16]
0	0x3d648352	0.0557893
1	0xbdb3a637	-0.08771937
2	0xbcab6f28	-0.020927027
3	0x3df56bb8	0.11983436
4	0xbe0abcc9	-0.13548578
5	0x3df4f98b	0.11961659
6	0x3dd6c03d	0.10485885
7	0x3cd32c9c	0.025778107
8	0xbda46cda	-0.08028574
9	0xbd84fd01	-0.06493569
10	0xbc4e4bf3	-0.01259135
11	0x3deff2e5	0.1171625
12	0xbc9a53b1	-0.018838735
13	0x3dc6c978	0.09706396
14	0x3db4a838	0.08821148
15	0xbd90b2b5	-0.07065336
