Model/1000sam16batch_gpu_thebestsofar.pth (torch, 121186 bytes, 79 tensors)

conv1.lin_node_msg_compact.ue.0.0.weight f4 [16, 1]
0	0xbe4b5b18	-0.19858968
1	0xbe46fa48	-0.19431412
2	0xbe5ff120	-0.21869326
3	0xbd13b840	-0.036064386
4	0x3fcf6b1b	1.6204561
5	0x402abd3e	2.6678004
6	0xbe970234	-0.29493868
7	0xbee9b504	-0.45645916
8	0x3fdefeb9	1.7421485
9	0xbf5edb12	-0.87053025
10	0xbf0345e8	-0.51278543
11	0xbf4569ca	-0.77114546
12	0x3f6dd914	0.9290936
13	0x3feffed6	1.8749645
14	0x3f953ed6	1.1659801
15	0xbebc1b30	-0.36739492

conv1.lin_node_msg_compact.ue.0.0.bias f4 [16]
0	0x3d10b120	0.03532517
1	0x3f323a58	0.69620275
2	0xbf3d5398	-0.7395568
3	0xbf12ea7e	-0.57389057
4	0x3fd89d05	1.6922919
5	0x3fe127b4	1.7590241
6	0x3f18ccc0	0.59687424
7	0xbee7cdd0	-0.4527421
8	0x3f2f194d	0.6839798
9	0x3d8db5b0	0.0691942
10	0xbe6a01f0	-0.22852302
11	0x3d995730	0.07487333
12	0x3e028258	0.12745035
13	0x400058b9	2.0054152
14	0x3f1e516d	0.61842996
15	0x3f76353a	0.9617497

conv1.lin_node_msg_compact.ue.1.0.weight f4 [32, 16]
0	0x3ddc9bdc	0.10771915
1	0x3dbee5e0	0.09321189
2	0xbccddf90	-0.025131017
3	0x3e04fb8e	0.12986585
4	0x3ed814c3	0.4220334
5	0x3e91a576	0.2844655
6	0xbe2fb914	-0.17160445
7	0x3d82bf48	0.0638414
8	0x3eb873db	0.3602589
9	0x3d79fdc0	0.06103301
10	0xbe7c7d64	-0.24657208
11	0x3d82f85c	0.06395027
12	0x3ef98a15	0.4873816
13	0x3d9a3f5b	0.07531615
14	0x3efcff97	0.4941375
15	0x3e7f772e	0.24947807
16	0x3bb271c0	0.005445689
17	0xbddea4a4	-0.108712465
18	0xbdc6bc94	-0.09703937
19	0x3df7e19c	0.121035784
20	0xbda87c10	-0.08226788
21	0x3c3befa0	0.011470705
22	0xbe31f90c	-0.1738016
23	0x3d74fa00	0.05980873
24	0xbd236960	-0.039895415
25	0x3d0c0108	0.03418067
26	0xbdebba34	-0.11510125
27	0x3e161748	0.14657319
28	0x3ad19300	0.0015989244
29	0xbe10a450	-0.1412518
30	0xbe622e80	-0.22088051
31	0x3e462afa	0.19352332
32	0xbd9d55f0	-0.07682407
33	0xbd485b58	-0.048915237
34	0xbe168a36	-0.14701161
35	0x3e4782fc	0.1948356
36	0x3e7a3ab1	0.24436451
37	0x3e0d9e90	0.13830018
38	0x3e1a5faa	0.15075555
39	0x3e2cf086	0.16888627
40	0xbd8259de	-0.06364797
41	0x3e0bff0a	0.13671508
42	0x3d6d8e98	0.057997316
43	0xbc7694a0	-0.015050083
44	0x3e1f4cae	0.15556595
45	0x3e240e4e	0.16021082
46	0xbe0ec344	-0.13941675
47	0x3e32e1ea	0.17468992
48	0x3d856980	0.06514263
49	0x3df90b74	0.12160388
50	0x3cb00f80	0.021491766
51	0x3e436aa2	0.19083646
52	0xbe1ba708	-0.15200436
53	0x3e7306c0	0.23733044
54	0xbd537f88	-0.051635295
55	0xbe13c7fa	-0.14431754
56	0x3e4e3974	0.20139104
57	0x3da328b4	0.07966748
58	0xbe3234f0	-0.17403007
59	0xbe2deb30	-0.16984248
60	0x3e91f871	0.28509858
61	0x3c990d9e	0.018683251
62	0xbe18a7b2	-0.1490772
63	0x3cc80910	0.024418384
64	0xbd5c5ee0	-0.053801417
65	0x3e14728e	0.14496824
66	0x3dd10b54	0.10207239
67	0xbe0893e2	-0.13337663
68	0xbe1126c4	-0.14174944
69	0xbe361930	-0.17783046
70	0x3e75d868	0.24008334
71	0xbe160b86	-0.14652833
72	0x3cc298a0	0.023754418
73	0xbe602f7e	-0.21893117
74	0x3e5237b2	0.20529059
75	0x3e5e7ca4	0.21727234
76	0x3e48d436	0.19612202
77	0x3bdf7440	0.006819278
78	0x3dafc108	0.0858174
79	0x3e42e3ba	0.19032183
80	0x3d9cc130	0.07654035
81	0xbe1745ac	-0.14772671
82	0x3de9b704	0.114118606
83	0xbd741290	-0.059588015
84	0x3eace053	0.33764896
85	0x3ee4660b	0.44609103
86	0xbe465d56	-0.19371542
87	0x3e67c170	0.22632384
88	0x3df7033c	0.12061164
89	0xbd72fc30	-0.059322536
90	0x3dc0c350	0.09412253
91	0xbe65eac2	-0.22452834
92	0x3ed4de05	0.41575637
93	0x3e9b5436	0.30337685
94	0x3ef0432f	0.46926257
95	0xbe328466	-0.17433318
96	0x3e1bcbee	0.15214512
97	0xbdecef30	-0.11569059
98	0xbe1b1bd8	-0.1514734
99	0xbe5f0c3c	-0.21782011
100	0x3daf0b38	0.08547062
101	0x3e236ea0	0.15960169
102	0xbc7e7bc0	-0.015532434
103	0xbe02e7fa	-0.12783805
104	0xbdd95a65	-0.106129445
105	0x3e4a6452	0.19764832
106	0x3e037b44	0.12839991
107	0xbb92dac0	-0.0044816434
108	0x3e3df051	0.18548705
109	0xbe52cfc5	-0.2058707
110	0xbe23ac76	-0.15983757
111	0x3d6a1d70	0.05715698
112	0xbe046c80	-0.12932014
113	0xbe09c6a6	-0.13454685
114	0xbd952288	-0.07281977
115	0xbb91d780	-0.0044507384
116	0xba9df500	-0.0012051165
117	0x3e20c6b4	0.15700799
118	0x3dba0280	0.09082508
119	0x3e3260fa	0.17419806
120	0xbe68555a	-0.22688809
121	0x3ce3c1d0	0.027802378
122	0x3d00a858	0.031410545
123	0x3d48b028	0.04899612
124	0x3d87f958	0.066393554
125	0xbe1e0908	-0.15433133
126	0x3dba066c	0.09083256
127	0x3dcac2f8	0.099004686
128	0x3e0c6f24	0.13714272
129	0xbe2ec642	-0.17067817
130	0x3e2528c4	0.16128832
131	0x3dadb7bc	0.0848231
132	0x3e8e26c4	0.2776395
133	0x3ed221f9	0.41041544
134	0x3e4d36d6	0.2004045
135	0x3deb81f4	0.11499396
136	0x3e234632	0.15944746
137	0xbd7973d0	-0.060901463
138	0x3e6588de	0.22415492
139	0x3dca38ac	0.098740906
140	0x3e6aeda5	0.22942217
141	0x3e6b5d69	0.22984852
142	0x3e3fbcf0	0.18724418
143	0x3e33cf40	0.17559528
144	0xbe6b9df0	-0.23009467
145	0xbe73d738	-0.23812568
146	0x3e3f4cea	0.18681684
147	0xbb693000	-0.0035581589
148	0xbe30b122	-0.17255071
149	0x3d9a2df0	0.07528293
150	0x3d35b3b0	0.044360816
151	0x3e4d1ba4	0.20030075
152	0xbd274a28	-0.040842205
153	0x3e07d9c4	0.13266665
154	0x3d78b348	0.06071785
155	0x3e7e6eb4	0.24846917
156	0xbe6746d2	-0.2258561
157	0xbe6d82f6	-0.23194489
158	0x3bb07e00	0.005386114
159	0xbe632052	-0.22180298
160	0xbe41c502	-0.18922809
161	0xbddb7db8	-0.10717338
162	0xbe69fc8c	-0.22850245
163	0x3d243160	0.04008615
164	0x3e41002d	0.18847723
165	0xbb894366	-0.0041889427
166	0xbdcc3d90	-0.099726796
167	0xbd6a0980	-0.057137966
168	0x3d969e52	0.07354416
169	0x3e45d284	0.19318587
170	0x3dadad24	0.084802896
171	0x3dfc4fc8	0.123199046
172	0x3ead6c38	0.33871627
173	0x3e9d9a65	0.30781856
174	0x3bac9d39	0.005267766
175	0x3e4e3c52	0.20140198
176	0xbe4cfde2	-0.20018724
177	0xbe0a67dc	-0.13516182
178	0xbe5b103e	-0.21392915
179	0x3d5d1ee8	0.053984553
180	0xbbc9f3c0	-0.0061630905
181	0xbe0979f8	-0.13425434
182	0xbe5ed13e	-0.21759507
183	0x3ddd8658	0.1081664
184	0xbe7f9d0e	-0.24962255
185	0xbd215148	-0.039384156
186	0x3e6406fc	0.2226829
187	0xbe212832	-0.1573799
188	0xbe429850	-0.19003415
189	0xbe1a826e	-0.15088817
190	0x3e377bf4	0.17918378
191	0x3dea625c	0.11444542
192	0x3b23cb00	0.0024992824
193	0x3e29a45e	0.16566607
194	0x3d939300	0.072057724
195	0xbe14101a	-0.14459267
196	0x3e908294	0.28224623
197	0x3eaa65d0	0.33280802
198	0x3e54dbda	0.20786992
199	0xbe6a32de	-0.22870967
200	0x3eab399d	0.33442393
201	0xbdfdf2f0	-0.12399852
202	0xbd876e60	-0.06612849
203	0x3e0ea4a4	0.13929993
204	0x3c420a83	0.0118433265
205	0x3c63db51	0.01390727
206	0x3de32827	0.11091643
207	0xbd2a5e50	-0.04159385
208	0xbe2e12c6	-0.16999349
209	0xbe3730aa	-0.17889658
210	0x3caab220	0.02083689
211	0x3d448c28	0.047985226
212	0x3e98a885	0.2981607
213	0x3e4dd519	0.20100822
214	0x3da23ae0	0.07921386
215	0xbcee3660	-0.029078662
216	0x3e2634cf	0.16231082
217	0xbe795484	-0.24348646
218	0xbda4d884	-0.080491096
219	0xba81ff00	-0.0009917915
220	0x3e8bb6db	0.27287945
221	0x3e8138aa	0.25238544
222	0xbc7136e0	-0.014722556
223	0x3d847ba0	0.06468892
224	0xbbd8f900	-0.00662148
225	0x3e452df0	0.19255805
226	0x3d086370	0.033297956
227	0xbe57f554	-0.21089679
228	0x3ebd8b65	0.37020412
229	0x3f2f1b20	0.68400764
230	0x3e6a7b0c	0.22898501
231	0x3e28f9d8	0.16501558
232	0x3f0a5ba9	0.5404611
233	0x3cc045c0	0.02347076
234	0xbe159cf4	-0.14610654
235	0xbe2f2612	-0.17104366
236	0x3f04424f	0.5166368
237	0x3f3ac1d1	0.7295199
238	0x3eec9e1d	0.4621438
239	0x3ce061e0	0.02739042
240	0x3d72edc0	0.059308767
241	0x3cc9be20	0.024626791
242	0xbe414e52	-0.18877533
243	0x3b1ade80	0.0023631155
244	0xbe2f181a	-0.17099038
245	0x3b83c5c0	0.0040213764
246	0xbb70b880	-0.0036731064
247	0x3db454a4	0.088052064
248	0x3e31ec48	0.1737529
249	0xbe48a45c	-0.19593948
250	0x3d1ec8b0	0.03876561
251	0x3d81d184	0.0633879
252	0x3d715c70	0.058926046
253	0xbd652f90	-0.055953562
254	0xbe32b004	-0.17449957
255	0x3d785ad8	0.06063351

conv1.lin_node_msg_compact.ue.1.0.bias f4 [32]
0	0x3e485a06	0.19565591
1	0x3b8329c0	0.0040027797
2	0x3d11678f	0.03549915
3	0x3dee22a1	0.11627699
4	0xbc5923c0	-0.013253152
5	0x3eb55042	0.35412794
6	0xbd7bec6b	-0.061504763
7	0xbcd5e570	-0.02611038
8	0x3eade99c	0.33967292
9	0x3e1be470	0.1522386
10	0x3e605ac6	0.21909627
11	0xbe52c312	-0.20582226
12	0xb9336285	-0.00017107472
13	0x3d1590a8	0.036514908
14	0x3f1b55da	0.60677874
15	0x3dac1918	0.08403224
16	0x3eea7a1b	0.45796284
17	0x3f73d9ab	0.9525401
18	0x3ea5a15b	0.32349667
19	0x3eb58700	0.3545456
20	0x3d94ee8f	0.07272064
21	0x3e1e2b16	0.15446123
22	0x3ed2287e	0.41046518
23	0x3e3a1487	0.18171893
24	0x3d32aa38	0.043619365
25	0x3e496bfa	0.19670096
26	0x3ed47b1f	0.41500184
27	0xbe42e53e	-0.19032761
28	0x3dc873ac	0.09787688
29	0x3ea322b8	0.31862426
30	0x3e2b66a2	0.1673837
31	0x3e96a975	0.2942616

conv1.lin_edge_compact.ue__uplink__ap.0.0.weight f4 [16, 1]
0	0x3e180281	0.14844705
1	0xbef6ef7d	-0.4822959
2	0x3e6cd69c	0.23128742
3	0xbcbbe248	-0.022935048
4	0x3e60dc42	0.21959022
5	0xbc64084f	-0.013917997
6	0x3e663bae	0.22483703
7	0xbf1e988e	-0.6195153
8	0x3f0bce63	0.54611796
9	0xbc61f13d	-0.013790426
10	0x3ec83e63	0.39110097
11	0x3f8b4376	1.0879962
12	0xbe38db58	-0.18052423
13	0x3ee7cd2f	0.4527373
14	0x3f296973	0.6617653
15	0xbe4300d8	-0.1904329

conv1.lin_edge_compact.ue__uplink__ap.0.0.bias f4 [16]
0	0xbf923993	-1.142382
1	0x3f44fa23	0.7694418
2	0xbf7dbdc7	-0.991177
3	0x3fa67e37	1.3007268
4	0xbe5e485f	-0.21707295
5	0x3f46eef6	0.77708375
6	0x3d249106	0.040177368
7	0xbeec9cac	-0.4621328
8	0x3f283f4a	0.6572157
9	0x3f464d31	0.77461535
10	0xbec81cae	-0.3908438
11	0xbd3e9756	-0.046531044
12	0xbf5b1c6a	-0.8559023
13	0x3f1545df	0.5830974
14	0x3f5c457b	0.8604352
15	0xbf397eb4	-0.7245896

conv1.lin_edge_compact.ue__uplink__ap.1.0.weight f4 [32, 16]
0	0x3c64f83c	0.013975199
1	0x3ec5287e	0.38507456
2	0x3e46b872	0.19406298
3	0x3ed5e898	0.41779017
4	0xbd92b4c7	-0.07163387
5	0xbd538c26	-0.051647328
6	0xbe1bf55f	-0.1523032
7	0xbe0c2508	-0.13686001
8	0x3e1f1c9f	0.15538262
9	0x3e912035	0.28344885
10	0xbde5f2ca	-0.11227949
11	0x3dec532f	0.115393035
12	0xbe2eb62c	-0.1706168
13	0x3e88e9e1	0.26740935
14	0x3c8154ec	0.015787564
15	0xbe660f06	-0.22466668
16	0xbe499d08	-0.19688809
17	0xbddff3e0	-0.10935187
18	0x3e50d776	0.20394692
19	0xbe331e32	-0.17491987
20	0x3d749db0	0.059720695
21	0x3e2eb16e	0.17059872
22	0xbe4f8958	-0.20267236
23	0xbc94a990	-0.01814726
24	0xbdf46ad0	-0.11934435
25	0xbd2d5630	-0.042318523
26	0x3d9ab234	0.07553521
27	0x3d0398f0	0.032128274
28	0xbd636d20	-0.05552399
29	0xbe55d55c	-0.20882171
30	0xbd814458	-0.06311864
31	0x3e1b2cf2	0.15153864
32	0xbdc4d2cb	-0.09610518
33	0x3ea56393	0.32302532
34	0x3e764de0	0.24053144
35	0x3e89415f	0.26807687
36	0x3d555190	0.052079737
37	0x3e9716aa	0.2950948
38	0xbdb059b6	-0.08610861
39	0x3c33f9c0	0.010984838
40	0xbd586ab6	-0.052836142
41	0xbd9f21cc	-0.07770118
42	0x3e859679	0.26091364
43	0x3e811806	0.2521364
44	0x3d8b9c9c	0.0681698
45	0x3ea422e1	0.3205786
46	0x3e15d35e	0.14631411
47	0x3e150000	0.14550781
48	0x3e5fa922	0.21841863
49	0x3e18b28e	0.14911863
50	0x3e14716c	0.14496392
51	0x3e71e538	0.23622596
52	0x3e1b5542	0.15169242
53	0x3e7b775b	0.24557249
54	0x3eb7b031	0.3587661
55	0xbe751a70	-0.23935866
56	0x3e163e2e	0.14672157
57	0xbd037e52	-0.03210289
58	0x3e90d72e	0.2828917
59	0x3ebe05f6	0.37113923
60	0x3dc9c5d0	0.09852183
61	0x3e3430c3	0.17596726
62	0xbd63a918	-0.055581182
63	0x3d75c9a8	0.060006768
64	0x3ea1f9fe	0.3163604
65	0xbbc8ff6c	-0.0061339643
66	0x3e543d12	0.20726421
67	0x3d869efb	0.06573292
68	0x3d8bc1b6	0.06824057
69	0xbc88ed90	-0.016714841
70	0xbdf9ead0	-0.1220299
71	0xbe786288	-0.24256337
72	0x3e89cf82	0.26916128
73	0x3dc8e425	0.0980914
74	0xbe0e7013	-0.1390994
75	0x3e7a1375	0.24421485
76	0x3da07664	0.07835081
77	0x3d7b7fe6	0.06140127
78	0x3db8d599	0.090251155
79	0x3df291ec	0.11844239
80	0xbc8da7b0	-0.017291874
81	0x3d8d94cc	0.069131464
82	0x3e0e5fdc	0.13903755
83	0x3d3847a8	0.04499021
84	0x3db76e10	0.0895654
85	0xbd9aad74	-0.07552615
86	0x3e46f714	0.1943019
87	0x3d86dca8	0.065850556
88	0xbe71555a	-0.23567715
89	0xbe2273aa	-0.15864435
90	0x3d9d6af8	0.07686418
91	0xbe018982	-0.12650111
92	0xbe2cc1d8	-0.1687082
93	0xbddc003c	-0.10742232
94	0xbded6174	-0.11590853
95	0x3e418750	0.18899274
96	0x3e1112a8	0.14167273
97	0x3e234cb0	0.15947223
98	0x3e9ee755	0.31035867
99	0x3e7021d5	0.23450406
100	0x3dbffba4	0.093741685
101	0x3e697db1	0.22801854
102	0xbcb7ef15	-0.02245287
103	0x3d894c44	0.06704
104	0xbd1e69ad	-0.038675
105	0x3e837671	0.256763
106	0x3e2ab89d	0.16671987
107	0x3e9ef870	0.31048918
108	0xbe4b4fbe	-0.19854638
109	0x3e5dd9b3	0.21665077
110	0x3e2028cd	0.15640564
111	0x3e08bcdc	0.13353294
112	0x3e7d9c0c	0.24766558
113	0xbe53ef3a	-0.20696726
114	0x3c684aa0	0.014177948
115	0x3c3a2ae0	0.011362761
116	0xbc7a6060	-0.015281767
117	0x3e5e36e4	0.21700627
118	0xbe5b89da	-0.21439305
119	0xbcb8f5f0	-0.02257821
120	0xbe234f82	-0.15948299
121	0xbccd1b80	-0.025037527
122	0xbdf8471c	-0.12122938
123	0xbd4f9dc0	-0.05068755
124	0x3d8e9c68	0.06963426
125	0x3cda1b50	0.026624352
126	0xbe52af74	-0.20574743
127	0xbdd46a00	-0.103717804
128	0x3e6bc2bc	0.23023504
129	0xbd95d39c	-0.07315752
130	0x3c76e5a0	0.015069395
131	0xbe6127ce	-0.2198784
132	0xbe03d22e	-0.12873146
133	0x3e7c5a34	0.24643785
134	0x3c9c4c00	0.019079208
135	0xbe6095dc	-0.21932167
136	0xbe271dfa	-0.16320029
137	0x3ab7bd00	0.0014018118
138	0xbc343e40	-0.01100117
139	0xbc7b7ea0	-0.015350014
140	0xbe779662	-0.2417846
141	0xbe58906a	-0.2114884
142	0xbe591062	-0.21197656
143	0x3e32d002	0.17462161
144	0x3e2e49d6	0.17020354
145	0x3e894010	0.26806688
146	0xbb26fe38	-0.0025481116
147	0x3d22b23c	0.03972076
148	0x3e822f0e	0.25426525
149	0x3ec24fd9	0.37951544
150	0x3eacebfa	0.33773786
151	0xbe226dea	-0.15862241
152	0x3e247297	0.16059338
153	0x3cb68800	0.022281647
154	0x3e8a6dba	0.2703684
155	0x3dca0319	0.09863872
156	0xbc1d4e20	-0.009601146
157	0x3e7f77a7	0.24947987
158	0xbda98ee0	-0.08279204
159	0x3d830bb0	0.063987136
160	0xbe064f16	-0.13116106
161	0xbd8c5d6d	-0.06853757
162	0xbe3a2485	-0.18177994
163	0x3e9ba64c	0.30400312
164	0x3e285dc7	0.16442023
165	0x3db9aebf	0.09066533
166	0x3e08cc63	0.13359217
167	0x3dc1c960	0.09462237
168	0x3e8eab43	0.27865037
169	0x3e7872de	0.24262568
170	0xbe276f60	-0.1635108
171	0xbe3a07ef	-0.18167089
172	0xbe2d9c3a	-0.16954127
173	0x3e98240a	0.29714996
174	0xbe074d15	-0.13212998
175	0xbdf6bdfc	-0.120479554
176	0x3eb1aec3	0.34703645
177	0x3cc5d9ab	0.024151644
178	0x3dcd76e9	0.10032446
179	0x3e0a7cff	0.13524245
180	0x3bbbd065	0.0057316297
181	0x3e6a2455	0.22865422
182	0xbdc9bdf4	-0.09850684
183	0x3e2d0b1a	0.16898766
184	0x3dbe49b2	0.092914
185	0x3e9d1481	0.30679706
186	0xbc34baf7	-0.011030904
187	0x3eb7221e	0.35768217
188	0xbdcb7e14	-0.09936157
189	0xbd647ae2	-0.055781253
190	0xbdd792f1	-0.10526074
191	0xbd1d4318	-0.038394064
192	0xbe6bd57e	-0.2303066
193	0xbe42308e	-0.18963835
194	0x3d972ab8	0.07381195
195	0x3e39dcdc	0.18150657
196	0xbd3b5ff0	-0.04574579
197	0xbe6534b2	-0.22383383
198	0x3e51a666	0.20473632
199	0xbcc72350	-0.02430883
200	0x3d65d798	0.05611381
201	0xbe1f9a6e	-0.15586254
202	0xbe6954b8	-0.22786224
203	0xbe730d10	-0.23735452
204	0xbe3de6d8	-0.18545091
205	0xbe5a49b4	-0.21317178
206	0xbd954f08	-0.07290465
207	0xbe6f7104	-0.23382956
208	0x3e2d06a7	0.16897069
209	0xbd8b9812	-0.068161145
210	0x3e81f220	0.2538004
211	0x3ccf058d	0.025271202
212	0x3ea3ea3d	0.32014647
213	0x3ea987c1	0.33111385
214	0x3e66fa16	0.22556338
215	0xbe1b9b3c	-0.15195936
216	0x3e6a98b8	0.2290982
217	0x3e5a5064	0.21319729
218	0x3d989293	0.07449832
219	0x3e771d74	0.24132329
220	0x3e1258a8	0.14291632
221	0x3caf779c	0.021419339
222	0xbd60490c	-0.054757163
223	0xbe06cf8a	-0.13165107
224	0x3f17c08f	0.59278196
225	0x3eb2746a	0.34854442
226	0x3f1dc802	0.6163331
227	0x3f5b4a42	0.85660183
228	0x3ed60e51	0.41807798
229	0x3f0d8549	0.552815
230	0x3f3c8dc9	0.73653847
231	0x3e114672	0.14187029
232	0x3efffff6	0.4999997
233	0x3f5c500a	0.8605963
234	0x3f20ea88	0.62857866
235	0x3f04d9cc	0.5189483
236	0xbe40b99e	-0.18820807
237	0x3f26a8ff	0.6510162
238	0x3ee41b14	0.4455191
239	0xbcf4dfa0	-0.029891789
240	0xbdb802f0	-0.08984935
241	0xbe5a3a44	-0.21311289
242	0xbdec7918	-0.11546534
243	0x3e4c772e	0.19967338
244	0x3e3abc58	0.1823591
245	0xbe204640	-0.15651798
246	0x3dc513a8	0.0962289
247	0x3bf9f580	0.007628143
248	0xbddd0d90	-0.107936025
249	0xbd568fb0	-0.052383125
250	0xbe09bcbc	-0.13450903
251	0x3e0c050e	0.13673803
252	0x3dcfd594	0.10148159
253	0xbe677ad8	-0.22605455
254	0xbe330b72	-0.17484835
255	0xbe5e549c	-0.21711963

conv1.lin_edge_compact.ue__uplink__ap.1.0.bias f4 [32]
0	0xbcd2e331	-0.025743099
1	0xbe22fc54	-0.15916568
2	0x3d922fa0	0.0713799
3	0x3e391e7c	0.18078035
4	0xbe5ae3f0	-0.21376014
5	0xbd765370	-0.060138166
6	0x3e50accb	0.20378415
7	0xbe1ebdfc	-0.15502161
8	0x3dbea778	0.09309286
9	0x3ea96e77	0.3309209
10	0xbe048910	-0.1294291
11	0x3e16ff99	0.1474594
12	0xbdcda3d4	-0.10041013
13	0x3d8943df	0.067023985
14	0x3f272662	0.6529294
15	0x3cb64f60	0.022254646
16	0xbd17548f	-0.036945876
17	0x3f9b9a5a	1.2156479
18	0xbe4c76ea	-0.19967237
19	0x3eac5703	0.33660135
20	0x3e573a73	0.2101839
21	0xbe706107	-0.23474513
22	0xbd3d3600	-0.046194077
23	0x3ec43634	0.38322604
24	0xbe7a60b7	-0.24450956
25	0x3e974616	0.2954566
26	0x3f0b32cc	0.54374385
27	0x3e8f3145	0.27967277
28	0xbdceaf2a	-0.10092004
29	0xbe4a7174	-0.19769841
30	0x3e2c4005	0.16821297
31	0x3e0455fe	0.12923428

conv1.lin_edge_compact.ap__downlink__ue.0.0.weight f4 [16, 1]
0	0x3d95991c	0.07304594
1	0x3f0f8454	0.5606129
2	0x3f7d88de	0.9903697
3	0xbf656f3e	-0.8962287
4	0x3eacc300	0.33742523
5	0xbea15488	-0.31509805
6	0xbf3ac654	-0.72958875
7	0x3eb6ba58	0.35689044
8	0x3df1e4d0	0.11811221
9	0x3f0f6e69	0.5602785
10	0x3f1b5747	0.6068005
11	0xbd91a536	-0.071115896
12	0xbeacb078	-0.33728385
13	0xbdeba820	-0.11506677
14	0x3f7870dc	0.9704721
15	0xbf772768	-0.96544504

conv1.lin_edge_compact.ap__downlink__ue.0.0.bias f4 [16]
0	0xbf3239a9	-0.6961923
1	0x3f5ea6a3	0.8697302
2	0x3f50f57d	0.81624585
3	0xbef67d5c	-0.48142517
4	0xbf88b318	-1.0679655
5	0xbebc6d2c	-0.36802042
6	0xbf0fc6de	-0.5616282
7	0xbf62c60a	-0.88583434
8	0xbec9eca4	-0.39438355
9	0xbf930298	-1.1485167
10	0xbf9c5cd1	-1.2215825
11	0x3f54bcb4	0.8310044
12	0xba742800	-0.0009313822
13	0xbf007cac	-0.50190234
14	0xbf89a070	-1.0752087
15	0xbe8ecfa4	-0.27892792

conv1.lin_edge_compact.ap__downlink__ue.1.0.weight f4 [31, 16]
0	0x3e1f4574	0.15553838
1	0xbd605038	-0.054764003
2	0xbdefe9b8	-0.117145
3	0x3db4c3cc	0.08826408
4	0xbde62660	-0.11237788
5	0xbc612240	-0.013741076
6	0x3e646e8e	0.22307798
7	0xbe6c2f3e	-0.23064896
8	0xbe281f8c	-0.16418284
9	0xbbe70580	-0.007050216
10	0x3e2d6440	0.16932774
11	0xbe5f49f4	-0.21805555
12	0x3da20f60	0.07913089
13	0x3e32cd82	0.17461208
14	0xbd40c660	-0.047064185
15	0x3db71880	0.0894022
16	0x3e85cd35	0.26133123
17	0xbde937a1	-0.113875635
18	0x3b5483a7	0.0032427104
19	0x3e69e906	0.22842798
20	0x3da27338	0.079321325
21	0x3d00f670	0.03148502
22	0x3e4d7308	0.20063412
23	0x3d25a850	0.04044372
24	0xbdb66b2d	-0.08907161
25	0x3e4a57ec	0.19760102
26	0x3e2fc6fe	0.17165753
27	0xbc9edb7c	-0.019391768
28	0xbe52129e	-0.20514914
29	0x3afe1600	0.0019385219
30	0x3d7eb654	0.0621856
31	0x3e53e8b0	0.20694232
32	0xbe608aea	-0.21927992
33	0xbca8371e	-0.020534094
34	0xbcd1b785	-0.025600204
35	0x3e55f7d4	0.2089532
36	0x3cadf2de	0.021233972
37	0xbe0207f2	-0.12698343
38	0x3d5082c0	0.050905943
39	0x3d04d33a	0.032428004
40	0x3c4b5fd5	0.012412985
41	0xbe6f0d8d	-0.23345013
42	0xbdda6b18	-0.10664958
43	0xbe1c078c	-0.15237254
44	0x3e5a5818	0.21322668
45	0xbdcd8290	-0.100346684
46	0x3e62d21c	0.22150463
47	0x3e31e8de	0.17373988
48	0xbe765cce	-0.2405884
49	0xbdab852c	-0.0837501
50	0x3db869a8	0.09004527
51	0xbddeb974	-0.10875216
52	0xbe23d4dc	-0.15999168
53	0x3dfd89a0	0.123797655
54	0xbd6497e8	-0.05580893
55	0xbe7da53a	-0.2477006
56	0x3e72959a	0.23689881
57	0xbe227f24	-0.15868813
58	0x3dd2a528	0.10285407
59	0xbb3bb080	-0.0028639138
60	0xbcf60620	-0.030032218
61	0xbd487b58	-0.048945755
62	0xbd802c74	-0.06258479
63	0x3de67a94	0.11253849
64	0x3e562784	0.20913512
65	0xbe4afb1a	-0.1982235
66	0xbe4ba0fa	-0.19885626
67	0x3e122e66	0.14275512
68	0xbe1d2c9c	-0.15349048
69	0xbe7aaa6c	-0.24479073
70	0x3e4ab174	0.19794255
71	0x3e4f6aca	0.2025558
72	0xbe1047b0	-0.14089847
73	0xbe553908	-0.20822537
74	0xbe711f76	-0.23547158
75	0x3e4706aa	0.19436136
76	0x3e37f03e	0.17962739
77	0xbd7c72a0	-0.061632752
78	0x3dab0514	0.08350578
79	0x3e5f0194	0.21777946
80	0xbe01b7e5	-0.12667806
81	0xbe67250b	-0.22572725
82	0xbe06d153	-0.13165788
83	0xbe24fa8c	-0.16111201
84	0x3e6a7d92	0.22899464
85	0x3e3cbcd0	0.18431401
86	0x3e638192	0.22217396
87	0xbcacebc3	-0.021108514
88	0xbde1a589	-0.110179015
89	0x3e17c678	0.14821804
90	0xbe193b07	-0.14963923
91	0x3d1ae9e0	0.037820697
92	0x3d8fa128	0.0701316
93	0x3d7bde48	0.06149128
94	0x3e2f80d6	0.17138991
95	0xbe63910e	-0.22223303
96	0x3d9abf0c	0.075559705
97	0x3d99f4b4	0.075173765
98	0xbe0c58bc	-0.13705724
99	0xbd5b40c8	-0.053528577
100	0x3d02ad68	0.031903654
101	0xbd052808	-0.03250888
102	0x3e17284e	0.14761469
103	0xbe26d1de	-0.16290995
104	0x3de46f5c	0.111540526
105	0xbd926ca4	-0.07149628
106	0xbe24b05c	-0.16082901
107	0x3d7a4d48	0.061108857
108	0xba596e00	-0.00082942843
109	0x3d688c38	0.056774348
110	0xbdb40930	-0.08790815
111	0xbe7b3604	-0.24532324
112	0xbe612473	-0.2198656
113	0x3d2712dd	0.040789474
114	0x3e711b90	0.2354567
115	0x3dc4e5a0	0.0961411
116	0xbe033731	-0.12814023
117	0xbe5541ac	-0.20825833
118	0xbd98ff6c	-0.07470593
119	0x3e25f8ba	0.16208163
120	0xbd457d24	-0.048215047
121	0x3e850210	0.25978136
122	0xbe376662	-0.1791015
123	0xbe6bf00b	-0.23040788
124	0x3d9703c8	0.07373768
125	0xbe2a6ee0	-0.16643858
126	0xbe60f658	-0.21968973
127	0xbdc742d4	-0.09729543
128	0x3dafd557	0.08585613
129	0xbd882b29	-0.06648857
130	0x3e16b6e4	0.14718205
131	0x3e346fee	0.17620823
132	0x3e19d2a4	0.1502176
133	0xbe03d3f6	-0.12873825
134	0xbe3eadb8	-0.18620956
135	0x3c174c47	0.0092344945
136	0x3dc07487	0.09397226
137	0xbd5aa5f5	-0.053380925
138	0x3db9d271	0.09073342
139	0x3c049e14	0.008094329
140	0x3e580c3a	0.21098414
141	0xbd4d46c8	-0.05011633
142	0x3e776273	0.24158649
143	0x3e4b2f2c	0.19842213
144	0xbe9e3453	-0.30899295
145	0x3e4198a0	0.18905878
146	0x3bdf278c	0.0068101343
147	0x3e4f9e6a	0.20275274
148	0xbe327fd8	-0.17431581
149	0x3cd17400	0.025568008
150	0xbe420aba	-0.18949404
151	0xbe0a9a3f	-0.13535403
152	0xbe6aa654	-0.22915012
153	0xbea8c7cb	-0.3296493
154	0xbd4f56a9	-0.050619755
155	0x3f111ea1	0.5668736
156	0x3dde9634	0.10868493
157	0xbd892fd0	-0.06698573
158	0x3d651a2e	0.05593317
159	0x3dad32f0	0.08456981
160	0xbd280bca	-0.041026868
161	0xbe4d7fe8	-0.20068324
162	0x3df62f5f	0.12020754
163	0x3e3ceac0	0.18448925
164	0xbe10b7d0	-0.14132619
165	0xbd55c4b0	-0.05218953
166	0x3e6d6aae	0.23185226
167	0xbe538627	-0.20656644
168	0xbdb16c26	-0.08663206
169	0x3e0998fb	0.13437264
170	0xbcfc6fa0	-0.030814946
171	0x3ebf1b5b	0.37325558
172	0xbd3a7128	-0.04551807
173	0xbd92cda8	-0.07168132
174	0x3dfd9329	0.12381584
175	0x3e3c097c	0.18362993
176	0xbb27a113	-0.0025578185
177	0x3e7bdf08	0.24596798
178	0x3e29bcea	0.16575971
179	0x3d620f38	0.055190295
180	0x3e0f8482	0.14015391
181	0x3db5cfdc	0.08877537
182	0x3e309844	0.17245585
183	0x3e706030	0.23474193
184	0xbd2b16e5	-0.04176988
185	0x3e5299fd	0.20566554
186	0xbd13239a	-0.035922624
187	0x3f29138b	0.66045445
188	0xbe164482	-0.14674571
189	0x3dbbad4c	0.09163913
190	0x3e0b3e1b	0.1359791
191	0x3e368222	0.17823079
192	0x3d07853a	0.03308604
193	0x3cc623c3	0.024186974
194	0x3e6276c8	0.22115624
195	0xbd9902d0	-0.074712396
196	0x3eb917c8	0.36150956
197	0x3e67544c	0.2259075
198	0xbe648330	-0.22315669
199	0xbd85db75	-0.06535999
200	0x3e9ab8df	0.3021917
201	0x3dd19b38	0.10234684
202	0x3e4fe07c	0.20300478
203	0x3f1906c0	0.59775925
204	0x3e5b7b1a	0.21433678
205	0x3dfb9f70	0.1228627
206	0x3df12628	0.11774856
207	0x3e1a7a5c	0.15085739
208	0xbdaae023	-0.08343532
209	0xbcdc9f12	-0.02693132
210	0x3e98f2a4	0.2987262
211	0x3d7da928	0.061928898
212	0x3cefc6bc	0.029269569
213	0x3dd51228	0.10403854
214	0xbe058668	-0.13039553
215	0xbd915206	-0.07095723
216	0xbea1c2fd	-0.31594077
217	0xbc8f26f6	-0.017474633
218	0xbe3de93d	-0.18546005
219	0x3f08a17e	0.5337142
220	0xbba91e00	-0.005161047
221	0xbe1e9a94	-0.15488654
222	0xbe93e634	-0.2888657
223	0x3b6bde80	0.0035990775
224	0xbd476eb0	-0.048689544
225	0xbddaf99f	-0.10692143
226	0xbe48a016	-0.19592318
227	0x3d9a3f18	0.075315654
228	0x3b637280	0.0034705698
229	0xbe2077c8	-0.15670693
230	0xbdc1e708	-0.09467894
231	0xbe6e451e	-0.23268554
232	0xbd348950	-0.044076264
233	0x3e41f4f2	0.18941095
234	0xbdb2ee90	-0.087369084
235	0x3d7274c8	0.059193403
236	0x3dbcdf04	0.09222224
237	0x3e3a0a14	0.18167907
238	0x3e358b7c	0.1772899
239	0xb9fed000	-0.00048601627
240	0xbedba3a8	-0.42898297
241	0x3e8de872	0.27716404
242	0x3e925138	0.2857759
243	0x3e3cb498	0.18428266
244	0xbec4d30c	-0.38442266
245	0x3c8359f0	0.016034096
246	0xbe0f2bca	-0.13981548
247	0xbe71adeb	-0.236015
248	0xbed236eb	-0.41057524
249	0xbde49e05	-0.11162952
250	0xbe359cc5	-0.17735584
251	0x3f708fbb	0.93969315
252	0x3dc29138	0.095003545
253	0x3db8a15c	0.09015152
254	0xbeaa9235	-0.33314672
255	0xbe04d276	-0.1297091

conv1.lin_edge_compact.ap__downlink__ue.1.0.bias f4 [31]
0	0x3c46e3a0	0.012139231
1	0xbbae0da7	-0.005311686
2	0xbde985b9	-0.11402459
3	0xbe77dd84	-0.24205595
4	0xb99e8800	-0.00030237436
5	0xbd973d60	-0.07384753
6	0xbd4f0700	-0.050543785
7	0x3c99f4b0	0.018793434
8	0xbf04dff6	-0.5190424
9	0x3f1eda92	0.6205226
10	0xbced9f59	-0.029006647
11	0xbdb2da68	-0.08733064
12	0xbda212b9	-0.07913727
13	0x3f12288c	0.5709312
14	0x3e2e0e36	0.16997609
15	0x3f417b5c	0.75578856
16	0xbe15e241	-0.1463709
17	0xbdbdfb72	-0.09276475
18	0xbd875544	-0.0660806
19	0xbdce75bc	-0.1008105
20	0xbe423c2d	-0.18968268
21	0x3f080091	0.53125864
22	0x3e1b1b9a	0.15147248
23	0x3da9d083	0.082917236
24	0xbd9442c3	-0.07239296
25	0xbbfe483b	-0.0077600754
26	0xbe5fd2f4	-0.21857816
27	0xbe6fbe93	-0.23412542
28	0x3cd3be90	0.025847703
29	0xbe754190	-0.23950791
30	0x3d984680	0.07435322

conv1.lin_node_upd.ue.0.0.weight f4 [16, 1]
0	0x3ebc7e39	0.3681505
1	0xbeae1f10	-0.34008074
2	0x3f2002fd	0.6250456
3	0xbe921b44	-0.28536427
4	0x3e0a5fb2	0.13513067
5	0xbf538c0a	-0.8263556
6	0x3f9dd6c4	1.2331166
7	0xbe489bd8	-0.195907
8	0x3e589f73	0.21154575
9	0x3f80e299	1.0069152
10	0x3efb68d2	0.4910341
11	0xbea75878	-0.32684684
12	0x3f126275	0.57181484
13	0xbef26964	-0.47346032
14	0xbe872f94	-0.26403487
15	0xbf20f094	-0.62867093

conv1.lin_node_upd.ue.0.0.bias f4 [16]
0	0x3f8d4aba	1.103843
1	0xbea112b8	-0.31459594
2	0x3f771c81	0.9652787
3	0xbeacb764	-0.33733666
4	0xbf5ecabb	-0.8702809
5	0x3f79c762	0.9756986
6	0x3f842344	1.0323262
7	0xbed9b858	-0.42523456
8	0x3eddbb14	0.43306792
9	0x3f2aca50	0.66714954
10	0x3f8211cd	1.0161682
11	0xbf6cbac6	-0.92472494
12	0x3f51064b	0.8165023
13	0x3e7d8ea0	0.24761438
14	0xbdab4580	-0.083628654
15	0x3f7a2b38	0.97722197

conv1.lin_node_upd.ue.1.0.weight f4 [31, 16]
0	0x3cc3352c	0.023829065
1	0x3e2c2000	0.16809082
2	0x3dd8074d	0.105482675
3	0x3e23dae6	0.16001472
4	0xbd94e274	-0.07269755
5	0xbe5d540a	-0.2161409
6	0xbe215c87	-0.15757953
7	0x3e58b6f2	0.21163538
8	0x3e4db8f4	0.20090085
9	0x3e1f9c49	0.15586962
10	0xbdc982a2	-0.09839369
11	0x3d8d5ab8	0.06902069
12	0xbdb06241	-0.086124904
13	0x3e6c525e	0.23078296
14	0x3e0ddc0a	0.1385347
15	0x3e671c44	0.22569376
16	0x3ddba92f	0.107256286
17	0x3e1ceb4a	0.1532413
18	0x3e222194	0.15833122
19	0x3e26ab8e	0.1627638
20	0x3e64b026	0.2233282
21	0xbe608c6c	-0.21928567
22	0x3e9f519b	0.31116948
23	0x3d195b48	0.03744057
24	0x3ddd5f7b	0.10809227
25	0xbd9bff27	-0.07617026
26	0xbe1edccf	-0.1551392
27	0x3e4ab566	0.1979576
28	0x3e74fa07	0.23923503
29	0x3dadeba8	0.084922135
30	0xbb5e4080	-0.0033912957
31	0xbd6f94a0	-0.05849135
32	0xbe71ac46	-0.23600873
33	0x3db0f0e0	0.08639693
34	0x3e6dba98	0.23215711
35	0x3dffec24	0.12496212
36	0x3e456ea2	0.19280484
37	0xbe6e7932	-0.2328842
38	0xbe01111e	-0.12604186
39	0x3e0f3078	0.13983333
40	0xbd4d7748	-0.050162584
41	0x3d9c80d4	0.076417595
42	0xbc3ab380	-0.011395335
43	0xbe754642	-0.23952582
44	0xbb6c2580	-0.0036033094
45	0xbc2f7780	-0.010709643
46	0x3e274894	0.1633628
47	0xbda24124	-0.07922581
48	0xbe17f4d0	-0.14839482
49	0x3e319808	0.17343152
50	0xbd8f7638	-0.0700497
51	0xbe3da05a	-0.185182
52	0x3d209c98	0.03921184
53	0x3de05ef8	0.10955614
54	0xbcdc1770	-0.026866645
55	0xbe0652bc	-0.13117498
56	0x3e27781a	0.16354409
57	0xbe1f0998	-0.15531003
58	0x3e3186b2	0.17336538
59	0x3de57ed8	0.11205834
60	0xbdb1af40	-0.086760044
61	0xbe022ca4	-0.12712342
62	0x3e11cc06	0.14237985
63	0x3e268bc0	0.16264248
64	0xbe2025d2	-0.15639427
65	0xbc545ae0	-0.012961119
66	0x3c4d9360	0.012547344
67	0x3e267122	0.16254094
68	0xbddf1230	-0.10892141
69	0xbe2572e8	-0.16157115
70	0xbe1d328e	-0.15351316
71	0xbe0e1c26	-0.13877925
72	0xbcddd680	-0.02707982
73	0xbe73ddee	-0.23815128
74	0xbe4c6492	-0.1996024
75	0x3e00f37c	0.12592882
76	0x3e498d9e	0.19682929
77	0x3d434670	0.047674596
78	0x3e38cc76	0.18046746
79	0x3b780780	0.0037846267
80	0x3e8e7923	0.27826795
81	0x3d53d420	0.05171597
82	0x3e7c1aa8	0.24619544
83	0x3df1dc4c	0.118095964
84	0x3df7e880	0.12104893
85	0xbe60b7ee	-0.21945164
86	0x3ebaf513	0.36515102
87	0xbe1ec9ea	-0.15506712
88	0x3ef40b3e	0.47664827
89	0x3e871e08	0.263901
90	0x3ec37bf6	0.38180512
91	0x3c494a20	0.012285739
92	0x3dfdc75d	0.12391541
93	0x3e28c8e0	0.16482878
94	0xbc4fce20	-0.012683421
95	0x3e44af4e	0.19207498
96	0x3dc15983	0.09440901
97	0x3d20fc90	0.039303362
98	0x3e17cca0	0.14824152
99	0x3d80c89c	0.06288263
100	0x3cb350b0	0.02188906
101	0xbe2f64ce	-0.17128298
102	0xbdcf13ec	-0.10111222
103	0x3e13ae56	0.14421973
104	0x3e5f2488	0.2179128
105	0xbe560509	-0.20900358
106	0x3e4ed8d4	0.20199901
107	0x3e6bb90a	0.23019806
108	0x3c11f517	0.008908532
109	0xbcb8d650	-0.02256313
110	0xbe57f60e	-0.21089956
111	0x3db33c44	0.08751729
112	0xbdd54235	-0.104130186
113	0xbe3df96c	-0.18552178
114	0x3e1a2f1b	0.15057032
115	0x3e2260a0	0.15857172
116	0x3e775de9	0.24156918
117	0xbd9322a0	-0.071843386
118	0x3e917f33	0.28417358
119	0xbe6f9e06	-0.23400125
120	0x3d886b43	0.066610835
121	0x3db21354	0.08695093
122	0xbc9eb910	-0.019375354
123	0xbe265f8a	-0.16247383
124	0x3e79757b	0.24361221
125	0xbd983198	-0.07431334
126	0xbe59564a	-0.21224323
127	0xbda457f0	-0.08024585
128	0x3e4be19e	0.19910285
129	0xbe57e0e0	-0.21081877
130	0xbe13204d	-0.1436779
131	0x3e79b194	0.24384147
132	0xbe90d5b6	-0.28288049
133	0xbe3d1ea0	-0.18468714
134	0x3e14ea3a	0.14542475
135	0xbd5faa38	-0.054605693
136	0x3e54f50a	0.207966
137	0xbe83cc0a	-0.25741607
138	0x3e195c1e	0.14976546
139	0xbde4bb20	-0.11168504
140	0xbccc82ad	-0.024964655
141	0xbca23ef0	-0.019805402
142	0x3e4d6962	0.20059732
143	0x3de68a78	0.112568796
144	0x3e60c400	0.21949768
145	0x3e11bc96	0.14232096
146	0xbe7820dc	-0.24231285
147	0x3d126390	0.03573948
148	0xbe3d3438	-0.18476951
149	0x3e60e672	0.21962908
150	0xbe3a3a98	-0.18186414
151	0x3e06a2ec	0.13148087
152	0x3e30e93a	0.17276469
153	0x3e624cea	0.22099653
154	0xbe3e5e16	-0.18590578
155	0x3cdf2890	0.027241021
156	0xbe58c5b2	-0.21169165
157	0xbda87e10	-0.082271695
158	0xbc3888e0	-0.011263102
159	0x3e2b522c	0.16730565
160	0x3d438a05	0.047739048
161	0x3debe578	0.11518377
162	0xbe7471d6	-0.2387155
163	0x3e54d150	0.20782971
164	0x3dcecff1	0.100982554
165	0xbc4cbfe0	-0.012496918
166	0xbd636b38	-0.055522174
167	0xbe1ea8aa	-0.15494028
168	0xbd80a6a6	-0.06281786
169	0xbd95616a	-0.07293971
170	0x3e5026f2	0.20327356
171	0x3d260cf0	0.040539682
172	0x3e4cb665	0.19991453
173	0xbe40ee80	-0.1884098
174	0x3d7fe250	0.062471688
175	0x3da471a8	0.08029491
176	0xbcd6acfd	-0.026205534
177	0xbdcc9a9c	-0.09990427
178	0xbde9bba0	-0.1141274
179	0xbe45d31a	-0.1931881
180	0x3d46e836	0.048561297
181	0xbde73848	-0.11290032
182	0x3d2f76d1	0.04283792
183	0xbdc23cec	-0.09484276
184	0x3e1c012a	0.15234819
185	0x3d13d25b	0.036089282
186	0xbd635096	-0.055496775
187	0xbd52e150	-0.051484406
188	0x3c5d18d8	0.013494693
189	0xbddf9c18	-0.109184444
190	0x3e7191dc	0.23590797
191	0xbda6d19c	-0.081454486
192	0x3dafabc4	0.085776836
193	0xbd4dc6e8	-0.05023852
194	0x3e49000e	0.19628927
195	0xbe58cfb2	-0.2117298
196	0xbc715d05	-0.01473165
197	0x3e241012	0.16021755
198	0x3bcc59e5	0.006236302
199	0x3c212ec0	0.009837806
200	0xbc724f73	-0.01478945
201	0x3d2c7430	0.042102993
202	0x3d11074a	0.035407342
203	0xbe641a4e	-0.2227566
204	0x3c67c3c7	0.014145798
205	0xbd80bef0	-0.062864184
206	0x3cd69f00	0.026198864
207	0xbe2ab65e	-0.1667113
208	0xbd3606d0	-0.04444009
209	0x3e4bfc22	0.199204
210	0xbe2a6b44	-0.16642481
211	0x3e11fff0	0.14257789
212	0xbe21ba90	-0.15793824
213	0x3e4ae898	0.1981529
214	0xbe64e9ee	-0.22354862
215	0xbc6b0240	-0.014343798
216	0x3e5d19d6	0.21591887
217	0xbe0b4940	-0.13602161
218	0xbe29a0b4	-0.1656521
219	0xbd275e38	-0.04086134
220	0xbd36b2b8	-0.044604033
221	0x3e1f1036	0.15533528
222	0x3e7c2652	0.24623993
223	0xbe5f4182	-0.21802333
224	0x3ea6cabe	0.32576555
225	0xbcd23f10	-0.025664836
226	0x3e5d8e09	0.21636213
227	0x3cda9120	0.02668053
228	0x3d429459	0.047504757
229	0x3e74784e	0.23874018
230	0xbdf4f072	-0.11959924
231	0xbddda8dc	-0.10823223
232	0x3df1b0ef	0.118013255
233	0x3eaa4cec	0.33261812
234	0x3e38d447	0.18049727
235	0xbcf9a010	-0.030471832
236	0x3e884409	0.26614407
237	0x3d98c8f8	0.07460207
238	0x3ddec10c	0.108766645
239	0xbe0ad0d8	-0.1355623
240	0x3e8ba9b7	0.2727792
241	0x3ca55970	0.020184249
242	0x3e9e9bb6	0.30978173
243	0xbdb82f18	-0.089933574
244	0xbda40454	-0.08008638
245	0x3c25c160	0.010116905
246	0x3db0b1f8	0.08627695
247	0xbe37d954	-0.17953998
248	0x3e1253a9	0.14289726
249	0x3e49aeb3	0.19695549
250	0x3e70a5a2	0.23500684
251	0x3dbc35fc	0.09189984
252	0xbb4117f0	-0.002946373
253	0xbdc75f10	-0.097349286
254	0xbca36d80	-0.019949675
255	0xbe375c20	-0.17906237

conv1.lin_node_upd.ue.1.0.bias f4 [31]
0	0x3d24fee0	0.04028213
1	0x3e51d3fd	0.20491023
2	0xbd34f078	-0.04417464
3	0x3d882d30	0.06649244
4	0x3b551700	0.003251493
5	0x3dda9a8d	0.106740095
6	0x3e6b2fc5	0.22967441
7	0xbc5e69d2	-0.013575034
8	0xbdbccaee	-0.09218393
9	0x3df49040	0.11941576
10	0x3e1a5e79	0.15075101
11	0xbde2956c	-0.11063656
12	0xbbebecba	-0.007199851
13	0xbc87af70	-0.016563147
14	0x3d672c4c	0.05643873
15	0x3e898bf0	0.26864576
16	0xbd460705	-0.048346538
17	0x3e873795	0.26409593
18	0x3e6a9a6c	0.2291047
19	0xbc4e6da0	-0.012599379
20	0x3ec83619	0.39103773
21	0x3c18a2a4	0.00931612
22	0x3e2c80c9	0.16846003
23	0x3e893085	0.2679483
24	0x3e068789	0.1313764
25	0xbe25ac4e	-0.1617901
26	0xbe3899b4	-0.18027383
27	0xbe5b9448	-0.21443284
28	0xbde79eac	-0.11309561
29	0x3e103b08	0.14085019
30	0x3e9e2ec6	0.3089506

conv1.lin_node_upd.ap.0.0.bias f4 [16]
0	0x00000000	0.0
1	0x00000000	0.0
2	0x00000000	0.0
3	0x00000000	0.0
4	0x00000000	0.0
5	0x00000000	0.0
6	0x00000000	0.0
7	0x00000000	0.0
8	0x00000000	0.0
9	0x00000000	0.0
10	0x00000000	0.0
11	0x00000000	0.0
12	0x00000000	0.0
13	0x00000000	0.0
14	0x00000000	0.0
15	0x00000000	0.0

conv1.lin_node_upd.ap.1.0.weight f4 [31, 16]
0	0x3e4e19a2	0.20126966
1	0x3e0d1f06	0.13781366
2	0xbe14fade	-0.14548823
3	0xbd52c610	-0.05145842
4	0xbe5f3f3e	-0.21801469
5	0xbd1b5228	-0.037920147
6	0x3dfb33a4	0.12265709
7	0x3d6241c8	0.055238515
8	0x3b204100	0.0024452806
9	0xbe023b6e	-0.12717983
10	0x3e79bea4	0.2438913
11	0x3dc8eccc	0.098107904
12	0xbe1df4ae	-0.15425369
13	0xbddde6f4	-0.108350664
14	0xba124a00	-0.0005580485
15	0x3d4b7560	0.049672484
16	0xbcd1fac0	-0.025632262
17	0x3dea98e4	0.11454943
18	0x3dc2e248	0.09515816
19	0xbd8a5ed0	-0.06756365
20	0x3dd0dad0	0.10197985
21	0x3e01e24a	0.12683979
22	0xbe3ed6ac	-0.18636578
23	0xbdf30a50	-0.11867201
24	0xbe7b0e50	-0.24517179
25	0xbe0fc07e	-0.14038274
26	0xbddafe74	-0.10693064
27	0x3e6c971e	0.23104522
28	0xbe426074	-0.18982106
29	0xbe635598	-0.2220062
30	0xbab21800	-0.0013587475
31	0xbdebb5e4	-0.11509302
32	0x3e63adba	0.2223424
33	0xbe53dcb0	-0.20689654
34	0x3d81ca5c	0.06337425
35	0xbe64de2e	-0.2235038
36	0xbe413c1c	-0.18870586
37	0x3e5b4a42	0.21415046
38	0xbe64e234	-0.22351915
39	0x3d12c918	0.03583631
40	0xbc1040c0	-0.0088045
41	0x3e2e001c	0.16992229
42	0xbe751d82	-0.23937038
43	0x3e3419aa	0.17587915
44	0xbd384120	-0.044983983
45	0xbc18ad80	-0.009318709
46	0x3cd396c0	0.02582872
47	0xbe2a9f32	-0.1666229
48	0x3e064034	0.13110429
49	0x3e4d6c18	0.20060766
50	0x3cc1b460	0.02364558
51	0xbde6edc8	-0.11275822
52	0x3da4560c	0.08024225
53	0xbc89a080	-0.016800165
54	0x3c8393f0	0.016061753
55	0xbe5b3638	-0.21407402
56	0xbdfc36ac	-0.12315115
57	0x3de2ab10	0.11067784
58	0xbdcbf82c	-0.099594444
59	0x3d9a9c44	0.075493366
60	0xbe0a5c22	-0.13511708
61	0x3e5d086a	0.21585241
62	0xbd8c011c	-0.06836149
63	0x3e3bc0c0	0.18335247
64	0x3e5dd592	0.21663502
65	0x3e5b6b44	0.21427637
66	0xbd9791dc	-0.07400867
67	0x3e434142	0.19067863
68	0x3b3a7600	0.002845168
69	0x3dc62d1c	0.09676573
70	0x3e519ec2	0.20470718
71	0x3e402a7e	0.1876621
72	0xbd530868	-0.05152169
73	0x3cdd4250	0.02700916
74	0xbd8fcc64	-0.07021406
75	0x3cb102e0	0.021607816
76	0x3e5c6ef0	0.21526694
77	0xbdf02180	-0.117251396
78	0x3e1db604	0.15401465
79	0x3e6a4ace	0.22880098
80	0x3d815330	0.06314695
81	0xbd815270	-0.06314552
82	0xbe77efe0	-0.24212599
83	0x3e59487e	0.2121906
84	0xbe00b9ba	-0.12570849
85	0x3d1fa7b0	0.03897828
86	0xbde5a664	-0.11213377
87	0xbe719956	-0.2359365
88	0xbda91514	-0.082559735
89	0x3e7235dc	0.23653358
90	0x3df00a30	0.11720693
91	0x3e607356	0.21918997
92	0xbdca1b0c	-0.0986844
93	0x3e2d58de	0.16928431
94	0x3e19537c	0.14973253
95	0x3e1a7960	0.15085363
96	0x3d6de3b0	0.058078468
97	0xbe165e6a	-0.14684454
98	0xbddc3ac0	-0.10753393
99	0xbbed1b40	-0.0072359145
100	0x3e160990	0.14652085
101	0x3e78784a	0.24264637
102	0xbdd4bd44	-0.10387662
103	0x3e18b9ac	0.14914578
104	0xbd5534e8	-0.05205241
105	0x3e23eb6c	0.16007775
106	0xbcaa7e80	-0.020812273
107	0x3e70704e	0.23480341
108	0x3c9dcbd0	0.019262224
109	0x3e096fba	0.13421527
110	0x3e4d3d74	0.20042974
111	0x3dd5eaec	0.104451984
112	0xbc3479e0	-0.011015385
113	0x3e00606c	0.12536782
114	0xbb381700	-0.002808988
115	0x3d483848	0.0488818
116	0x3e2ead88	0.17058384
117	0xbdeabd7c	-0.114619225
118	0x3d087f00	0.03332424
119	0x3e1e354e	0.15450022
120	0xbe2ece30	-0.17070842
121	0x3e2ba288	0.1676122
122	0xbd452498	-0.0481306
123	0xbda06914	-0.07832542
124	0x3da2c034	0.07946816
125	0x3e5be104	0.21472555
126	0x3d1a9850	0.037742913
127	0x3a317c00	0.00067704916
128	0x3e04ec36	0.12980732
129	0xbd213198	-0.039353937
130	0xbd91f6a0	-0.07127118
131	0x3d378440	0.044803858
132	0xbddddfdc	-0.108337134
133	0xbe205ba4	-0.15659958
134	0x3dcca078	0.099915445
135	0xbb6f7000	-0.0036535263
136	0xbe32570c	-0.17416018
137	0x3da515b4	0.0806078
138	0xbd4e9ea0	-0.050444245
139	0xbc50cc40	-0.0127440095
140	0x3e678c30	0.22612071
141	0x3e3a4dd0	0.18193746
142	0xbe189598	-0.14900815
143	0xbe598fba	-0.21246234
144	0x3e4b4e86	0.19854173
145	0x3d1e9cc8	0.038723737
146	0x3d088f40	0.03333974
147	0x3e03f50c	0.12886447
148	0xbd413458	-0.04716906
149	0xbd59bf48	-0.053160936
150	0x3e455740	0.19271564
151	0xbd6d7fe8	-0.05798331
152	0x3a8ecb00	0.0010894239
153	0xbd00b200	-0.031419754
154	0xbe134ae0	-0.14384031
155	0x3db6a1f8	0.08917612
156	0xbd9069e0	-0.07051444
157	0xbe138cf8	-0.14409244
158	0x3e71e5b4	0.23622781
159	0x3d1bc090	0.03802544
160	0xbe3a1f6e	-0.18176052
161	0x3e0e3502	0.13887408
162	0xbce4a4c0	-0.02791059
163	0x3c86b910	0.016445667
164	0xbdfdce10	-0.12392819
165	0x3b9e58c0	0.004832357
166	0xbd0f9930	-0.0350582
167	0x3ca000b0	0.019531578
168	0xbe0826f8	-0.13296115
169	0xbde8ee84	-0.11373618
170	0xbe492f0c	-0.19646853
171	0xbd365e00	-0.04452324
172	0x3d945bdc	0.07244083
173	0xbe5432d6	-0.20722517
174	0x3e4eb802	0.20187381
175	0x3da84a78	0.08217329
176	0xbe2e9504	-0.17049032
177	0xbe0ee990	-0.13956285
178	0x3bd00600	0.0063483715
179	0x3e75b02c	0.23992985
180	0xbe0d65c4	-0.13808352
181	0x3e43a058	0.19104135
182	0x3d0fd730	0.03511733
183	0xbdc320c8	-0.09527737
184	0x3d03a578	0.032140225
185	0xbdd766bc	-0.10517642
186	0x3e734326	0.23756084
187	0xbda1d0fc	-0.07901189
188	0xbd9132ec	-0.07089791
189	0x3e2f83a6	0.17140064
190	0x3dae6444	0.08515218
191	0x3d26ba08	0.040704757
192	0xbc8eaf20	-0.01741749
193	0xbe048c8e	-0.12944242
194	0xbde17484	-0.11008552
195	0x3e19b19e	0.15009162
196	0x3e315f9a	0.17321625
197	0xbe76391a	-0.2404522
198	0xbd87dac4	-0.06633523
199	0x3d920528	0.0712989
200	0x3db72a28	0.089435875
201	0xbddd23d0	-0.10797846
202	0x3e37bfa6	0.17944202
203	0x3deeefb4	0.116668135
204	0x3df315ac	0.11869368
205	0xbe446dc4	-0.19182497
206	0xbe5eb880	-0.21750069
207	0x3e7e283a	0.24820033
208	0xbcb1d3e0	-0.021707475
209	0x3e1b39fe	0.15158841
210	0xbe2f0ebc	-0.17095464
211	0x3e12088c	0.14261073
212	0xbe239102	-0.15973285
213	0x3e0a28c4	0.13492113
214	0xbd5ae1f8	-0.053438157
215	0xbd42b938	-0.04753992
216	0xbe3e8c8e	-0.18608305
217	0xbe7f9d74	-0.24962407
218	0x3e36c6ec	0.1784932
219	0x3d6746a0	0.056463838
220	0x3e3bb46a	0.18330541
221	0x3e065538	0.13118446
222	0xbe0b7604	-0.13619238
223	0xbe2bb70c	-0.16769046
224	0x3d1ad580	0.037801266
225	0x3c8e4410	0.01736644
226	0x3d419968	0.04726544
227	0xbe193cd6	-0.14964613
228	0xbe304938	-0.1721543
229	0xbd05b2b8	-0.032641143
230	0x3e56b8a0	0.20968866
231	0xbae0ac00	-0.0017141104
232	0xbdef34ec	-0.11680016
233	0xbe628ac6	-0.2212325
234	0x3e02ae92	0.12761906
235	0x3e6e0550	0.23244214
236	0x3e1fd956	0.15610251
237	0xbcf40950	-0.029789597
238	0x3e6bb394	0.23017722
239	0x3df7c0b8	0.12097305
240	0xbd950a5c	-0.072773665
241	0xbde048e4	-0.10951403
242	0xbe750042	-0.2392588
243	0xbe746c44	-0.23869425
244	0x3e1a4e02	0.1506882
245	0xbe539c00	-0.20664978
246	0x3e01736c	0.12641686
247	0xbe00ba3a	-0.1257104
248	0xbdf950d8	-0.12173623
249	0xbe3c46aa	-0.18386331
250	0xbde92d14	-0.11385551
251	0x3e00b78e	0.1257002
252	0xbe5b5cee	-0.21422169
253	0x3d5158c0	0.05111003
254	0x3dbd1d94	0.09234157
255	0x3de5cb50	0.112204194

conv1.lin_node_upd.ap.1.0.bias f4 [31]
0	0x3b493280	0.0030700266
1	0xbdc232a8	-0.09482318
2	0xbe556b02	-0.20841601
3	0x3e7117a2	0.23544171
4	0xbe5fbfea	-0.21850553
5	0x3e002a72	0.12516192
6	0x3d9068d8	0.07051247
7	0x3e20ea0c	0.15714282
8	0x3dc24aa8	0.09486896
9	0xbe67a880	-0.22622871
10	0xbe5cdc10	-0.21568322
11	0xbde8c7d4	-0.11366239
12	0xbe5a4fcc	-0.21319503
13	0xbe1563ac	-0.14588803
14	0x3e0364e8	0.12831461
15	0xbc620da0	-0.013797194
16	0xbe2e73e8	-0.17036402
17	0x3d156da8	0.03648153
18	0x3e33bf1c	0.17553371
19	0xbe28af5e	-0.16473147
20	0x3d2ac4d0	0.0416916
21	0xbe64be50	-0.22338223
22	0x3da64b90	0.08119881
23	0xbe279cce	-0.1636841
24	0x3e1bca02	0.15213779
25	0x3e2b213c	0.16711897
26	0x3dc04e08	0.09389883
27	0x3e060cb2	0.1309078
28	0xbe7608c4	-0.24026781
29	0x3e37c814	0.17947417
30	0xbd9b9c28	-0.07598144

conv2.lin_node_msg.ue.0.0.weight f4 [16, 32]
0	0xbcb92985	-0.022602806
1	0x3dc287aa	0.09498532
2	0xbdefe25e	-0.11713098
3	0xbccfa7cd	-0.025348568
4	0xbe1b412c	-0.1516158
5	0xbdb0f693	-0.0864078
6	0x3d7eb7aa	0.062186874
7	0xbe02689f	-0.12735222
8	0xbd40b572	-0.04704804
9	0x3e263da3	0.1623445
10	0xbe18f843	-0.14938454
11	0xbdd56ea9	-0.104214974
12	0xbdd1fe06	-0.10253529
13	0xbd1675c3	-0.0367334
14	0x3d89e816	0.0673372
15	0xbe13010e	-0.14355871
16	0x3d77f8ee	0.060540132
17	0x3e2edc77	0.17076288
18	0xbdeaaa58	-0.11458272
19	0x3c82c302	0.015962128
20	0xbda69dc6	-0.08135562
21	0xbc0be06b	-0.008537392
22	0x3deedbd8	0.116630256
23	0xbcccbdf0	-0.024992913
24	0x3d8d9328	0.069128335
25	0xbe00f4dd	-0.12593408
26	0x3de284be	0.11060475
27	0xbdfbd4a6	-0.12296419
28	0x3dc8ff9e	0.0981438
29	0xbdcd929f	-0.100377314
30	0x3d4fd68f	0.05074173
31	0x3d480e54	0.04884179
32	0xbddc8a58	-0.107685745
33	0x3e325371	0.17414643
34	0xbc2de224	-0.010612998
35	0x3e279e70	0.16369033
36	0x3e20dfc4	0.1571036
37	0x3dad5abd	0.084645726
38	0xbe22709d	-0.15863271
39	0x3dd52c18	0.10408801
40	0xbd530174	-0.051515058
41	0xbdddfa6a	-0.10838778
42	0xbc81a617	-0.015826268
43	0x3d577d28	0.052609593
44	0xbbe13b41	-0.0068735187
45	0xbc4c8e07	-0.012485034
46	0x3d1f8085	0.038940925
47	0x3d2d3fae	0.042297058
48	0xbe02371e	-0.12716338
49	0x3e2ec393	0.17066793
50	0xbdd2c4fa	-0.102914765
51	0xbde7037b	-0.11279961
52	0xbd8fba25	-0.07017926
53	0x3e2117fa	0.15731803
54	0x3ce80f88	0.028327718
55	0x3e1d960c	0.1538927
56	0xbcf4b6b3	-0.029872274
57	0x3d8c22ad	0.068425514
58	0xbd612977	-0.054971185
59	0x3de924d9	0.11383981
60	0xbd1f654c	-0.038914964
61	0xbd973d80	-0.07384777
62	0x3dbb1326	0.09134512
63	0xbd2f4ec3	-0.042799722
64	0x3de794bd	0.113076665
65	0xbdea934c	-0.11453876
66	0xbe30f7c9	-0.17282023
67	0x3e2cfcbe	0.16893288
68	0xbd5ebb85	-0.05437805
69	0xbd1dd90d	-0.038537074
70	0x3e19cc82	0.1501942
71	0x3d9509e4	0.07277277
72	0x3bf4db12	0.0074724043
73	0xbdb9ddc7	-0.09075504
74	0x3e080459	0.13282908
75	0x3e1442c5	0.14478596
76	0xbc6b9f20	-0.0143812
77	0xbd9c9385	-0.076453246
78	0x3d1cbf78	0.038268536
79	0x3cb776d4	0.022395529
80	0x3e123667	0.14278565
81	0xbd8f6a4f	-0.07002699
82	0xbe348ad0	-0.17631078
83	0x3e07533d	0.13215347
84	0xbda205a5	-0.07911233
85	0xbba66da8	-0.00507899
86	0x3c9ee057	0.019394083
87	0x3d4aab8a	0.04948
88	0xbde39500	-0.11112404
89	0xbe1e9734	-0.15487367
90	0x3dec64ce	0.115426645
91	0xbe0cf2d6	-0.1376451
92	0xbd908c1a	-0.07057972
93	0xbdb1b354	-0.08676782
94	0xbde086be	-0.109632
95	0xbe0d12ed	-0.13776751
96	0xbd5e50ed	-0.054276396
97	0x3d816d0c	0.06319627
98	0xbdade1e5	-0.084903516
99	0xbb50163e	-0.0031751539
100	0x3dabfb9e	0.083976015
101	0xbc30fcc0	-0.010802448
102	0x3e348e73	0.17632465
103	0xbe03b8ef	-0.12863515
104	0x3e17363d	0.14766784
105	0x3e20af54	0.15691882
106	0xbd5af4dd	-0.053456176
107	0xbcd906c0	-0.026492476
108	0x3e082367	0.13294755
109	0x3e30ee1a	0.17278329
110	0xbd2890b1	-0.041153613
111	0xbe30eefc	-0.17278665
112	0x3e2ba82d	0.16763373
113	0xbb2a6187	-0.0025998072
114	0xbd0ee0b6	-0.03488227
115	0xbc9b76d7	-0.018977566
116	0x3d5f80b1	0.05456609
117	0xbe096786	-0.13418397
118	0xbdc5e6ff	-0.096632
119	0x3d6ab4b8	0.057301253
120	0xbe0a353a	-0.13496867
121	0xbe1110e8	-0.14166605
122	0xbe20dd7d	-0.15709491
123	0x3d2b9c42	0.041897066
124	0x3e204751	0.15652205
125	0xbe1f78ff	-0.155735
126	0x3d1038b2	0.03521032
127	0x3e2cf3de	0.16889903
128	0xbc813c28	-0.015775755
129	0x3e0c4f44	0.13702112
130	0x3e2e7ef3	0.17040615
131	0xbe09078e	-0.13381788
132	0x3d3cbb09	0.046076808
133	0xbd906e92	-0.070523396
134	0xbe0baa50	-0.13639188
135	0x3d84288d	0.06453047
136	0xbe30a48a	-0.17250267
137	0xbc93e9e0	-0.018055856
138	0xbde0cbdd	-0.10976384
139	0x3c335696	0.010945937
140	0xbdd172b4	-0.10226956
141	0x3cf5beb7	0.029998166
142	0xbdb48959	-0.088152595
143	0xbd460695	-0.04834612
144	0x3d7ae8ac	0.06125705
145	0x3e1efcca	0.15526119
146	0x3dc2abbc	0.09505412
147	0xbe0b0783	-0.13577084
148	0xbcd044e9	-0.025423484
149	0x3e10ace2	0.1412845
150	0x3c990190	0.018677503
151	0x3dec5433	0.11539497
152	0x3bc2c6b2	0.0059440965
153	0xbc41f95e	-0.011839239
154	0x3e2f8286	0.17139634
155	0xbc94ba57	-0.01815526
156	0x3e0b0c32	0.13578871
157	0x3d920509	0.07129867
158	0x3d63891d	0.055550683
159	0xbe28b32e	-0.16474602
160	0x3dfeed0f	0.12447559
161	0x3e0d4c02	0.13798526
162	0x3dcc77e6	0.09983806
163	0xbba97b30	-0.005172156
164	0x3dca1734	0.09867707
165	0x3d9abb12	0.07555212
166	0xbe01671b	-0.12636988
167	0x3d588439	0.052860472
168	0xbd56181c	-0.052269086
169	0x3d5b4902	0.053536423
170	0xbdf27b4a	-0.11839922
171	0x3df775ed	0.120830394
172	0xbdfd9f8d	-0.123839475
173	0xbe039b75	-0.12852271
174	0xbd3ade61	-0.045622233
175	0xbe2489dd	-0.16068216
176	0x3da4757b	0.0803022
177	0x3dd01580	0.10160351
178	0x3cc56316	0.0240951
179	0xbdedf9e6	-0.1161993
180	0x3d8f6556	0.0700175
181	0x3c42bed4	0.011886317
182	0xbe15ca34	-0.14627916
183	0x3d847705	0.06468014
184	0xbdcd897e	-0.1003599
185	0xbd3b9bc1	-0.045802835
186	0xbd6f0220	-0.058351636
187	0xbe18a077	-0.14904962
188	0x3ba839fc	0.0051338654
189	0xbe2d8f60	-0.16949224
190	0x3d505cc1	0.050869707
191	0x3de7f3d2	0.11325802
192	0x3e17d3e6	0.14826927
193	0xbd21181a	-0.039329626
194	0x3c4cb00f	0.0124931475
195	0xbd74687a	-0.05966995
196	0xbd8368e7	-0.06416493
197	0xbd82ee24	-0.06393078
198	0xbe0ef28f	-0.13959716
199	0xbd928149	-0.071535654
200	0xbdf65428	-0.1202777
201	0xbda432c8	-0.08017498
202	0xbd8adae6	-0.06780033
203	0x3dcc34e7	0.09971028
204	0xba664bbc	-0.0008785089
205	0xbdfc12be	-0.12308262
206	0x3d72df69	0.05929509
207	0x3cef4df6	0.02921198
208	0x3e1f6838	0.155671
209	0x3c5d4b73	0.013506758
210	0xbc120084	-0.008911256
211	0xbd9cfdc0	-0.076655865
212	0x3ccebec4	0.025237449
213	0x3dbf3ca6	0.0933774
214	0x3d4fea39	0.05076048
215	0xbd9773a9	-0.07395107
216	0xbc007f23	-0.007842812
217	0x3d6714e2	0.0564164
218	0xbdbf6938	-0.09346241
219	0xbe0e7ab9	-0.13914002
220	0xbe02378b	-0.127165
221	0x3d343f5b	0.044005733
222	0x3d9b5d00	0.07586098
223	0xbdbe17af	-0.09281861
224	0x3e0b085e	0.1357741
225	0x368e20e3	4.2357583e-06
226	0xbe2b97b9	-0.16757096
227	0x3d163c39	0.036678527
228	0x3dc99189	0.09842212
229	0xbcfd7d22	-0.030943457
230	0xbcc50bb7	-0.024053438
231	0x3da2d636	0.07951014
232	0x3e2a8dfb	0.16655724
233	0xbd62e483	-0.055393707
234	0xbd74b083	-0.059738647
235	0xbdfce540	-0.123484135
236	0x3e124741	0.14284994
237	0x3e0ad2e2	0.13557008
238	0x3d96ee78	0.07369703
239	0x3d77c988	0.06049493
240	0x3c4f9ce3	0.012671682
241	0x3db3c64a	0.08778055
242	0x3d819825	0.063278474
243	0x3dfbcca9	0.12294895
244	0xbe0cd368	-0.1375252
245	0xbe09f2e8	-0.13471568
246	0x3cb18440	0.021669507
247	0xbb80271a	-0.0039109113
248	0xbb1c0273	-0.002380517
249	0xbe02dff3	-0.12780742
250	0x3dcbd5fe	0.09952925
251	0x3de4f719	0.11179943
252	0xbdada3e7	-0.084785275
253	0x3d809b4d	0.06279621
254	0xbdff1db2	-0.12456836
255	0x3e264648	0.16237748

conv2.lin_node_msg.ue.0.0.bias f4 [16]
0	0x3b8f71d3	0.0043775826
1	0xbd74452a	-0.059636272
2	0xbd642781	-0.055701736
3	0x3dd0cb4b	0.10195025
4	0xbd7e324f	-0.062059697
5	0xbd002769	-0.031287584
6	0x3d6e0846	0.05811336
7	0x3e28e036	0.1649178
8	0xbd33455f	-0.04376733
9	0xbe2e1cbf	-0.17003153
10	0xbd7c40ca	-0.061585225
11	0xbd556d5e	-0.052106254
12	0xbd23802b	-0.039917152
13	0x3e0ee5c0	0.1395483
14	0x3e047606	0.12935647
15	0x3e0c3b72	0.13694552
