Model/5000sam64batch_cpu.pth (torch, 120162 bytes, 79 tensors)

conv1.lin_node_msg_compact.ue.0.0.weight f4 [16, 1]
000000 6c 90 75 bf 85 8e 91 3f ea b1 34 bf 4e bb 27 bf
       -0.95923495 1.1371619 -0.70583975 -0.6552018
000010 04 ae 62 bf b0 80 53 bf 8f 27 e6 3e 80 ed cd be
       -0.88546777 -0.82618237 0.44952056 -0.4022026
000020 08 ac 35 bf da 05 2b bf ec 24 7a bf 7c 6d 75 bf
       -0.70965624 -0.66805804 -0.9771259 -0.95870185
000030 20 b1 bb be 54 df fc be 20 6f 3b bd 3a 19 f8 3b
       -0.36658573 -0.49389136 -0.045760274 0.0075713666

conv1.lin_node_msg_compact.ue.0.0.bias f4 [16]
000000 20 7a f2 3e 83 1c d0 3e 60 35 1e be e8 12 68 3e
       0.473588 0.40646753 -0.15450048 0.22663462
000010 a0 76 ae 3e ac 8f b7 be c4 bf ac 3e d4 ee 7b bf
       0.3407488 -0.358518 0.33740056 -0.984113
000020 4c a4 e7 be 58 db 56 be 20 93 75 3f f8 4b 6b bf
       -0.45242536 -0.2098211 0.9592762 -0.91912794
000030 50 91 e8 bd 8e 04 08 bf b6 3e 73 bf 76 98 43 be
       -0.11355841 -0.5313195 -0.95017564 -0.19101128

conv1.lin_node_msg_compact.ue.1.0.weight f4 [32, 16]
000000 82 b3 6f be f7 c2 be 3e 86 8b 14 3e 4e 1b 70 3e
       -0.2340832 0.3725812 0.14506349 0.23447916
000010 20 43 45 3c 86 ce 55 be 70 4c d0 3c d4 42 5e be
       0.01203993 -0.20879564 0.025427073 -0.2170518
000020 c0 30 f6 bd 02 7f 4a 3e 86 85 4c be 14 20 2c be
       -0.12021017 0.19775012 -0.1997281 -0.16809112
000030 80 28 3e bd d0 8e c6 bc 60 b4 4c 3e 06 89 df bd
       -0.046425343 -0.02423802 0.19990683 -0.10914807
000040 60 a6 61 be e5 5e 98 3e 88 35 0b 3d c0 52 22 be
       -0.22036123 0.297599 0.0339866 -0.15851879
000050 aa 21 19 3e f8 1a 42 bd a6 72 42 3e 90 1e a9 bd
       0.14954248 -0.047389 0.18989047 -0.082577825
000060 70 92 8e bd ba a8 77 be b8 70 94 bd e0 30 fd bc
       -0.069615245 -0.24185458 -0.07248062 -0.030907094
000070 68 ac 3f be 78 29 50 3d 2e 62 19 be 7c 7a c5 3b
       -0.18718112 0.050820798 -0.14978859 0.006026564
000080 40 72 c9 3d 14 ac 2c 3d 64 c8 d3 3d 74 1c f3 bd
       0.098362446 0.042156294 0.10340956 -0.118706614
000090 a4 43 7a 3e 90 56 a3 3c d4 04 a8 3d f8 dd 4b 3d
       0.24439865 0.019938737 0.08204046 0.049772233
0000a0 20 1c a1 bc fa 45 19 be 88 3f 1b be 04 b4 e8 3d
       -0.019666731 -0.149681 -0.15160954 0.1136246
0000b0 56 8d 11 3e 60 e1 70 3d b0 01 08 be 19 18 53 3c
       0.14214072 0.058808684 -0.13281894 0.012884163
0000c0 90 ef 56 bd 20 fd 6a bd d8 0c 12 bd 2c 2b 18 3e
       -0.05247456 -0.057370305 -0.03565678 0.14860219
0000d0 a6 ae 65 3e 4a 0e 55 3e 06 20 7f be 7c 11 b2 bd
       0.22429904 0.20806232 -0.2491456 -0.08694741
0000e0 60 ec eb bc 7c d7 7a 3e 16 68 23 be 80 da 0f be
       -0.028799236 0.24496263 -0.15957674 -0.14048195
0000f0 0c 86 4c be 88 ca 36 3d 76 2f 5a be 40 c1 2e bd
       -0.1997301 0.044626743 -0.21307167 -0.042664766
000100 10 53 a7 3d aa d5 45 3e 90 67 97 bc 00 6f 9e bb
       0.0817014 0.19319788 -0.018482 -0.0048350096
000110 8e e7 29 3e a6 bb 15 3e 5d d2 5d 3e 26 fa 2e 3e
       0.16592237 0.14622363 0.21662278 0.17087612
000120 1c b3 6f 3e 08 6d 33 bd 60 24 12 bd 70 14 92 bd
       0.23408169 -0.043805152 -0.03567922 -0.071328044
000130 90 d0 22 3d 20 99 d8 3c 26 5e 3d be 75 9c 42 3e
       0.039749682 0.026440203 -0.18492946 0.19004996
000140 92 94 53 3e be 40 49 be 2a db 6d 3e ae cc 4a 3e
       0.20662144 -0.19653603 0.23228136 0.19804642
000150 30 f4 31 bd 10 49 5a bd 52 42 02 3e 18 fc ab 3d
       -0.043445766 -0.053292334 0.12720612 0.083976924
000160 b0 98 8c 3c 7c 06 13 be de 56 49 be e6 3a 42 3e
       0.01716265 -0.14357942 -0.19662043 0.1896778
000170 5e da 59 be 00 72 96 3c 40 20 64 3c 74 fc 52 be
       -0.21274707 0.018364906 0.013923705 -0.20604116
000180 60 9d 29 3d 10 c4 c2 3c b6 cf 2e be ea 84 3b 3e
       0.04140985 0.02377513 -0.17071423 0.18312421
000190 c0 b8 84 bd fa 0e 35 be 4c aa 0e be b8 65 4d be
       -0.06480551 -0.17681494 -0.1393215 -0.20058334
0001a0 ac 03 02 3e fa a6 06 be 1a c0 74 3e 80 e2 57 3c
       0.12696713 -0.13149634 0.23901406 0.01317656
0001b0 bc 7b e6 3d 6a 01 4f 3e 2c 91 f0 3d 28 2b 10 be
       0.11254069 0.20215383 0.11746439 -0.14078963
0001c0 06 2a 51 be 27 02 4c 3e 28 2e 87 bd 1c bd 7e be
       -0.20426187 0.19922696 -0.066006005 -0.24876827
0001d0 34 01 1c 3e 58 dd 54 3d 5a 01 f5 3d 30 e4 b5 3c
       0.15234834 0.051968902 0.119631484 0.022203535
0001e0 50 cd ac bc 74 fd 36 3e 46 c1 6e 3e 80 49 64 3d
       -0.021093994 0.17870122 0.23315915 0.055734158
0001f0 ac 2f 1c 3e da d2 1f 3e d0 6e fe 3d fd 35 c5 bc
       0.1525256 0.15607777 0.124234796 -0.024073595
000200 28 1c 70 3d 50 53 ff bc 74 1f ca bd 48 ca 89 3d
       0.058620602 -0.031167656 -0.098692805 0.06728035
000210 32 03 7a be b8 06 ad 3d 84 4f a0 bd f4 9f 61 be
       -0.24415281 0.08448547 -0.078276664 -0.22033674
000220 50 68 e5 bd be 29 5f 3e 1c 54 8a bd 48 83 31 3e
       -0.11201537 0.21793267 -0.06754324 0.17335236
000230 14 40 f4 3d 1a da 43 3e 2c e3 08 be f0 cc 3e be
       0.119262844 0.19126168 -0.13367909 -0.18632865
000240 80 db 55 bd d3 cd cc 3d 0a 7a 35 be d8 70 0f be
       -0.052211285 0.10000195 -0.17722335 -0.1400789
000250 90 52 6e 3d 00 02 5c 3c 7d 7f 77 3e c4 3f 8c 3d
       0.058184206 0.013428211 0.24169727 0.068481
000260 c8 e0 75 3d 78 1b 7e bd 9c 3c e4 bd ca ef 2b 3e
       0.06002882 -0.062037915 -0.11144373 0.16790691
000270 98 fa d8 3d 6c 4e 5e 3e 74 13 93 3d 5f 70 46 3d
       0.10594672 0.21709603 0.07181445 0.04844701
000280 68 c4 67 be d2 b0 8e 3e 1c b7 17 3e 4a dc 0e 3e
       -0.22633517 0.27869278 0.14815944 0.13951221
000290 e0 a7 13 3d 90 73 41 be 1f 14 64 3c 70 74 67 bd
       0.03604877 -0.1889174 0.013920813 -0.056507528
0002a0 96 84 6f be cc 9c a9 3d d2 23 11 3e d6 f8 76 3e
       -0.23390421 0.0828186 0.1417382 0.24118361
0002b0 3c b3 21 3e 70 ff c4 3d a0 95 6d 3c 94 5f 0d 3e
       0.15791029 0.09619033 0.014501005 0.13805991
0002c0 98 fb 13 3e 15 03 d9 3e 68 e4 6e 3d 14 27 61 be
       0.14451444 0.42385164 0.058323294 -0.21987563
0002d0 24 b2 59 3e d4 05 29 be aa f3 d6 3e b6 3a 48 3e
       0.21259362 -0.1650613 0.41982776 0.19553646
0002e0 44 cc 09 be f8 b1 03 bd a8 7b d4 3d c0 79 67 3d
       -0.13456827 -0.032152146 0.10375148 0.056512594
0002f0 5a 8f 56 3e 8c 5c 60 3e 78 27 85 bd d2 f9 ae bd
       0.20953122 0.21910304 -0.06501669 -0.08543743
000300 dc 04 d1 3d 89 94 27 3e e0 1b c8 bd 28 2c 06 3e
       0.10206005 0.16365255 -0.09770942 0.13102782
000310 60 04 fa bc 08 3d 69 3d 74 0c 93 3e ee 7c 35 3e
       -0.030519664 0.05694297 0.28720438 0.17723438
000320 c0 65 23 3e 66 d8 01 be 20 18 5d bd b8 5b 20 bd
       0.15956783 -0.12680206 -0.053978086 -0.03914997
000330 cc b1 49 be 68 d3 22 bd 30 de 93 3c 9b b3 37 be
       -0.1969673 -0.039752394 0.018050283 -0.17939608
000340 f0 13 e4 bc 36 af 14 be a2 ff 08 be ca 87 6f 3e
       -0.027841538 -0.14519963 -0.13378766 0.23391643
000350 20 1e e3 bc 1c 89 e8 bd 06 fe 18 3e a0 95 68 bd
       -0.027724326 -0.113542765 0.14940652 -0.05678332
000360 28 b3 54 bd 88 fc 52 3d d2 5c 1d be 5e 3f 6c be
       -0.05192867 0.051510364 -0.1536744 -0.23071048
000370 60 96 50 be 2a 6c 62 be cc fc 58 3e 06 44 60 3e
       -0.20369864 -0.22111574 0.21190184 0.21900949
000380 44 48 7e be 36 a4 d9 3e 1a 19 0b 3e 1c e5 85 3d
       -0.24832255 0.42508096 0.13583794 0.0653784
000390 b8 3d 9b 3d b0 9d c2 3d 6a 11 e5 3e c0 10 52 3c
       0.07580131 0.09502733 0.44739848 0.012821376
0003a0 60 13 32 bc 70 f9 69 3d 74 8b a1 bd b8 80 af bd
       -0.010868877 0.057122648 -0.07887927 -0.08569473
0003b0 3c f8 f2 3d e8 a8 0d bd 64 44 cf bd 89 06 0c be
       0.11863753 -0.03458491 -0.10120466 -0.13674368
0003c0 8a 64 08 3e 57 53 a5 3e e0 7d 8d bd b8 1c 26 3d
       0.13319603 0.32290146 -0.069087744 0.040554732
0003d0 e0 02 53 bc 48 64 c5 bd ec 63 1c 3d 18 d5 c3 bd
       -0.012879103 -0.09638268 0.03818123 -0.09562129
0003e0 f0 7a d4 3c 5c d1 88 bd 18 15 32 bd 64 8f 64 be
       0.025937527 -0.06680557 -0.043477148 -0.22320324
0003f0 86 c5 13 3e 28 9d 69 be 82 1b 3b 3e 5d 46 5f 3e
       0.14430818 -0.22813857 0.18272212 0.21804185

conv1.lin_node_msg_compact.ue.1.0.bias f4 [32]
000000 fd 70 fa 3d 63 94 85 bd 1e 63 ff bd 00 41 fe 3b
       0.12228582 -0.06522443 -0.12470077 0.0077592134
000010 d0 97 42 3e 48 15 f4 bd 68 df 6f bd 8c 3e 0c 3e
       0.19003224 -0.119181216 -0.058562666 0.13695735
000020 24 45 41 be e4 f3 a2 3e a4 13 4a 3d 9a 53 81 3e
       -0.18874031 0.318267 0.049335137 0.25259095
000030 3a ab 98 3e 9a 20 75 be 99 1b 3b bd a4 a6 af bd
       0.29818135 -0.23938218 -0.045680616 -0.08576706
000040 bd d4 02 3e 8a 1e 11 be c6 e8 b0 3e 4d b0 a3 3e
       0.12776466 -0.14171806 0.34552592 0.31970444
000050 6b f6 84 be 88 e3 0f 3d 40 40 80 3e 17 06 b3 bd
       -0.25969252 0.0351291 0.2504902 -0.08741396
000060 9e 95 1b 3e 58 db 2e 3e 0a 28 49 3e d2 fa 67 3e
       0.15193793 0.1707586 0.1964418 0.22654274
000070 a0 bd a3 bd 28 be 00 3e 80 ce b8 3d 04 f1 ec 3e
       -0.079951525 0.12572539 0.09023762 0.4627763

conv1.lin_edge_compact.ue__uplink__ap.0.0.weight f4 [16, 1]
000000 9a 7b 56 3f 80 fa 4a 3f c5 6d 07 3f d8 c7 8b be
       0.8378235 0.7928848 0.5290187 -0.27300906
000010 8c 71 86 3f 40 75 65 be 42 9d 8b 3f 7f 5b 64 3f
       1.0503402 -0.22408009 1.0907366 0.8920211
000020 e9 94 97 3f 3e 03 2d 3e c8 e0 8a be 68 a0 ac be
       1.1842319 0.16895768 -0.2712462 -0.3371613
000030 a9 f2 46 3e 4b 69 30 3f 97 87 23 3f d4 5f 73 3f
       0.19428505 0.68910664 0.6387877 0.950681

conv1.lin_edge_compact.ue__uplink__ap.0.0.bias f4 [16]
000000 a5 8a 93 3f 08 26 40 3f 82 33 2d 3f e0 1c a9 bd
       1.1526686 0.7505803 0.6765672 -0.082574606
000010 b7 20 99 3e 82 21 08 bf 62 18 c7 be 79 59 86 3f
       0.29907772 -0.5317613 -0.3888579 1.0496055
000020 10 26 7c 3f 76 ab 52 3e 88 44 d0 be dc e2 ae be
       0.9849558 0.2057322 -0.40677285 -0.34157455
000030 68 f7 b1 3e cd 3b 84 3f a3 16 53 3e 47 84 86 3f
       0.34759068 1.033075 0.20614104 1.0509118

conv1.lin_edge_compact.ue__uplink__ap.1.0.weight f4 [32, 16]
000000 3c 1e 2a 3f 2b 29 70 3f 01 ea fb 3e 88 ba 02 be
       0.66452384 0.9381282 0.49201968 -0.12766469
000010 48 75 ef bc 80 3d 4e bd a1 7a b0 3d 22 f2 1e 3e
       -0.029230729 -0.05035162 0.086171396 0.15522054
000020 60 f9 29 3d f4 17 4f 3d e4 df 5d 3e 9c 1a 47 be
       0.04149759 0.050559953 0.21667439 -0.19443744
000030 9c 62 10 3e 20 b6 16 be 21 75 96 3e 6f 60 62 3f
       0.14100116 -0.14717913 0.29386237 0.88428396
000040 52 9c 16 bd 22 dc fb 3e 04 55 7a 3e 6c 23 42 be
       -0.036770172 0.49191386 0.24446493 -0.18958825
000050 53 d2 82 3e 10 97 e5 3d ae 05 eb 3d 4f 12 28 3d
       0.2555109 0.112104535 0.11475693 0.041033085
000060 77 65 88 3e 7a 30 55 bd e4 03 0f 3e 50 0f 60 be
       0.26639912 -0.052048184 0.13966328 -0.21880841
000070 43 b3 26 3e e3 46 e9 3d b5 84 04 be c8 9c 32 3f
       0.1627932 0.11390474 -0.12941249 0.6977048
000080 f4 20 5c 3c 91 2e 3c be 59 c4 11 be a6 f2 35 3e
       0.013435591 -0.18377139 -0.14235057 0.17768344
000090 03 e0 f5 bd ba 96 22 be b3 9a 3c 3e 69 a7 ce 3d
       -0.120056175 -0.1587781 0.18418388 0.10090525
0000a0 9a 3b cc 3d 0b 44 92 3d 40 0e b5 3b 00 13 cf bc
       0.099723056 0.071418844 0.0055253804 -0.025277615
0000b0 3d d9 17 3e d7 01 5e bd b1 89 ec bc 3a 7f de 3e
       0.14828964 -0.054200973 -0.02887425 0.4345644
0000c0 65 2a 94 3f 73 4f 7b 3f 94 98 88 3f 38 fd 99 3d
       1.1575438 0.98168105 1.0671563 0.07519001
0000d0 e2 83 d5 3c b0 49 a3 3c d3 19 39 be 6b c2 1e 3e
       0.026063863 0.019932598 -0.18076257 0.15503852
0000e0 58 1a 0b 3e 52 79 6a 3e 10 f3 21 3d 04 ce 17 3e
       0.13584268 0.22897843 0.039538443 0.14824682
0000f0 84 04 b7 3b 97 31 b0 bd 19 81 24 3d 8c cb 96 3f
       0.005585255 -0.086032085 0.04016218 1.1780868
000100 14 4c b6 3f 26 6a 3a 3e 4d da 09 3f f0 d5 3e be
       1.4241967 0.18204555 0.53848726 -0.18636298
000110 8d 7c a6 bc e8 c4 f6 bd c6 68 70 3e 16 39 c2 bd
       -0.020323062 -0.12049276 0.23477468 -0.094835445
000120 71 0a b2 bd d2 c7 34 3e 70 98 86 3d 8e 0f 4b be
       -0.08693398 0.1765435 0.06572044 -0.19830152
000130 4c 0a 83 3e 91 84 c3 bd 9a 64 1b 3d b4 3d 5e 3f
       0.25593793 -0.095467694 0.037937738 0.868129
000140 ed 65 a0 3e 43 e2 1a 3f 95 70 f9 3e 82 af 64 be
       0.31327763 0.605015 0.48718706 -0.22332576
000150 35 c4 45 be 68 db 2b 3d 7b 83 bf bc 43 af c9 3d
       -0.19313128 0.04195729 -0.023378124 0.09847882
000160 23 7c 81 3e 82 6d 2b 3e 18 f5 1a bd d0 15 fd 3c
       0.2529002 0.16740993 -0.037831396 0.03089419
000170 4f 05 ee 3b a5 2b ae 3d 6f 9e 70 bd e5 b0 78 3f
       0.0072638164 0.08504418 -0.058744844 0.9714492
000180 19 c3 92 3f 88 35 9f 3f 29 22 2e 3f 24 9d 02 be
       1.1465789 1.2438211 0.68020874 -0.12755257
000190 0d c7 5f 3f 8e e2 06 3e cf 51 72 3f 93 ca 8b 3f
       0.874131 0.13172361 0.9465608 1.0921196
0001a0 a6 f8 72 3f 70 5d 7b 3f 86 32 35 3e b0 79 d7 bc
       0.9491066 0.9818945 0.17695054 -0.026303142
0001b0 28 9c 84 3f 0e 34 66 3f 92 f0 81 3f 8c 63 74 3f
       1.0360155 0.8992318 1.0151541 0.95464396
0001c0 62 38 dc 3e a5 15 c8 3e f4 b0 84 3e 5c 16 8f bd
       0.43011767 0.39079013 0.25916255 -0.069866866
0001d0 8a 38 27 3e fc 7f 88 bd 14 c5 7f 3e e7 b5 1b 3e
       0.16330162 -0.06665036 0.24977523 0.15206109
0001e0 54 b2 a0 3d f8 a0 14 3e 4e e3 5f be 20 cf dc 3d
       0.078465134 0.1451453 -0.21864054 0.107816935
0001f0 5d f4 94 3d ad 14 83 bd 2e e5 b0 bd 5f 7b 30 3f
       0.07273171 -0.06400428 -0.086374626 0.6893825
000200 c7 64 a8 3e 4e 82 c4 3e ad 33 6f 3e dc 61 02 be
       0.32889387 0.38380665 0.23359556 -0.12732643
000210 d4 20 3a be d0 86 2b 3d ab b2 78 3e e9 fb 87 3e
       -0.18176585 0.041876614 0.24286906 0.2655938
000220 19 32 68 3e ea e8 97 bb f0 8c d8 3c 66 38 28 be
       0.2267536 -0.00463592 0.026434392 -0.16427764
000230 27 97 fc bd ea 21 86 3c 70 31 87 bb 98 26 68 3f
       -0.123335175 0.016373593 -0.0041257665 0.9068389
000240 2a 9b 41 3f b1 a9 3c 3f d9 a5 09 3f bc 67 db 3d
       0.75627387 0.7369643 0.5376869 0.10713145
000250 ae 4c 73 3e 54 89 f5 bd 3a c6 b3 3b 43 0f 5c be
       0.2375972 -0.11989084 0.005486277 -0.21490197
000260 0c e5 07 3c 08 67 8e 3d 7c ec bc 3d e4 e9 a5 3d
       0.008294355 0.069532454 0.09224793 0.08101252
000270 a8 8b 3f 3e 6b ca d1 3d 46 c6 89 3e c9 8c 87 3f
       0.18705618 0.10243686 0.26909083 1.0589839
000280 d0 4b 9e bc 6c c3 ba 3d 80 f7 66 bc d0 4c 7d bd
       -0.01932326 0.09119305 -0.014097095 -0.061840832
000290 2c 24 f9 3d 60 d0 57 3c aa c1 4e be 30 f3 f9 bd
       0.12165102 0.013172239 -0.20191064 -0.122045875
0002a0 40 c6 16 3d c8 9a 61 3e ce e6 62 be 24 02 5b be
       0.03681016 0.220317 -0.22158358 -0.21387535
0002b0 1a a9 1a 3e 48 40 ac bd 08 aa d2 bd c4 cb fb bd
       0.1510357 -0.08410698 -0.10286337 -0.122947246
0002c0 20 65 03 3f 1c ab a0 3e 76 2d 06 3f 1a c7 28 3e
       0.5132618 0.31380546 0.5241312 0.16482201
0002d0 30 8c 17 be 00 30 ea 3d 4c aa b0 bd 46 5a b1 bd
       -0.14799571 0.114349365 -0.086262316 -0.086597964
0002e0 48 af 87 3e 19 0f b5 3b 9e c1 2a be 20 0f 43 bc
       0.26500916 0.0055254814 -0.16675422 -0.011905462
0002f0 5b 89 b0 bd 8d ff 8e 3d ec 18 58 3e 3d fc 77 3f
       -0.086199485 0.06982336 0.21103257 0.9686926
000300 9a ab b4 3d 84 ff 7a 3e 54 b5 ff 3e 4c 65 a3 bd
       0.08821793 0.24511534 0.4994303 -0.07978305
000310 3e 48 16 3c 38 2f 20 be c1 82 6e 3d 67 92 c4 3d
       0.009172497 -0.15643013 0.058230165 0.095982365
000320 c7 57 f1 bc a7 ed 0a 3e 90 57 03 bd 26 82 68 3e
       -0.0294608 0.1356722 -0.032065928 0.22705898
000330 4a d3 ac bd e7 0a bb bd a2 bd 52 3e d4 4c f8 3e
       -0.08438738 -0.09132939 0.20580152 0.48496115
000340 18 ef df 3d f2 d2 59 be 16 bc 31 be b0 ea 32 be
       0.109342754 -0.21271876 -0.17356905 -0.17472339
000350 34 f0 10 be e2 80 14 be cc 0a 7e be 28 47 b3 bd
       -0.1415413 -0.1450229 -0.24808806 -0.08753806
000360 40 f7 7c be 78 d0 a1 bd 00 30 48 bb 80 3f 7b bb
       -0.24703693 -0.079010904 -0.0030546188 -0.003833741
000370 b0 f6 6c bd 9a 40 1f 3e be 6a 38 3e 1c 46 75 3e
       -0.057852447 0.15551987 0.18009469 0.23952526
000380 1e a6 e6 3e 63 b4 a2 3e c1 2d 03 3f 20 0e a6 3d
       0.45048612 0.3177825 0.5124169 0.08108163
000390 43 01 26 3e 2c 67 05 3e 04 03 84 bd 4f b4 0c 3e
       0.16211419 0.13027638 -0.06445888 0.13740657
0003a0 9e 46 49 3e d7 84 5a 3e 00 da 0f bd 18 c8 bb bd
       0.19655845 0.21339737 -0.03512001 -0.09169024
0003b0 6c 62 d6 bd e6 b4 c1 3d b7 55 e1 bd 81 8b 86 3f
       -0.10467991 0.09458332 -0.11002677 1.0511323
0003c0 de 8f ac 3f 70 64 69 3f 0e 21 41 3f 40 3b bd 3d
       1.3481405 0.9116888 0.7544106 0.09239817
0003d0 e4 74 dd 3d 70 69 76 3e 78 04 09 3e 25 47 98 bd
       0.10813311 0.24063659 0.13380611 -0.07435445
0003e0 af 1a d8 bd 56 4c 9e bd b8 6d 69 3d c0 5d 65 bc
       -0.105519645 -0.07729404 0.0569894 -0.0139994025
0003f0 8f 85 49 3d 5d 82 2d be e5 a3 37 3e 8c 6a 9d 3f
       0.049199637 -0.16944261 0.17933615 1.229814

conv1.lin_edge_compact.ue__uplink__ap.1.0.bias f4 [32]
000000 5e 56 e2 3e 6e b6 6c 3d 7e 1a 80 3d b4 ec 12 3d
       0.44206518 0.057791166 0.06255053 0.03587027
000010 7f 50 91 bd 03 55 ea 3d 4a 34 c3 3e d5 03 21 3e
       -0.070954315 0.11441996 0.3812583 0.15724118
000020 ed 1e 35 3e 09 ed 01 3e 60 e2 09 3e 06 cd b5 3e
       0.17687578 0.12688078 0.13465261 0.35507983
000030 85 a7 5a 3e 50 ad 59 bd 46 d2 06 3e e7 4b 2d 3e
       0.21352966 -0.0531438 0.1316615 0.16923486
000040 c0 e1 fc 3d 9c 80 4a 3e b8 11 42 bd 19 64 19 3d
       0.12347746 0.19775623 -0.04738018 0.037448976
000050 f8 7a 2a be 7d 36 79 bb 9c 09 f1 3e cc 62 30 3c
       -0.16648471 -0.0038026862 0.47077644 0.0107657425
000060 a3 3b 38 3e 96 14 61 3b 5a c9 01 3e f0 59 a4 bd
       0.179915 0.0034344546 0.12674466 -0.08024967
000070 ec 8e f6 3e 64 47 f8 bd 3a 54 00 3f 33 7b 81 3e
       0.48155916 -0.12122992 0.5012852 0.25289306

conv1.lin_edge_compact.ap__downlink__ue.0.0.weight f4 [16, 1]
000000 24 2c 14 bf 2a 08 62 3f c9 05 5e 3f ac 78 a9 3a
       -0.57879853 0.8829371 0.8672758 0.001292964
000010 b9 71 77 3e 54 14 9c be 3f 42 e5 3e dd 0c 1f bf
       0.24164476 -0.3048426 0.44777104 -0.62129
000020 c0 c1 57 bf 5d b5 68 3f 00 76 d0 be 89 32 f0 3c
       -0.84280014 0.9090174 -0.40715027 0.029320972
000030 1c fe c5 3e 22 d9 1e bf 32 2b 7e 3e 81 57 cd 3e
       0.38670433 -0.6205007 0.24821165 0.40105823

conv1.lin_edge_compact.ap__downlink__ue.0.0.bias f4 [16]
000000 d8 3d 7d 3f cb eb 72 be cd bf a0 bd cd ff 94 3f
       0.9892249 -0.2372276 -0.07849083 1.1640564
000010 5a b0 7a 3f 1d bf c7 3c 61 02 23 bf 74 8f 12 3f
       0.9792534 0.024383122 -0.63675505 0.5725014
000020 20 52 51 bf 9a 7e 85 3f c0 a3 cd bc 88 ad 0e be
       -0.8176594 1.0429261 -0.025102496 -0.13933384
000030 4a 75 88 3f f0 4d 75 bf 1d 2e 84 3f 99 a8 ae be
       1.0660794 -0.9582205 1.0326573 -0.34113005

conv1.lin_edge_compact.ap__downlink__ue.1.0.weight f4 [31, 16]
000000 68 f2 10 3e 63 25 e2 3e 9a 6f 86 3c eb fe 6d 3c
       0.1415497 0.4416915 0.016410638 0.014526109
000010 58 25 da 3d 07 25 42 be 38 22 47 3e 86 39 d3 3d
       0.10651654 -0.18959437 0.19446647 0.10313706
000020 b8 90 73 bd 4a b9 33 3e b2 23 4c 3e 48 cb db 3d
       -0.059464186 0.17551151 0.19935492 0.10732132
000030 7a 0e ad 3e ae 1a 74 be 6e 7c 62 3e 20 26 55 3e
       0.33800107 -0.23838302 0.22117779 0.20815325
000040 18 c5 45 3e fd a0 5e 3d 01 55 54 3d 25 e7 34 3e
       0.19313467 0.05435275 0.05183888 0.176663
000050 47 e0 08 3c 3c 52 1c be a3 0a 20 3e f8 9d 1f 3e
       0.008354253 -0.15265745 0.15629058 0.15587604
000060 64 c3 12 3e 4d 57 0f 3e 90 9d ef 3d b4 f6 9c 3d
       0.14332348 0.13998146 0.116999745 0.076642424
000070 7d ec 1d be b8 94 51 3e 20 68 f5 3c 48 ba 6c 3e
       -0.15422244 0.20466888 0.029956877 0.23117936
000080 4d d4 36 be 97 73 d2 3d e7 73 3b 3e e1 d1 70 3e
       -0.17854424 0.10275953 0.18305932 0.23517562
000090 09 76 f5 3d 3e ac 2f 3e 3a c9 24 3d ce e9 f1 bd
       0.11985404 0.17155549 0.040230967 -0.11812173
0000a0 30 88 48 be 7f 6c 68 be c0 b8 86 3c b1 1e f2 bd
       -0.19583201 -0.22697638 0.016445518 -0.1182226
0000b0 90 52 4e bc 12 96 60 3e 13 2e f2 bc d3 73 52 be
       -0.012592927 0.21932247 -0.029562986 -0.20551996
0000c0 40 8d 00 be ff b4 78 3d 59 8c 0b 3e 6e 9e a3 3e
       -0.12553883 0.060719486 0.13627757 0.3195681
0000d0 36 26 fe 3c 49 7e bf bd c8 63 6a 3e 63 15 ad 3d
       0.03102408 -0.09350259 0.22889626 0.08451345
0000e0 f8 6b 35 3d e6 e3 83 3e 30 bf 5f 3e 9d d6 3a bc
       0.04429242 0.2575981 0.21850276 -0.011403707
0000f0 80 f2 6e 3e 5c b8 5d be f2 3b 31 bd 3c f1 17 be
       0.23334694 -0.21652359 -0.04327006 -0.14838117
000100 d9 83 b8 3e fa a3 54 bd 90 43 0b 3d 60 b4 1e 3e
       0.36038092 -0.051914193 0.03399998 0.15498495
000110 fe 40 c4 3e 1a 8f 20 bd ec d3 bb 3e 97 dd 19 3c
       0.38330835 -0.039198972 0.3668512 0.00939121
000120 f0 40 59 3d 07 17 80 3e 1a 88 68 be 76 1e 45 bc
       0.053040445 0.25017568 -0.22708169 -0.012031188
000130 f1 ff a5 3d dc e8 ad 3d 97 24 bc 3e 90 c5 93 3e
       0.081054576 0.0849168 0.36746666 0.28861666
000140 eb 04 ff bd d2 a8 70 3e 37 1c ac 3d 1b b6 69 bd
       -0.1245211 0.235019 0.08403819 -0.057058435
000150 3d 33 d9 3d c8 6c c3 bc 8f 7a 34 3a d1 73 a5 3e
       0.10605476 -0.023855582 0.0006884718 0.32314923
000160 86 da 4d 3e c9 a7 69 bb 86 8c 29 be 78 9f d1 3d
       0.20102891 -0.0035652986 -0.16557512 0.102354944
000170 47 f2 f0 3d 50 22 02 bd 19 c3 b3 3e ea b1 4f be
       0.11764961 -0.031771004 0.35109785 -0.20282713
000180 e4 c1 cb bd 96 04 2b be 40 3d 46 3d b2 be 6f be
       -0.09949091 -0.16700968 0.048398256 -0.23412588
000190 56 2f 2b be 88 ba 6d 3d b4 dd 06 be a8 b7 c2 bd
       -0.16717276 0.05803922 -0.1317051 -0.09507686
0001a0 78 e0 02 bd 72 6e 73 be 1e 15 36 be 90 d2 89 3d
       -0.03195235 -0.237726 -0.17781493 0.06729615
0001b0 42 e0 6b be bc 76 24 be e6 d6 66 be e0 a1 66 bd
       -0.23034766 -0.16060919 -0.22542915 -0.05630672
0001c0 62 f0 f3 3d 3f e7 f6 3d 0c dc 9c bd 65 96 d4 3d
       0.11911084 0.120558254 -0.07659158 0.10380248
0001d0 f4 cc 78 bd b1 dd 9c 3d 16 64 5d be f7 47 01 3e
       -0.060742334 0.07659472 -0.21620211 0.12625109
0001e0 9c 22 e1 bd 1b 7f 82 3a 9c 00 65 be f1 ac 13 bc
       -0.10992929 0.0009956093 -0.22363514 -0.0090134
0001f0 ab f4 6d 3e 70 89 68 3e 6b 43 f6 3e e3 a4 66 bb
       0.23237865 0.22708678 0.4809831 -0.0035193495
000200 1f 19 ca ba 3c 6e 68 3e e6 18 c0 3b 6e 74 20 3e
       -0.0015418864 0.22698301 0.005862343 0.15669414
000210 ae 73 11 3e 44 a2 f0 bd a4 ac 72 bd 9e d5 82 3e
       0.14204285 -0.117497 -0.059246674 0.25553602
000220 a4 8f 20 be 8c 3c 5a bd 16 8d 79 3e 9b 32 68 be
       -0.15679795 -0.0532804 0.24370226 -0.22675554
000230 6c 33 0f 3e d4 9e 94 3d fb c4 87 3d 61 37 7d be
       0.1398446 0.072568566 0.06629368 -0.24728157
000240 41 98 6e be 2d 77 3b be e0 93 8b bd 8d 8e 64 3e
       -0.23300268 -0.1830718 -0.06815314 0.22320004
000250 55 29 07 3e 03 5d c2 bd c2 e7 56 3d a1 0b a2 bd
       0.1319936 -0.09490397 0.052467115 -0.07912374
000260 2c 5d 85 bd 88 45 3d 3e 08 2b d7 3d cf 41 52 be
       -0.06511912 0.18483555 0.105062544 -0.20532916
000270 98 2a 4a 3c 6c 69 6f 3e 5e f1 fd bd 92 bb e1 3c
       0.012339257 0.23380059 -0.12399553 0.02755526
000280 32 f6 76 3e d0 ad 8e 3e 29 d7 f6 3c f2 89 a4 3e
       0.24117354 0.27866983 0.030131893 0.32136494
000290 18 a6 96 bc 2d 17 80 3e 61 2e 79 3d 78 df aa 3d
       -0.018389747 0.25017682 0.060835246 0.083434045
0002a0 5a 87 04 3e 69 f0 13 3e 6e 20 65 3e ff d2 2a 3e
       0.12942258 0.14447178 0.22375652 0.16682051
0002b0 4d 5b 4d 3d e8 c9 30 bd bd 83 7c 3e a9 74 9e bd
       0.0501359 -0.043161303 0.24659629 -0.07737095
0002c0 d9 02 e7 3d a4 90 a2 3d 6c d9 0e 3e b8 d2 c4 3d
       0.1127984 0.07937744 0.13950127 0.09610504
0002d0 28 4a 59 3e ec d7 5b be b4 00 96 bd 54 80 d6 3e
       0.21219695 -0.21469086 -0.07324353 0.41894782
0002e0 30 91 50 bd db a6 b5 bd 2c 2d 5c be 6a 6b 09 be
       -0.05091971 -0.08869716 -0.21501607 -0.13419881
0002f0 89 17 7d 3d 32 7b 29 be e9 90 6e bd 72 2c c4 3c
       0.061790023 -0.16550902 -0.058243666 0.023946974
000300 71 ce e3 3d d9 7a 03 3e 3e 48 5a bd 7b 5f 77 3e
       0.1112336 0.12839831 -0.05329155 0.24157517
000310 8f 3a 26 be 69 5a 54 be 71 82 cb 3d b0 5c 59 3b
       -0.16233276 -0.20737614 0.09936989 0.0033166818
000320 e8 2b b9 3d 5f 4e 62 3e 80 55 54 be 0b e0 d0 3d
       0.090415776 0.22100209 -0.2073574 0.10198983
000330 95 2f 34 3e 50 04 96 bd 6d 91 89 3e 82 a8 8f 3e
       0.17596276 -0.07325041 0.26868764 0.2805825
000340 34 c5 ad 3e 60 62 16 3d b7 0a 2f 3d 6d e1 bf bc
       0.33939517 0.03671491 0.042734828 -0.023422921
000350 ac cb 80 bc 0f 7a d1 3c d6 40 49 3e 9f 52 59 3d
       -0.015722118 0.025570897 0.19653639 0.05305731
000360 34 76 13 3e a7 2c 8f 3e 34 a1 1f 3e ce 43 15 be
       0.1440056 0.27963755 0.15588838 -0.14576647
000370 6c ec cc bd e8 52 80 bd 35 ef 4e 3e ce 15 82 3d
       -0.100060314 -0.06265813 0.20208438 0.06351815
000380 fc 0b 87 3e d9 a2 27 be d3 81 16 3e cc ab 02 bc
       0.2637633 -0.16370715 0.14697962 -0.00797553
000390 8c c6 c3 bd 70 38 d9 bd 89 a1 61 3e fc fb b7 38
       -0.09559354 -0.10606468 0.22034277 8.773056e-05
0003a0 c0 60 c1 3d 26 9f 02 be dc 69 dd bd 38 bf f9 bc
       0.09442282 -0.12756023 -0.10811207 -0.030486688
0003b0 36 81 eb 3b 58 52 7a bd 59 4d 6e 3e 29 18 52 3e
       0.007187034 -0.061113685 0.23271693 0.20517029
0003c0 01 de 87 bd 83 ef 60 3e 1e 1c 25 3e 1c c3 ab 3e
       -0.06634141 0.21966366 0.16124007 0.33547294
0003d0 7f 79 2d 3e cc 15 7d 3e a0 ea 3b be ae f6 9f 3e
       0.16940878 0.24715346 -0.18351221 0.3124289
0003e0 8e f9 07 be 58 48 78 3e 38 18 27 3d 4a 4f 80 3e
       -0.13278791 0.24246347 0.04079458 0.25060493
0003f0 17 6a 08 3e 52 53 64 be 66 8f a4 bc ce 25 48 be
       0.1332172 -0.22297409 -0.020087909 -0.19545671

conv1.lin_edge_compact.ap__downlink__ue.1.0.bias f4 [31]
000000 14 5b d5 3e 77 0a 91 3d 0a 73 27 3e c0 57 92 bd
       0.4167105 0.07082074 0.16352478 -0.07145643
000010 1c 6d a4 3e f1 51 b4 3e bc 3f ee bd 62 a9 d4 bd
       0.32114494 0.35218766 -0.1163325 -0.1038387
000020 88 93 03 bd b3 d2 2e bd 98 74 ae 3e 41 cc 74 3d
       -0.03212312 -0.042681407 0.3407333 0.059765104
000030 f1 b3 98 3e 02 ad bb 3e 2f 8c 12 3e d9 64 d6 3c
       0.29824784 0.36655432 0.14311288 0.026171135
000040 f5 5e 96 3d f3 25 84 3e 10 a2 2d 3d 29 2d c2 3e
       0.0734233 0.25810203 0.042390883 0.3792508
000050 f2 7f 6e be 0f 25 95 3e c3 f2 83 3e 74 7a 60 3c
       -0.23290995 0.29129836 0.2577115 0.01370107
000060 d9 e6 d3 3e 6a 84 76 3d d2 d1 4e 3e 30 bb f4 bd
       0.4138706 0.060184874 0.20197228 -0.11949766
000070 14 05 2f 3d bf 0e c9 3e a4 bc ad 3d
       0.042729452 0.39269063 0.08483246

conv1.lin_node_upd.ue.0.0.weight f4 [16, 1]
000000 cd 11 44 3f f9 f8 01 3f b0 ec ac bd bc 4f fe 3e
       0.7658966 0.5077053 -0.08443582 0.49670208
000010 00 d1 07 bc 88 f2 44 bf 70 db b9 bd f8 9b 28 bf
       -0.008289576 -0.76932573 -0.090750575 -0.6586299
000020 20 09 b7 be d2 9d 39 bf 67 4b 86 3f f4 8d 6d 3f
       -0.3574915 -0.7250644 1.0491761 0.9279473
000030 ab 95 dd 3e 58 4d 30 bf c2 a3 0e 3f 6a 72 8f 3f
       0.4327825 -0.6886802 0.55718625 1.1206791

conv1.lin_node_upd.ue.0.0.bias f4 [16]
000000 83 40 83 3f 04 26 9a 3f fe c0 32 bf 6a e0 27 bc
       1.0254062 1.2042851 -0.6982573 -0.010246376
000010 40 48 3a be d0 d3 5c be d2 62 38 3f c6 ae 01 3f
       -0.18191624 -0.21565175 0.7202579 0.5065731
000020 e4 c3 85 3e 9c 94 a4 be f1 11 10 3f 03 68 28 bd
       0.26126015 -0.3214463 0.56277376 -0.04111482
000030 c4 b7 3f 3f d4 cc 7f 3f b8 85 6f bc 4d 31 7f 3e
       0.7488978 0.9992192 -0.014619283 0.2492115

conv1.lin_node_upd.ue.1.0.weight f4 [31, 16]
000000 b0 1e dc bc a4 d2 e5 bd 08 cb a2 3d 8c ea 49 3e
       -0.026870102 -0.11221817 0.079488814 0.19718379
000010 c6 93 34 be d0 ed a7 3d a8 c0 08 3e 34 1d bf bd
       -0.17634496 0.08199656 0.13354743 -0.09331742
000020 60 59 4b bd 80 6f df 3b ae bd 09 be f2 c6 39 be
       -0.04964578 0.0068187118 -0.13451263 -0.18142298
000030 28 10 c2 bd 34 71 d7 bd b2 1d 3c 3e 50 9e a2 bd
       -0.09475738 -0.10519639 0.18370703 -0.07940352
000040 32 1b 33 3d 9d 1d 1a 3d 50 f9 ed bc 03 d2 20 3e
       0.043727107 0.037625898 -0.029049546 0.15705113
000050 4e 9d 36 be 40 36 df bd 7e 5e 0d 3e 22 5e 2e 3e
       -0.17833444 -0.10899019 0.13805577 0.17028096
000060 b6 c3 61 be 80 4b f2 bc d1 4e af 3e 53 f5 27 3e
       -0.22047314 -0.029577017 0.3423982 0.16402178
000070 48 05 a9 3e f0 fd 16 3d d4 61 4d 3e 8e 60 5b 3d
       0.33011842 0.036863267 0.2005685 0.05355888
000080 d6 07 2c be 5a 02 77 3e 50 0e 06 3e a2 09 6c be
       -0.16799864 0.24121991 0.13091397 -0.2305055
000090 30 7d ce 3c 88 91 38 bd d4 49 bc bd a0 e7 89 bd
       0.025206178 -0.045060664 -0.09193769 -0.06733632
0000a0 dc 14 bc bd a8 c1 1b 3e 40 c1 ff bc 58 d8 54 3e
       -0.09183666 0.15210593 -0.031220078 0.20785654
0000b0 b0 78 4a be f8 e5 5c 3e 34 74 5e 3e a8 e8 bc bd
       -0.19772601 0.21572101 0.21724015 -0.09224063
0000c0 43 cd 17 3e 13 fc 03 be 80 c0 fa 3c 30 1e a5 3d
       0.14824395 -0.12889127 0.03060937 0.080623984
0000d0 00 9b 22 3b f0 f4 6b be 24 6c d0 bd e8 95 74 3e
       0.0024811625 -0.23042655 -0.10176876 0.2388531
0000e0 b0 63 e8 bd bc f1 cb 3d 41 93 28 bd a2 b0 77 be
       -0.11347139 0.099582165 -0.041156057 -0.24188474
0000f0 1d fd 52 be b0 bb 38 bd e5 8a de bd a8 0a 57 3e
       -0.20604368 -0.045100868 -0.10866336 0.21000159
000100 1c 4c 5b 3e 45 f5 19 3e 20 6c 3c 3c 18 08 ec 3e
       0.21415752 0.15034969 0.011500388 0.46099925
000110 ac 6c 67 3e 3a 5c 72 be f8 87 a3 3d 10 6a 02 be
       0.22600049 -0.23667994 0.07984918 -0.12735772
000120 f4 3d d9 3d f2 bc 12 3e ab 43 a3 3e c5 2c e1 3e
       0.1060752 0.1432989 0.31887564 0.4397947
000130 fa 6f 4a 3e 16 4b 1b 3e d7 56 bd 3e a7 6d b3 3e
       0.19769278 0.15165362 0.36980316 0.35044596
000140 e0 51 48 be c4 86 de bd 08 a6 3a bd a0 fb 91 3d
       -0.19562483 -0.10865548 -0.045568496 0.07128072
000150 7e 3c 0e 3e ec 74 48 3e 08 bc 63 3e 90 67 bd bc
       0.13890263 0.19575852 0.22239697 -0.023120672
000160 50 71 ac bc ba 9e 6b be 4e 48 65 be 10 1a 9b 3c
       -0.021050125 -0.23009768 -0.22390863 0.018933326
000170 c0 8c a6 bc a8 a1 31 be 98 8b 1a 3d 70 cd d3 3c
       -0.020330787 -0.17346823 0.037730783 0.025854796
000180 6e 6d 30 3e 4a 9b 54 3e 6c 74 79 3e d5 67 c4 3e
       0.17229244 0.20762363 0.24360818 0.38360468
000190 f8 cf ef 3d 7e 08 2e 3e a0 58 69 3e 80 cc 7e 3b
       0.11709589 0.16995427 0.22787714 0.0038879216
0001a0 40 87 d8 3d 68 37 31 bd e4 30 7f 3e fd 2f 57 3e
       0.10572672 -0.04326573 0.24920994 0.210144
0001b0 2e a5 99 3e e0 67 fe bd e8 0d 02 3d 9b b3 75 3e
       0.30008835 -0.12422156 0.031751543 0.23994295
0001c0 6a a0 7e 3e d4 a2 55 bd 40 1a 94 3b 34 d8 33 3d
       0.2486588 -0.052157238 0.004519731 0.04390736
0001d0 a8 f5 be 3d a0 1a 5f be 2c 8d 21 be 30 54 31 bd
       0.09324199 -0.217875 -0.15776509 -0.043293178
0001e0 da 83 0b 3e 0a d9 28 3e 3f 56 7a 3e 9f 50 3a be
       0.13624516 0.16489044 0.24446963 -0.18194817
0001f0 55 bd a9 bd a0 45 57 bd 65 d0 dc bd e1 9f 84 3e
       -0.08288065 -0.052556634 -0.107819356 0.25903228
000200 70 4f 5f bd 70 43 b8 bc d0 cf 5e bd 42 e6 73 be
       -0.054519117 -0.022493094 -0.054397404 -0.23818305
000210 98 3b 7d be 80 55 53 bd e2 06 29 3e 04 71 a1 bd
       -0.24729764 -0.05159521 0.16506532 -0.07882884
000220 00 f8 1b 3c 34 a9 eb 3d 94 c5 29 3e d6 b6 27 be
       0.009519577 0.11506882 0.16579276 -0.1637834
000230 60 9d 45 3c ec 45 1e be e2 22 2a be 74 ed 7a be
       0.012061447 -0.1545636 -0.16614869 -0.24504644
000240 60 dd 78 bd b0 d5 28 be 34 02 f3 3d 08 78 6e be
       -0.060757995 -0.16487765 0.118656546 -0.23287976
000250 fa 70 2b 3e d0 fa f5 bd ac 8b d0 bd 02 42 78 be
       0.16742316 -0.12010729 -0.1018289 -0.2424393
000260 ca 6c 00 be 18 27 55 be 68 45 13 bd 94 f5 98 3d
       -0.125415 -0.20815694 -0.035954863 0.07468715
000270 00 15 a0 bb d8 c0 24 be 34 b4 96 3d a0 ee a4 3d
       -0.004885316 -0.16089189 0.0735859 0.080533266
000280 ea 11 24 be e0 da e6 bc b2 4c 44 be 9e ee 46 3e
       -0.16022459 -0.02818054 -0.19169882 0.19426963
000290 dc 6e bb 3d 82 a5 0d 3e 78 84 7f bd 32 12 26 be
       0.09152004 0.13832667 -0.06238219 -0.16217878
0002a0 5c 7a 56 3e 06 4b 44 3e 7c 50 35 3e 4a bb 45 be
       0.20945114 0.19169244 0.17706484 -0.19309726
0002b0 30 01 2f be 18 e7 10 bd 62 57 17 be 74 f4 19 3e
       -0.17090297 -0.03537664 -0.14779428 0.15034658
0002c0 79 c2 56 3d f0 a2 aa 3e a4 2c 80 3d cd 13 23 3e
       0.052431557 0.33327436 0.062585145 0.15925522
0002d0 40 45 fc bd 74 a2 56 be ba 4f 75 be 6a df 4b be
       -0.12317896 -0.20960408 -0.23956195 -0.19909444
0002e0 14 38 d7 3d f4 c0 87 3d bb 11 56 3e 69 a7 a3 3e
       0.10508743 0.066286 0.20905201 0.3196366
0002f0 c2 a6 0e 3e dc 37 5a 3e b9 25 91 3e d2 46 b3 bd
       0.139308 0.21310371 0.28349093 -0.08753742
000300 20 f1 ad 3d f8 14 2d bd 2e 99 6a 3e 7c 7f 50 3e
       0.084932566 -0.042256325 0.22909996 0.20361131
000310 fa 13 75 3e b0 6c e0 bd d4 60 83 bd 54 9a 47 3e
       0.23933402 -0.109582305 -0.06414953 0.19492465
000320 3a 64 19 be c0 03 04 be 44 86 3b 3e da 23 1a be
       -0.1497964 -0.12892056 0.18312937 -0.15052739
000330 60 a1 43 bc d6 70 2b be a4 15 ae 3d 54 51 7d be
       -0.01194033 -0.16742262 0.08500221 -0.24738055
000340 8a 0e 0d be 92 ff 19 3e b8 62 b2 bd 20 85 7f 3e
       -0.13775077 0.15038899 -0.08710235 0.24953127
000350 a6 30 1b 3e 80 25 f2 bc 90 34 95 bd 2e 33 0d 3e
       0.15155277 -0.029558897 -0.07285416 0.13789055
000360 10 65 82 bc 0c 4d fb bd 9e db 29 be e8 a6 6f be
       -0.015917331 -0.12270555 -0.16587684 -0.23403513
000370 3e 01 6a be 44 f6 ba bd c4 ab d7 bd 8c 18 c2 bd
       -0.22852036 -0.09129003 -0.105308086 -0.09477338
000380 30 09 ed bd ac dd a2 bd e6 35 65 be a0 2e 24 3d
       -0.11574018 -0.07952437 -0.22383842 0.040083528
000390 30 cc 6d be a0 7c 1c bc 50 95 c2 bd 36 ab 7f 3e
       -0.23222423 -0.009551197 -0.09501135 0.24967656
0003a0 54 2e c5 3d e4 78 1e be c0 70 09 bc 30 32 bc bd
       0.09627977 -0.15475804 -0.008388698 -0.0918926
0003b0 00 7e 8f 3d 20 fc 13 3d ae c0 08 3e 50 b5 db 3c
       0.070064545 0.036129117 0.13354751 0.026819855
0003c0 a2 8a 83 3e a9 7d 7c bd 28 1b 74 3d 72 83 7e 3e
       0.25691706 -0.061643276 0.05959621 0.2485483
0003d0 00 0b cf 3d 56 b0 03 be 94 34 3e 3e ec ff d3 3d
       0.1010952 -0.12860236 0.18574744 0.103515476
0003e0 92 47 26 be 28 30 59 bd f2 ea f2 3b 78 94 03 3e
       -0.1623824 -0.05302444 0.0074132616 0.12849605
0003f0 9a 15 2e 3e 40 4b 05 bc ea a5 e4 bd ff 29 bd 3e
       0.17000428 -0.008135617 -0.11164458 0.36946103

conv1.lin_node_upd.ue.1.0.bias f4 [31]
000000 c8 70 8e bd 77 ce 72 ba 58 b2 70 be 8c 30 cc 3d
       -0.06955105 -0.0009262333 -0.23505533 0.09970197
000010 96 a8 fc 3d 78 a0 ac 3d a0 53 16 3e 05 ee f8 3d
       0.12336843 0.084290445 0.14680338 0.121547736
000020 48 61 5e 3d 4c f8 f4 3d ee b8 60 be f2 09 ee bd
       0.054291993 0.11961421 -0.21945545 -0.11622991
000030 7c fa 8b bd b0 80 bc 3c 72 78 72 3e 3c 45 74 3e
       -0.068348855 0.023010582 0.23678759 0.23854536
000040 f6 bf 19 be 4d 53 be 3d 38 0f df 3d 02 8a e0 3d
       -0.15014634 0.09293232 0.108915746 0.10963823
000050 bc 35 8e 3d f4 dd 58 be 92 cd 34 3d 3a 0c 81 bc
       0.06943843 -0.21178418 0.04414136 -0.0157529
000060 b8 da 1d 3e c2 1a 5c 3d 88 16 d8 bd ae 4c a9 bd
       0.15415466 0.053736456 -0.105511725 -0.082665786
000070 d4 4b 2c 3e 25 c8 39 3e 1c de 01 be
       0.16825801 0.18142755 -0.12682384

conv1.lin_node_upd.ap.0.0.bias f4 [16]
000000 00 00 00 00 00 00 00 00 00 00 00 00 00 00 00 00
       0.0 0.0 0.0 0.0
000010 00 00 00 00 00 00 00 00 00 00 00 00 00 00 00 00
       0.0 0.0 0.0 0.0
000020 00 00 00 00 00 00 00 00 00 00 00 00 00 00 00 00
       0.0 0.0 0.0 0.0
000030 00 00 00 00 00 00 00 00 00 00 00 00 00 00 00 00
       0.0 0.0 0.0 0.0

conv1.lin_node_upd.ap.1.0.weight f4 [31, 16]
000000 2e 69 1d 3e 1a dc 7c be 14 87 20 be 88 3a c2 bd
       0.15372154 -0.24693337 -0.15676528 -0.0948382
000010 14 94 f0 3d 70 38 18 3d 6c 6e f7 bd 9c ea 96 bd
       0.11746994 0.037163198 -0.12081608 -0.07368967
000020 00 ea d6 3d 84 2c 49 3e 6e fe 75 3e a8 fe 3c be
       0.10493851 0.19645888 0.24022838 -0.18456519
000030 c0 f9 0d bd 10 c9 e6 bc e0 c5 a5 3d 6a 29 5b 3e
       -0.03466201 -0.028172046 0.08094382 0.21402517
000040 de 2e 6a be a2 a2 5f 3e cc ba dc 3d ca a0 3a 3e
       -0.22869441 0.21839383 0.10777816 0.18225399
000050 00 bc e2 39 9c 17 3c 3e 64 02 84 3d e0 f3 4e 3c
       0.0004324615 0.18368381 0.064457685 0.0126313865
000060 d8 7c 01 3e cc bd 96 bd 80 64 06 3d 2c 31 ba bd
       0.1264528 -0.0736042 0.032810688 -0.0909141
000070 a8 ad 2a 3d 90 50 c9 3d 64 61 64 3e a8 89 65 3d
       0.041669518 0.09829819 0.22302777 0.056039482
000080 04 d9 25 be 04 0b 8c bd 00 16 64 3c 70 ca f0 3d
       -0.16196066 -0.068380386 0.013921261 0.11757362
000090 c8 a4 a1 bd 34 10 33 3e fc 6a 1c be a0 46 54 3c
       -0.07892758 0.1748665 -0.15275186 0.012956291
0000a0 b4 94 0a be 40 3d bc bc e0 46 b0 bc 0e d8 45 be
       -0.13533288 -0.022978425 -0.02151817 -0.193207
0000b0 a0 5a 5c bd dc 09 b6 3d c0 ec 91 bd 52 ef 09 3e
       -0.053797364 0.08888599 -0.071252346 0.134702
0000c0 8e 32 5b be 86 79 7e 3e b6 e6 18 be a8 07 2e bd
       -0.21406004 0.24851045 -0.14931759 -0.04248777
0000d0 80 be e0 3d a0 67 51 3c 5c 02 9d 3d 22 04 21 be
       0.10973835 0.012781054 0.07666466 -0.15724233
0000e0 36 1c 3a 3e 54 03 a1 bd 00 e9 e3 3a c8 3d 61 3d
       0.18174824 -0.07861963 0.0017388165 0.05499056
0000f0 00 e0 d0 39 20 c9 2b be 3c 55 77 3e 3c 38 e8 bd
       0.00039839745 -0.16775942 0.24153608 -0.11338851
000100 be 78 08 be 4c f3 c6 3d b0 2e f2 3d ac ab d7 bd
       -0.1332731 0.09714374 0.11825311 -0.10530791
000110 d6 2e 4b be 76 95 47 3e 0c 52 78 be f4 ba bd 3d
       -0.19842085 0.19490609 -0.24250048 0.09264174
000120 b0 8d 4a bd d4 4a 5d 3e 1a 21 5e be f2 ac 37 be
       -0.04945153 0.21610576 -0.21692315 -0.17937067
000130 6c ae 9f bd 1a 5f 27 3e 18 2c b4 bd a0 a3 0c 3e
       -0.0779694 0.16344872 -0.08797473 0.13734293
000140 98 b2 23 3d 60 33 c8 3d 46 d1 3b be 74 f9 c9 bd
       0.039965242 0.09775424 -0.1834155 -0.098620325
000150 b0 98 aa bc 64 79 23 be 80 d2 a8 bd 40 9d 88 3c
       -0.02082476 -0.15964276 -0.08243275 0.016676545
000160 58 71 6e be 34 d5 6f 3e e0 1e 9e 3c 00 df e6 ba
       -0.23285425 0.23421174 0.019301832 -0.0017614067
000170 40 53 dc 3b d4 59 48 be 46 05 49 3e 0c 4e 45 be
       0.0067237914 -0.19565517 0.19630918 -0.19268054
000180 72 3b 72 be 58 da c1 bd 98 fb ed 3d b2 1b 4b 3e
       -0.23655489 -0.09465474 0.11620253 0.19834784
000190 7c ae 89 bd 70 7f 34 3e 20 2e b5 bc f0 ec bc 3d
       -0.067227334 0.17626739 -0.02211672 0.0922488
0001a0 a0 76 3a bd 80 b2 2e 3b a2 03 04 be 0a 54 51 be
       -0.045523286 0.0026656687 -0.12892011 -0.20442215
0001b0 f2 e3 39 3e fa 39 6c be 1c e8 76 be b8 02 9b bd
       0.1815336 -0.23068991 -0.2411198 -0.07568878
0001c0 a4 d2 39 3e dc a7 b4 3d 14 35 5b 3e 78 dd e7 3d
       0.1814676 0.08821079 0.21406966 0.11321539
0001d0 68 1d 52 bd 20 27 b6 bd 4c 92 8d bd 6c eb 10 be
       -0.051297575 -0.08894181 -0.069126695 -0.14152306
0001e0 04 fa 4a 3e aa fd 60 3e 94 bb f9 bd 6a 3a 3f be
       0.19821936 0.21971765 -0.12193981 -0.18674627
0001f0 a8 5b cf bd 04 1c d0 3d a4 70 79 be ac 13 22 3e
       -0.10124904 0.101615936 -0.24359375 0.15827817
000200 40 ec 63 3c 9a 18 04 3e 18 87 3f 3d 60 5e 41 bd
       0.013911307 0.1290001 0.046759695 -0.047209144
000210 72 2d 5e be 08 c7 19 3e b4 16 db 3d 54 ad 83 3d
       -0.21697024 0.1501733 0.1069769 0.06429544
000220 f8 34 1c be ca 5d 54 3e 9c 1c 23 be 56 ec 3f be
       -0.15254581 0.20738903 -0.15928882 -0.18742499
000230 30 50 60 bd 40 43 16 3e 02 85 54 3e 1a 9e 4c be
       -0.054763973 0.14674091 0.20753863 -0.19982186
000240 b8 a8 23 be 76 bc 7f 3e a0 c2 23 be f0 7b 05 be
       -0.1598233 0.24974236 -0.15992212 -0.1303556
000250 bc b6 01 3e f0 e2 f2 3d f8 84 63 3d 68 8c 8e bd
       0.12667364 0.11859691 0.05554673 -0.06960374
000260 8e a8 38 be f0 4c 96 3c 80 0d 60 bd 80 3b c1 3b
       -0.18033049 0.018347234 -0.054700375 0.0058969855
000270 3a 77 7d 3e 74 33 a6 3d be 1f 3e be 28 0b 3f be
       0.24752513 0.08115283 -0.18566796 -0.186566
000280 36 b6 01 be 40 b0 d4 3c 52 fc 02 be e2 d3 77 be
       -0.12667164 0.025962949 -0.12791565 -0.2420192
000290 40 21 03 3c 40 58 bf bc 74 1d e7 bd 88 02 1c 3d
       0.008003533 -0.02335751 -0.112849146 0.03808835
0002a0 20 b9 54 bc f4 cb 5f 3e 58 84 e3 3d c0 86 fa 3d
       -0.01298359 0.21855146 0.11109227 0.12232733
0002b0 e2 46 4b 3e 80 67 3b 3c ce 20 2b 3e 50 70 a8 3d
       0.19851258 0.011438251 0.16711733 0.08224547
0002c0 74 7f eb 3d 0a 0f 1f 3e 14 cc cc bd 70 8d e2 3d
       0.11498919 0.1553308 -0.09999862 0.11062133
0002d0 50 fe 36 3d aa a3 12 be e4 3f cf bd 4e 85 34 be
       0.044676125 -0.14320245 -0.10119608 -0.17628977
0002e0 ec d3 a7 3d 32 f7 26 3e 80 e9 62 3d 1e b5 69 3e
       0.08194718 0.16305235 0.055398464 0.22822997
0002f0 2a 5e 0b 3e 90 34 43 3e 7a 9f 2b 3e 1e 04 2f 3e
       0.1361014 0.1906302 0.16760054 0.17091414
000300 06 d6 50 3e 26 6a 0a be 00 bd be 3a c0 c0 16 3d
       0.20394143 -0.13517055 0.0014552176 0.036804914
000310 80 8b c2 bc 80 c0 fd bc 40 9e 3c bd 00 12 fc 3d
       -0.02374816 -0.03097558 -0.046049356 0.12308121
000320 98 bd bc bd 68 40 ac bd 40 7b 10 3c 84 b2 93 bd
       -0.0921585 -0.08410722 0.008818448 -0.072117835
000330 3a b5 7a be 40 09 89 3c 4a 23 07 3e 20 21 4b 3e
       -0.24483195 0.016728044 0.13197055 0.19836855
000340 82 be 3a 3e 00 d7 bd bb 6a 8e 24 be 18 3e 70 bd
       0.18236735 -0.0057934523 -0.16069952 -0.058652967
000350 bc a9 2f 3e 50 31 9c 3d 88 8a e2 bd ba 36 4d be
       0.17154592 0.07626593 -0.11061579 -0.20040408
000360 c0 6e a0 3d 00 7b 1b 3e 80 c2 67 3c 00 50 37 bb
       0.07833624 0.1518364 0.0141454935 -0.0027971268
000370 58 67 13 bd bc 4c 70 be 68 b2 4b 3d 42 51 2d be
       -0.03598723 -0.23466772 0.04973069 -0.16925529
000380 66 a0 37 3e 42 a5 3a be 8e d0 2b be 7c 7d 2c be
       0.17932281 -0.18227103 -0.16778776 -0.16844743
000390 40 f4 ac bd 0c 67 e0 bd ec bb a4 3d 08 22 2a 3e
       -0.084450245 -0.10957155 0.08043656 0.16614544
0003a0 28 b0 5f 3e c8 ef 97 bd 3c b4 ab 3d 5e b0 30 be
       0.21844542 -0.074187815 0.08383986 -0.17254779
0003b0 fa 25 34 be ac bf d7 3d 2e b7 09 be 3a 00 40 3e
       -0.17592612 0.105346054 -0.13448784 0.18750086
0003c0 ea 82 2e 3e 00 d1 e0 3d 88 60 14 bd 60 30 76 3e
       0.17042127 0.109773636 -0.036224872 0.24041891
0003d0 be 20 11 3e c0 11 9e 3b 28 5d 3e 3e 0c d4 d8 3d
       0.14172646 0.0048238933 0.18590224 0.1058732
0003e0 0e 90 5b be a0 1b 56 3d 94 09 0a be 0a af 14 3e
       -0.21441671 0.05227244 -0.13480216 0.14519897
0003f0 7a 69 58 3e 30 65 b4 3d ba bb 25 3e 6c 8b f3 3d
       0.21133986 0.088083625 0.16184893 0.11891827

conv1.lin_node_upd.ap.1.0.bias f4 [31]
000000 f8 42 bf bd 26 63 3e be 2c 6d 1e 3e 26 5f 66 3e
       -0.09338945 -0.1859251 0.15471333 0.22497234
000010 54 55 af bd e0 95 bb 3d 24 05 14 be 10 09 22 3e
       -0.08561197 0.09159446 -0.14455086 0.1582377
000020 02 78 0b 3e 56 af 00 3e 90 8c 5e be e8 97 da bd
       0.13619998 0.12566885 -0.21733308 -0.10673505
000030 e0 49 51 bd ec 04 aa 3d 28 cf d3 3d 3e b7 72 be
       -0.051095843 0.0830172 0.10342246 -0.23702714
000040 9e b3 1f 3e d4 e5 45 be 44 e6 5d be 54 2b 92 3d
       0.15595862 -0.19325954 -0.2166987 0.071371704
000050 e8 59 ad bd 40 c5 a6 3b a0 3b 02 bd 48 7c 13 be
       -0.08464414 0.005089432 -0.031795144 -0.14402878
000060 82 da 33 3e 18 53 06 bd bc 57 4b be 0a e7 04 be
       0.17563823 -0.032794088 -0.19857687 -0.1297876
000070 3c b7 13 be 2c b0 e6 bd 90 26 51 3e
       -0.14425367 -0.11264071 0.20424867

conv2.lin_node_msg.ue.0.0.weight f4 [16, 32]
000000 fc 2f 15 be dc db 2e be 15 e1 4a bc 74 4c 4f 3c
       -0.14569086 -0.17076057 -0.012382765 0.012652505
000010 ea 92 37 bd 78 10 73 bd d9 d2 e8 3d 4b 25 90 3c
       -0.044817843 -0.059341878 0.11368341 0.017595908
000020 0d 6f 11 bd 15 41 34 bd ad 6b 94 3c ca e8 a9 bd
       -0.035506297 -0.04400738 0.01811775 -0.08296354
000030 a6 a2 2b be 38 1c f8 bc f4 25 06 3e aa 01 8e 3d
       -0.16761264 -0.030286893 0.13100415 0.06933911
000040 c2 56 45 bd 18 64 cb 3d 2d a2 13 be 1a 30 12 be
       -0.04817844 0.09931201 -0.14417334 -0.14276162
000050 58 2f 5d 3d db b8 2a bd f7 e2 fb bc 88 69 f1 bd
       0.05400023 -0.0416802 -0.030747874 -0.117877066
000060 26 2f 5c bd 02 43 d5 ba 5d ea 02 3e a5 74 b6 3b
       -0.0537559 -0.001627058 0.12784715 0.0055681043
000070 a2 68 d8 3d 39 1c 1a 3e fc fe 92 3b 1b 21 c1 3d
       0.10566832 0.15049829 0.004485963 0.094301425
000080 23 29 c7 3c 08 94 e3 bd 93 9a 8e bd 14 e1 16 3e
       0.024311608 -0.11112219 -0.069630764 0.14734298
000090 4f 60 d9 3d c6 82 29 be 07 b7 68 bd b8 db 90 3d
       0.106140725 -0.16553792 -0.056815173 0.07073158
0000a0 17 95 13 be cb ec 52 3d b2 91 16 be 46 8e d0 bb
       -0.14412342 0.051495355 -0.14704016 -0.0063646166
0000b0 12 1e 87 bb 34 25 0a be 5e ab cb 3d cf 8d a0 bd
       -0.0041234577 -0.13490754 0.09944795 -0.07839548
0000c0 2d 2f 70 3d 60 3e b4 bd b9 a2 31 3e 1f 92 c1 bd
       0.05863874 -0.088009596 0.1734723 -0.094516985
0000d0 6b 2b 18 3e 38 de 3b bb 37 85 d8 3c 4a 22 da 3d
       0.14860313 -0.0028666388 0.02643071 0.10651071
0000e0 48 fa 5d 3b bf bd af bd 3e 80 10 3e 21 d7 1d bd
       0.0033871103 -0.08581113 0.1411142 -0.03853524
0000f0 3b 71 de 3d 0d 60 a1 3c e8 98 08 be 9a 7d 10 3e
       0.10861441 0.01969912 -0.13339579 0.14110413
000100 d1 3a 31 3e 9a c4 9d 3d 52 d8 aa 3b c2 b6 1e be
       0.17307593 0.077035144 0.0052137757 -0.15499404
000110 79 55 ac bd 4d 9d e9 3d 17 56 08 be b8 dd 3a bc
       -0.0841474 0.11406956 -0.1331409 -0.011405401
000120 98 35 15 be 2b af d6 ba 6c 36 ad bd da 98 1e be
       -0.14571226 -0.0016379108 -0.08457646 -0.15487996
000130 d7 f0 0e be b9 41 b2 bd 31 c8 19 be 8b a7 b4 3d
       -0.1395906 -0.08703942 -0.15017773 0.08821019
000140 d6 f2 f6 bd da 96 60 3c f5 18 06 be 2e 18 30 bb
       -0.12058036 0.013707841 -0.13095458 -0.002686988
000150 04 fb eb bd f1 f6 a7 3d 0b 3a f7 3d 26 11 20 be
       -0.11522487 0.08201397 0.12071618 -0.15631542
000160 6f 78 ed 3d 33 87 ea 3c 67 9b 20 3e b8 8b db 3d
       0.115952365 0.028628921 0.15684281 0.107200086
000170 3a b1 14 be 5c e7 d6 bd 97 13 fa bc 95 67 03 be
       -0.14520732 -0.10493347 -0.03052692 -0.12832482
000180 f5 9b 01 be c0 84 05 3e c8 66 05 3c 6f c2 63 bd
       -0.12657149 0.13038921 0.008142181 -0.05560535
000190 80 3d da 3d 44 a6 0e 3e c2 8b c3 3c af 9d ca 3d
       0.106562614 0.13930613 0.023870353 0.09893357
0001a0 49 71 2e 3d 36 be 0a be 63 1d 03 3e 51 ae 04 3c
       0.042588506 -0.13549122 0.12804179 0.008098201
0001b0 f7 96 c2 3d e3 e0 0e bd 11 e6 fe bc c7 c0 e3 bd
       0.095014505 -0.034882437 -0.031115564 -0.11120754
0001c0 a9 86 e5 bd 05 36 07 be 4e ec 1d be 36 5f 27 3e
       -0.11207325 -0.132042 -0.15422174 0.16344914
0001d0 eb f3 0f be b1 8d 8c 3d cf dc 02 3e 1d 06 ae 3d
       -0.14057891 0.06862963 0.12779544 0.0849726
0001e0 bc 6b f4 3d 36 20 25 3e 7b c0 8c bc 5c f5 32 3c
       0.11934611 0.16125569 -0.017181626 0.010922756
0001f0 2d 61 60 3d da 21 83 bc 38 c1 b7 bd 2f df 16 be
       0.054780174 -0.016007353 -0.089724004 -0.14733575
000200 71 fb a0 bd e1 2a 9e 3c 8e 8c f9 3d 28 a3 ac bd
       -0.07860459 0.019307556 0.12185012 -0.08429557
000210 4b 27 ed 3d 67 48 4c 3d 59 c5 fd 3c e9 ba ae bd
       0.1157976 0.049873736 0.030977892 -0.08531744
000220 24 a9 ca bd 12 c1 b1 bd d9 43 ca bd c9 5e 76 3d
       -0.09895542 -0.08679403 -0.09876222 0.060148988
000230 e1 80 c8 3b d9 9f cf bc c6 17 ba 3c 7c 5b 01 be
       0.006118879 -0.025344776 0.022716414 -0.12632555
000240 12 e7 fa bd 1e 35 a7 bd d5 60 17 3d c3 38 f9 bd
       -0.122511044 -0.08164428 0.03695758 -0.121690296
000250 db b3 e4 bd 5e a7 32 3e f1 bc d0 bb 7e 95 51 bd
       -0.11167117 0.17446658 -0.00637018 -0.051167957
000260 0f 0d 9a 3d d3 89 de 3d 48 7d a6 3d 9e 42 29 be
       0.07522022 0.10866132 0.08129364 -0.16529319
000270 20 87 80 bd 14 2a 73 bd fa e2 a3 bd bb 6a 18 3e
       -0.06275773 -0.0593663 -0.08002277 0.14884464
000280 ff e3 0b be 62 ec 1e be 2b 5b 26 be 91 84 27 bd
       -0.13661192 -0.1551986 -0.16245715 -0.04089791
000290 ef 3b 0a be c8 9f 2a be bf 89 b0 bd 56 aa 9e bc
       -0.13499425 -0.16662514 -0.08620023 -0.019368332
0002a0 b5 d8 0b 3d fe 5a d7 bb 53 09 33 3e 0d 58 8c 3d
       0.034142215 -0.0065721264 0.17484026 0.06852732
0002b0 74 4c 1a 3e c6 53 49 bc 29 8f ac bd 2d 3a c7 bd
       0.15068227 -0.01228804 -0.08425743 -0.09727893
0002c0 02 14 1a be 0c f1 26 3e 84 47 48 3c 86 5a c3 bc
       -0.15046695 0.1630289 0.012224082 -0.023846876
0002d0 0d b9 18 be 1b 70 1a 3c 34 41 09 3e 0e a9 27 be
       -0.14914341 0.009426142 0.1340378 -0.16373083
0002e0 86 74 0d 3e 9c 5d f7 bd 82 d7 3e 3c b8 db 9c bd
       0.13813981 -0.120784014 0.011648061 -0.076590955
0002f0 c8 a6 07 be d0 e0 94 bd 7b c8 09 3e 63 ae 18 bd
       -0.13247216 -0.07269442 0.13455383 -0.037275683
000300 b3 81 1f 3e 3a d7 18 3e 5e 10 c3 bc ae 2a c2 bd
       0.1557682 0.14925852 -0.023811515 -0.09480797
000310 06 02 65 3d 22 a1 23 3e 75 90 9c 3d 85 b8 30 be
       0.055910133 0.15979436 0.076447405 -0.17257889
000320 f0 c0 29 3e cd 78 98 3d 7d 65 29 3e 3c 5e ce 3d
       0.16577506 0.07444916 0.16542621 0.100765675
000330 c6 7a d6 3d a7 6a 33 bd 77 6e b9 bd 90 8d 01 bd
       0.10472636 -0.043802883 -0.090542726 -0.031629145
000340 93 95 b7 bd ee 8d 0e be f9 0e 26 be ea ec 1f 3e
       -0.08964076 -0.1392133 -0.16216649 0.1561772
000350 09 30 22 3e f4 d5 07 3e eb 49 ac 3c cc 90 d1 3d
       0.15838636 0.1326521 0.02103134 0.10232696
000360 83 1e cb 3a f5 6d 91 3d 46 84 82 bd e8 e5 66 3d
       0.0015496764 0.07101051 -0.063728854 0.0563716
000370 43 b2 19 3e 48 c7 33 be 44 df 57 bd 63 a3 22 3e
       0.15009408 -0.17556489 -0.052703157 0.1588264
000380 6a bb 51 bd 47 0d 3e bd e0 b7 c5 3d 23 d5 20 3e
       -0.051204123 -0.04639938 0.09654212 0.15706305
000390 c2 60 29 bd 31 85 97 3d fe 79 60 3d 23 cc d4 3d
       -0.04135204 0.07398451 0.05480384 0.103904985
0003a0 86 20 2c 3e 5c 46 93 bc 5e ac 87 bd 6b 3a ef 3d
       0.16809282 -0.017977886 -0.06624673 0.11681064
0003b0 86 7b 02 bd 98 6b 80 bd 61 dd 0c 3e 33 cd 34 bd
       -0.031856082 -0.06270522 0.13756324 -0.044141006
0003c0 b3 a8 ff bc ae 09 00 3e fd 3a 37 bb c4 93 c3 bd
       -0.031208372 0.12503693 -0.0027958744 -0.095496684
0003d0 87 4c dc bd 33 28 c1 3d fb c6 fd 3d ea 79 1f 3e
       -0.10756784 0.094314955 0.12391468 0.1557385
0003e0 f9 2b df bd a0 5f ca 3d 7c 10 95 3d 8d d3 8e 3d
       -0.10897059 0.0988152 0.07278535 0.06973944
0003f0 7a 84 a3 bd c0 c7 d4 bc cc 75 26 3e 0e bd 0a be
       -0.07984252 -0.025974154 0.16255873 -0.13548681

conv2.lin_node_msg.ue.0.0.bias f4 [16]
000000 d6 bb 22 3d 38 53 20 3d 1c 6e cc bd 7f 7a 15 3e
       0.039729916 0.039141864 -0.09981939 0.1459751
000010 ca b6 00 3e 76 59 26 3d 49 ac 58 3d c5 c2 f7 bb
       0.12569728 0.04061266 0.05289868 -0.00756106
000020 cc 70 d6 3d 81 c3 00 be c6 2e cf bd d9 c6 04 be
       0.10470733 -0.12574579 -0.10116343 -0.1296648
000030 ee 19 9a bd f6 b9 30 3e 06 ec 86 3d ed 7e 35 3b
       -0.07524477 0.17258438 0.06587987 0.0027694062
