Model/5000sam32batch_cpu.pth (torch, 120162 bytes, 79 tensors)

conv1.lin_node_msg_compact.ue.0.0.weight f4 [16, 1]
0.7152305 -0.1153599 0.4168052 -0.28194165 1.2005097 1.1941912 0.96486205 0.4226499
-0.48472822 1.3102617 0.87760013 -0.14111245 0.7162337 0.5929583 0.01620245 0.77957886
00000000: 5919 373f d041 ecbd 7e67 d53e a85a 90be
00000010: 4daa 993f 42db 983f 3301 773f 9165 d83e
00000020: 4c2e f8be a8b6 a73f 67aa 603f c87f 10be
00000030: 175b 373f 1dcc 173f 00bb 843c 7b92 473f

conv1.lin_node_msg_compact.ue.0.0.bias f4 [16]
0.79666823 0.07604563 0.9092558 -0.059473395 -0.007662247 -0.15167822 -0.4961227 0.86398727
-0.42722273 -0.37252218 0.6598977 0.7252499 0.9336932 1.139677 -0.7925503 -0.32770532
00000000: 73f2 4b3f d0bd 9b3d fdc4 683f 609a 73bd
00000010: 9613 fbbb 8951 1bbe cb03 febe 452e 5d3f
00000020: f0bc dabe 3abb bebe 0eef 283f faa9 393f
00000030: 8406 6f3f f0e0 913f 94e4 4abf fec8 a7be

conv1.lin_node_msg_compact.ue.1.0.weight f4 [32, 16]
-0.055811703 0.09653252 0.04763639 0.08548838 -0.026675731 0.21447918 -0.23891282 -0.06300241
-0.19074145 -0.08116618 -0.1126861 0.068317235 -0.118154496 -0.19083133 0.17737609 0.11370811
0.27363178 0.03968221 0.2949873 -0.19871181 0.122912355 0.42376164 0.26034293 0.16000806
0.09450346 0.51149803 0.42632654 -0.18772456 0.4673517 0.29518425 -0.24090067 0.52575845
-0.07697889 0.030373603 -0.24524131 -0.17908514 -0.18020824 0.033488363 -0.0034142435 -0.24645585
0.11555794 -0.19939408 0.2196773 0.17092794 0.038220048 -0.15398979 -0.22803554 0.22347689
-0.18303725 0.14336428 0.24050885 0.10051051 0.014782369 -0.18723688 0.22714436 -0.00079774857
-0.11607924 -0.20985276 0.073111355 0.080183 -0.20213613 -0.04145336 0.11090657 -0.18521318
0.13088632 -0.064233184 0.089580655 0.019591272 -0.06318274 0.13582563 -0.15865204 -0.11137554
0.14508492 -0.07573566 -0.09775385 0.099803805 -0.020955592 -0.16110566 0.15241191 0.17360848
0.13754016 0.15803948 -0.13980353 -0.21420476 0.14216843 -0.2425353 0.11576009 0.1933716
0.22543734 -0.17148858 -0.1087935 0.17006275 -0.1204212 -0.12644354 -0.0545215 -0.20923012
-0.04722765 0.23430264 0.044457406 0.032923937 -0.17708051 0.014118224 -0.02371496 0.041887045
0.019438177 -0.18838948 -0.0017691851 -0.0673922 -0.19565243 -0.071222216 0.06387362 0.2206907
-0.18893442 -0.22426745 -0.20844582 0.032758027 -0.039334446 -0.03122747 0.06225145 -0.08531317
-0.020162016 0.13709015 0.11639804 0.04899913 -0.06941387 -0.028945118 0.04263568 -0.04103574
-0.0911313 0.026090294 0.056841165 0.11749908 -0.16868913 -0.02562961 -0.20326602 0.106220126
0.095395654 -0.12389767 -0.16130364 0.20366934 -0.22480133 -0.025844812 0.24149323 0.13728535
0.23018533 -0.019631714 0.223981 -0.06454438 0.06547767 -0.117477834 -0.03750992 -0.17769054
-0.016940296 -0.16138828 0.19157141 -0.17489523 -0.114662886 -0.20653516 0.011294156 -0.24876925
0.11629799 0.085063994 0.0045976937 -0.07356009 0.22367153 0.05797103 0.052413255 0.06158638
0.18519494 -0.23950309 -0.18207824 -0.1089282 -0.11236471 -0.10216305 -0.18777382 0.031464577
0.26969686 0.19364488 0.44209296 -0.008610696 0.19556451 0.20962156 0.4372379 0.15914302
-0.107883275 0.49473596 0.15689634 -0.102911025 0.40526867 0.41435838 0.13243994 0.3869646
-0.11309045 -0.08465299 0.07173957 -0.24681857 -0.1533988 0.14307387 0.21832342 -0.03266807
0.20311522 0.0003487654 -0.043142356 -0.13395697 0.14708221 -0.1821359 0.12670964 -0.20382644
0.0011391044 0.018460333 -0.19334114 0.13699421 -0.1386129 -0.1065785 0.15562445 0.2320947
0.15812877 -0.12328187 -0.20884076 -0.09631556 -0.062992066 0.092140645 0.027057618 0.22032988
0.417956 -0.122589886 0.395228 -0.14701402 0.47710282 0.13087547 0.23010276 0.5088001
-0.109116346 0.45492798 0.48557994 0.068431646 0.59980196 0.4013492 0.027660012 0.379872
-0.15371567 0.050141513 0.06832713 0.095364064 -0.2463449 -0.16835803 0.15093306 -0.131998
-0.23063174 -0.0008200705 0.00969696 0.09845728 0.009578615 -0.07476878 -0.17378837 -0.24955308
00000000: d09a 64bd d8b2 c53d 601e 433d 8814 af3d
00000010: 1087 dabc 6ea0 5b3e 90a5 74be 6807 81bd
00000020: ba51 43be 743a a6bd f8c7 e6bd e8e9 8b3d
00000030: fcfa f1bd 4a69 43be 14a2 353e ccdf e83d
00000040: 7719 8c3e d089 223d 9308 973e 1c7b 4bbe
00000050: 79b9 fb3d 49f7 d83e ab4b 853e 27d9 233e
00000060: 088b c13d 89f1 023f 7947 da3e de3a 40be
00000070: b948 ef3e 6422 973e aaae 76be 1b98 063f
00000080: 1ca7 9dbd 10d2 f83c 8a20 7bbe 1862 37be
00000090: 8288 38be 182b 093d 80c1 5fbb ec5e 7cbe
000000a0: a4a9 ec3d f62d 4cbe 16f3 603e bc07 2f3e
000000b0: a08c 1c3d 80af 1dbe 2682 69be 20d7 643e
000000c0: 1e6e 3bbe 16ce 123e f447 763e 74d8 cd3d
000000d0: c031 723c 06bb 3fbe 8898 683e 0020 51ba
000000e0: f4ba edbd a4e3 56be 68bb 953d fc36 a43d
000000f0: c6fc 4ebe 00cb 29bd fc22 e33d 86a8 3dbe
00000100: 1007 063e b08c 83bd 1076 b73d e07d a03c
00000110: f465 81bd e015 0b3e ae75 22be dc18 e4bd
00000120: 2491 143e 4c1b 9bbd 2c33 c8bd f065 cc3d
00000130: 10ab abbc e2f8 24be de11 1c3e 6cc6 313e
00000140: 54d7 0c3e 1ad5 213e a828 0fbe 7e58 5bbe
00000150: 9a94 113e 2c5b 78be a013 ed3d 3403 463e
00000160: 0cd9 663e b49a 2fbe 20cf debd ee24 2e3e
00000170: 649f f6bd 6a7a 01be f051 5fbd 6c40 56be
00000180: c871 41bd 08ed 6f3e f818 363d 40db 063d
00000190: 9854 35be 2050 673c e045 c2bc c091 2b3d
000001a0: d03c 9f3c 2ce9 40be 00e4 e7ba ec04 8abd
000001b0: 1c59 48be f4dc 91bd 2cd0 823d befc 613e
000001c0: 0678 41be 5ea6 65be d272 55be 482d 063d
000001d0: 281d 21bd c0d0 ffbc 60fb 7e3d acb8 aebd
000001e0: d02a a5bc 5c61 0c3e 1862 ee3d 50b3 483d
000001f0: dc28 8ebd 501e edbc c0a2 2e3d 1815 28bd
00000200: 0ca3 babd 50bb d53c 48d2 683d 5ca3 f03d
00000210: d8bc 2cbe 30f5 d1bc f824 50be f089 d93d
00000220: cc5e c33d 10be fdbd c82c 25be b28e 503e
00000230: 5232 66be 80b8 d3bc 004a 773e 8894 0c3e
00000240: b4b5 6b3e b0d2 a0bc 465b 653e d82f 84bd
00000250: 2819 863d 3898 f0bd 00a4 19bd 82f4 35be
00000260: 60c6 8abc f842 25be 4c2b 443e bc17 33be
00000270: 60d4 eabd f47d 53be 200b 393c 5ebd 7ebe
00000280: a42d ee3d 0836 ae3d 40a8 963b aca6 96bd
00000290: 260a 653e 0873 6d3d 48af 563d 0042 7c3d
000002a0: bea3 3d3e 4c40 75be b872 3abe c015 dfbd
000002b0: 781f e6bd dc3a d1bd c847 40be 00e1 003d
000002c0: b515 8a3e d84a 463e 025a e23e e013 0dbc
000002d0: 1042 483e 09a7 563e a5dd df3e 63f6 223e
000002e0: e8f1 dcbd 084e fd3e 6fa9 203e 04c3 d2bd
000002f0: 607f cf3e c826 d43e 569e 073e 3920 c63e
00000300: f79b e7bd 8c5e adbd 32ec 923d 02be 7cbe
00000310: 9314 1dbe f581 123e 2d90 5f3e f4ce 05bd
00000320: 70fd 4f3e 80da b639 0ab6 30bd 042c 09be
00000330: b89c 163e d581 3abe 2cc0 013e e1b7 50be
00000340: 004e 953a 203a 973c 38fb 45be 3648 0c3e
00000350: 8af0 0dbe d445 dabd 045c 1f3e 3caa 6d3e
00000360: 82ec 213e 347b fcbd 5ada 55be 1841 c5bd
00000370: fc01 81bd 3cb4 bc3d f0a7 dd3c 289e 613e
00000380: 54fe d53e 6810 fbbd 535b ca3e d88a 16be
00000390: d246 f43e 3804 063e 0fa0 6b3e b940 023f
000003a0: 6478 dfbd 52ec e83e ef9d f83e e425 8c3d
000003b0: 9f8c 193f a47d cd3e 4097 e23c 957e c23e
000003c0: a467 1dbe 3061 4d3d 18ef 8b3d 3c4e c33d
000003d0: d641 7cbe 0c66 2cbe 328e 1a3e 7c2a 07be
000003e0: ba2a 6cbe 00fa 56ba 00e0 1e3c f8a3 c93d
000003f0: a0ef 1c3c 6020 99bd 94f5 31be d88a 7fbe

conv1.lin_node_msg_compact.ue.1.0.bias f4 [32]
-0.03041783 0.53310287 0.0956606 0.021410674 0.05420834 -0.07605249 -0.021769553 -0.19954148
-0.18364999 0.14041778 0.090091586 0.3939692 -0.18442112 0.14712325 0.40742293 0.09520182
-0.028908134 -0.14478305 0.20244487 0.27515918 -0.09043908 -0.0072720707 0.34193245 0.07407719
-0.15932769 0.078271605 0.19882601 0.053352892 0.0663937 0.48115188 -0.13564172 0.51661414
00000000: d02e f9bc 6e79 083f b4e9 c33d 7065 af3c
00000010: 9009 5e3d 68c1 9bbd 1056 b2bc 9a54 4cbe
00000020: be0e 3cbe aec9 0f3e f081 b83d 55b6 c93e
00000030: e4d8 3cbe 7aa7 163e bd99 d03e 2cf9 c23d
00000040: c0d0 ecbc 0242 14be b54d 4f3e aae1 8c3e
00000050: 2038 b9bd 8d4a eebb c511 af3e c8b5 973d
00000060: cc26 23be dd4c a03d 0c99 4b3e 9088 5a3d
00000070: 6cf9 873d 8a59 f63e aae5 0abe d340 043f

conv1.lin_edge_compact.ue__uplink__ap.0.0.weight f4 [16, 1]
-0.51070327 0.1250989 -0.65441024 -0.7862334 -0.114139065 0.3970918 -0.8243127 0.8874217
-0.002055148 -0.00019273568 -0.5202925 0.93009734 0.97282934 -0.29014385 -0.4025223 0.12638067
00000000: 73bd 02bf ed19 003e 6e87 27bf 9846 49bf
00000010: bec1 e9bd 9e4f cb3e 2806 53bf 122e 633f
00000020: a9af 06bb 1719 4ab9 e431 05bf dc1a 6e3f
00000030: 580b 793f bc8d 94be 6717 cebe ef69 013e

conv1.lin_edge_compact.ue__uplink__ap.0.0.bias f4 [16]
1.110122 0.72000927 -0.7032095 -0.018783092 0.60834914 0.37404647 -0.28488088 -0.32540715
-0.86508787 0.9534407 1.3151846 0.7919978 0.50490594 -0.32510614 0.8708255 -0.07911525
00000000: 7a18 8e3f 8752 383f 8a05 34bf 00df 99bc
00000010: c5bc 1b3f 0583 bf3e e8db 91be c49b a6be
00000020: 6676 5dbf b114 743f f857 a83f 5ec0 4a3f
00000030: 8441 013f 5074 a6be 6cee 5e3f 2d07 a2bd

conv1.lin_edge_compact.ue__uplink__ap.1.0.weight f4 [32, 16]
0.09235937 0.20859353 0.15104198 0.11491719 0.2041964 0.18635131 -0.2225804 0.19282836
0.18269436 0.37202567 0.15146233 0.057318307 0.013399251 -0.15628883 0.23496899 -0.051665954
0.46366307 0.33610058 0.14147276 -0.1356996 0.19110274 0.2498392 0.092163175 -0.015042674
-0.14339854 0.26548016 0.44197336 -0.20096864 0.07495196 -0.02348873 0.11928198 0.090531915
0.037979893 0.14475901 -0.13665605 -0.19585592 -0.2221038 -0.009283446 0.082947075 -0.097751655
-0.18028612 0.113971956 -0.29527077 0.034859717 -0.05257782 -0.24684712 0.093027264 0.17622894
-0.16360615 -0.22135079 0.017356157 -0.057642758 -0.22414842 -0.19084565 0.18209201 -0.102024786
-0.043358326 -0.1160592 0.233629 -0.029463835 0.15504321 -0.20828068 -0.22530699 -0.10361989
0.30251837 0.28842032 -0.024313956 0.15269843 0.20558353 -0.1286657 0.12615559 0.06727873
0.12353113 0.5252011 0.61866283 0.14446953 -0.18500054 0.21787858 0.36962762 -0.034865115
-0.120143846 -0.17290391 0.017134696 -0.16357046 0.013048759 0.023569604 -0.113814 0.011218706
-0.2043575 -0.15302284 0.08161045 0.07369699 -0.15372579 0.14983904 -0.22159596 0.18292859
-0.15815082 0.16053426 0.23245141 -0.1736117 -0.015992492 -0.09459174 -0.20125318 -0.0710752
0.08813539 -0.105342954 0.08409476 -0.23345298 -0.22496006 -0.16704935 -0.029462993 0.058896005
0.29564452 0.14997596 0.24838233 0.19267395 0.37915772 -0.032687634 0.039044112 -0.025451131
-0.10228256 0.44494396 0.6485483 0.11091013 -0.1201957 0.1329431 0.22420847 0.23230276
0.44765097 0.11207384 -0.049383044 -0.100920916 0.19061169 0.09899468 0.24607253 0.09677725
0.059882995 0.45825636 0.20924808 0.043722045 0.16428508 0.24365705 0.39856505 -0.20738205
0.17729084 0.07536987 -0.21890715 -0.117984414 0.19118835 0.16748202 -0.04877484 -0.32090524
0.19304152 0.19574724 0.26832116 0.07372353 0.16039526 -0.033625454 0.4266454 0.0034049016
0.37854782 0.2005104 0.018434137 0.06145799 0.29172772 0.048189867 0.072862 0.1979953
0.09569411 0.25937736 0.30396014 0.20114096 0.05872432 0.13612843 0.38396308 0.12661245
0.3925734 0.27465427 -0.23569247 -0.035844952 0.45975104 0.139745 -0.12694368 -0.16657262
0.02341816 0.019367727 0.3535632 0.10908728 -0.040722616 -0.19888511 0.4694163 -0.047747586
0.09949932 -0.26775965 0.074545115 -0.16658589 0.05476527 -0.11837586 0.117230356 0.09115727
0.18492633 -0.03891767 -0.09281596 -0.004218665 0.011738824 -0.24164003 -0.268004 -0.283148
0.32471642 -0.14583975 -0.15352717 0.19956556 0.098796375 -0.050534874 -0.23650452 -0.13506263
-0.052501645 0.20665494 -0.037240762 0.119187035 -0.09599908 -0.21023226 0.16236356 0.1574441
0.30631015 0.32863843 -0.034781724 -0.057957888 0.5717516 -0.029995248 -0.06740311 0.19115864
0.063685976 0.040745165 0.5964785 0.13873424 0.23386979 -0.11766443 0.21214105 0.14943111
0.118273385 0.19478185 0.13281515 -0.1354292 -0.2689156 0.12404773 0.033886313 -0.14182249
-0.21088344 -0.14469145 0.14285938 -0.053502005 -0.2557301 0.11341518 -0.26394197 0.008391339
00000000: e926 bd3d 8b99 553e c0aa 1a3e b459 eb3d
00000010: dc18 513e e1d2 3e3e 1eec 63be cc74 453e
00000020: 3b14 3b3e 267a be3e f118 1b3e 9ac6 6a3d
00000030: 8888 5b3c 2e0a 20be b69b 703e ae9f 53bd
00000040: 3f65 ed3e 6015 ac3e 3cde 103e d6f4 0abe
00000050: 70b0 433e d9d5 7f3e 0cc0 bc3d 8c75 76bc
00000060: 11d7 12be 04ed 873e 554a e23e b9ca 4dbe
00000070: 6a80 993d 706b c0bc 1c4a f43d cc68 b93d
00000080: ce90 1b3d b53b 143e 90ef 0bbe 748e 48be
00000090: 2e6f 63be 9819 18bc 28e0 a93d 0532 c8bd
000000a0: ed9c 38be 216a e93d bb2d 97be 10c9 0e3d
000000b0: d75b 57bd 7ec5 7cbe 1485 be3d 5c75 343e
000000c0: 5f88 27be c8a9 62be 802e 8e3c d01a 6cbd
000000d0: 2a87 65be 0b6d 43be 5476 3a3e 5ff2 d0bd
000000e0: 8098 31bd 72b0 edbd 713c 6f3e 245e f1bc
000000f0: a6c3 1e3e 8847 55be e0b6 66be aa36 d4bd
00000100: b0e3 9a3e d4ab 933e 102e c7bc fa5c 1c3e
00000110: 7d84 523e f1c0 03be ee2e 013e 6ec9 893d
00000120: e4fd fc3d 9473 063f b060 1e3f d2ef 133e
00000130: c870 3dbe 901b 5f3e d53f bd3e b9ce 0ebd
00000140: fa0d f6bd b90d 31be 105e 8c3c 047f 27be
00000150: 76ca 553c 0b15 c13c 5017 e9bd aace 373c
00000160: 1843 51be 05b2 1cbe 6123 a73d 73ee 963d
00000170: 4b6a 1dbe 686f 193e 0dea 62be a251 3b3e
00000180: 4af2 21be 1863 243e be07 6e3e 44c7 31be
00000190: b002 83bc 50b9 c1bd 5015 4ebe e08f 91bd
000001a0: 5480 b43d 0cbe d7bd e039 ac3d 4c0e 6fbe
000001b0: ee5b 66be fc0e 2bbe 605c f1bc f03c 713d
000001c0: b85e 973e 4c93 193e f057 7e3e 524c 453e
000001d0: f620 c23e 78e3 05bd b8ec 1f3d e47e d0bc
000001e0: 8579 d1bd b2cf e33e 4307 263f da24 e33d
000001f0: 2a29 f6bd 3c22 083e e896 653e c6e0 6d3e
00000200: 8232 e53e f886 e53d e045 4abd a0af cebd
00000210: b62f 433e b9bd ca3d 70fa 7b3e 2733 c63d
00000220: df47 753d 94a0 ea3e 2145 563e e315 333d
00000230: 593a 283e 3c81 793e b810 cc3e f65b 54be
00000240: bb8b 353e 855b 9a3d 3229 60be d0a1 f1bd
00000250: e1c6 433e 6880 2b3e 20c8 47bd b14d a4be
00000260: adac 453e f771 483e 6461 893e 5dfc 963d
00000270: a83e 243e d8ba 09bd 4471 da3e c524 5f3b
00000280: 05d1 c13e 9952 4d3e 3003 973c 60bb 7b3d
00000290: 565d 953e bd62 453d ac38 953d 48bf 4a3e
000002a0: 46fb c33d 1ccd 843e aaa0 9b3e e5f7 4d3e
000002b0: ea88 703d 4065 0b3e cf96 c43e b2a6 013e
000002c0: 61ff c83e 7c9f 8c3e 5e59 71be 28d2 12bd
000002d0: 7d64 eb3e 5019 0f3e 86fd 01be 0392 2abe
000002e0: 71d7 bf3c 11a9 9e3c 3c06 b53e 2769 df3d
000002f0: c2cc 26bd 8aa8 4bbe 5557 f03e f992 43bd
00000300: 4dc6 cb3d cb17 89be 1cab 983d 7e95 2abe
00000310: 8c51 603d 0b6f f2bd 7816 f03d aab0 ba3d
00000320: 545d 3d3e 2268 1fbd 4b16 bebd ba3c 8abb
00000330: 3254 403c 7c70 77be d237 89be c6f8 90be
00000340: 3b41 a63e 0457 15be 3a36 1dbe ea5a 4c3e
00000350: c155 ca3d a8fd 4ebd 3e2e 72be dc4d 0abe
00000360: f70b 57bd 5a9d 533e c589 18bd 5518 f43d
00000370: 2a9b c4bd 2047 57be a242 263e 0739 213e
00000380: afd4 9c3e 4c43 a83e 4877 0ebd 4065 6dbd
00000390: 505e 123f 98b8 f5bc a40a 8abd 17bf 433e
000003a0: cb6d 823d 67e4 263d d1b2 183f 5910 0e3e
000003b0: 907b 6f3e 0cfa f0bd 813b 593e 7804 193e
000003c0: 5139 f23d e574 473e b200 083e f4ad 0abe
000003d0: 4eaf 89be bc0c fe3d 60cc 0a3d ea39 11be
000003e0: d4f1 57be ff29 14be bb49 123e eb24 5bbd
000003f0: 0eef 82be 3846 e83d 6723 87be d47b 093c

conv1.lin_edge_compact.ue__uplink__ap.1.0.bias f4 [32]
0.17946291 0.53282666 -0.24023758 0.016365638 0.43136787 0.009932233 0.23311883 0.607778
0.39126086 0.26974994 0.5497985 0.2844824 0.19184677 0.30441266 0.14092575 0.083810695
0.2174539 -0.00037404895 -0.12872258 -0.01632145 -0.07455352 -0.23357351 0.36087093 -0.12383863
0.026498497 0.47160134 -0.2864055 -0.10957433 0.30527326 0.014287032 -0.08923151 0.24180631
00000000: 20c5 373e 5467 083f d700 76be 3b11 863c
00000010: 40dc dc3e ceba 223c b4b6 6e3e 5797 1b3f
00000020: 5853 c83e aa1c 8a3e 98bf 0c3f ada7 913e
00000030: 7b73 443e fadb 9b3e d74e 103e f1a4 ab3d
00000040: 3cac 5e3e 001c c4b9 dacf 03be 90b4 85bc
00000050: 84af 98bd e52d 6fbe 13c4 b83e 1c9f fdbd
00000060: 6013 d93c bb75 f13e bea3 92be 8268 e0bd
00000070: c74c 9c3e 2814 6a3c 03bf b6bd 139c 773e

conv1.lin_edge_compact.ap__downlink__ue.0.0.weight f4 [16, 1]
-0.9434935 0.91622925 -0.9697238 0.6898172 0.552291 -0.67026436 -0.25374135 0.042873655
0.9720317 -0.16931641 0.92526424 0.026560418 -0.16740203 -0.2784214 -0.4968686 0.20799018
00000000: ca88 71bf 008e 6a3f d23f 78bf dc97 303f
00000010: f162 0d3f 7296 2bbf 63ea 81be 499c 2f3d
00000020: 12d7 783f 4861 2dbe 1ede 6c3f 3c95 d93c
00000030: 706b 2bbe 408d 8ebe 9065 febe 61fb 543e

conv1.lin_edge_compact.ap__downlink__ue.0.0.bias f4 [16]
-0.61488485 0.10520086 -0.35013473 0.49472764 0.6772655 -0.52857316 -1.5147323e-06 0.6350349
0.008331046 -0.36781526 0.57915074 0.87192494 -5.3514763e-05 -0.01678145 -0.089194894 0.5835616
00000000: 1869 1dbf 8c73 d73d dc44 b3be f14c fd3e
00000010: 4661 2d3f 9250 07bf ce4d cbb5 a691 223f
00000020: f17e 083c 4852 bcbe 3943 143f 7936 5f3f
00000030: 0a75 60b8 4079 89bc d0ab b6bd 4b64 153f

conv1.lin_edge_compact.ap__downlink__ue.1.0.weight f4 [31, 16]
-0.013621271 0.00028187037 0.13026312 0.03532347 -0.19194743 -0.08309975 0.037620068 0.030625135
-0.048229426 0.18168503 -0.06944311 -0.13602874 0.0028996468 -0.20295182 -0.046672493 0.196262
0.18017468 -0.05569032 -0.04179597 0.11301881 -0.061782718 0.16289777 -0.0665324 -0.17064291
-0.18602484 0.08064023 -0.20895118 0.204501 0.0743655 0.13471079 0.06399825 0.12789741
0.24239513 0.18096094 0.17442784 0.16044672 0.5376815 0.1725196 0.05544814 0.2661661
0.26428434 0.15166864 0.12623619 0.44543394 -0.08457336 -0.16748413 0.06557396 0.103185445
-0.110871494 0.27786803 0.16711527 0.32164496 0.009107311 -0.03567362 -0.12765194 -0.1646252
0.27353165 0.19258049 0.16194864 0.32585317 -0.15368453 0.21152663 0.10173768 0.3532838
-0.052150756 -0.2207773 -0.024484783 -0.21931699 -0.04874018 -0.025731474 -0.21983677 0.011462808
-0.1763503 -0.10519537 0.09728435 0.042931467 -0.16955552 0.20738053 0.14605302 0.0332219
-0.15401849 0.27269825 -0.10848969 0.18663937 0.31369808 -0.05819586 0.06420507 -0.20687552
0.32735378 -0.06881353 -0.06590717 0.21768774 -0.09018501 0.029765725 -0.07418522 0.21355775
-0.17921168 -0.06171965 -0.12078923 0.30530977 0.22811334 0.094266176 -0.102020875 0.30054417
0.35593593 -0.1433472 0.39939192 0.2928996 -0.0372658 -0.066684514 -0.17031631 0.5153507
0.24560463 0.11817873 0.21028957 -0.08934665 0.25987083 -0.22201234 -0.15602428 0.27493608
0.29505533 0.19496468 0.12593818 0.08752337 0.025195599 0.132608 0.019323826 0.29380018
-0.16315976 0.116395146 0.16663092 0.29685083 0.23669538 -0.0093097985 -0.064737715 0.12424778
0.13312677 0.032763153 0.33298397 0.41119623 -0.16408253 -0.095167875 -0.20685944 0.3216087
-0.04702279 0.085383154 -0.043961942 0.34012985 0.17696026 0.10444996 0.15480271 0.18846482
0.16252106 -0.08503035 0.29794478 -0.0033941078 -0.17534626 0.020766884 -0.0416663 0.30484194
0.09680852 0.020654142 -0.041734576 -0.19830647 0.045949467 -0.14756575 0.15222305 -0.13645826
0.019733246 0.18963635 0.034848306 0.049225032 0.24048677 -0.17279959 0.23262304 0.16246504
0.14875802 -0.04059781 0.23196545 -0.089343354 0.2669969 0.065968245 -0.2167819 0.071899034
0.28679204 -0.21118325 0.189428 0.37006116 -0.23516044 -0.20627517 0.088535756 0.30348957
-0.16750187 0.05444204 0.17560616 0.19346698 0.15825401 0.06486359 -0.14685588 -0.17701785
0.25472164 -0.06559613 0.24436729 -0.12596081 0.10845867 -0.066988975 0.1828739 -0.112819776
0.07178441 -0.20490527 0.20259658 -0.14076778 0.059564233 -0.11683166 0.14422661 -0.17127913
-0.11222875 0.050031275 0.013110876 0.106761515 0.05371943 -0.1158621 0.23157272 0.024312913
-0.08060759 0.27801266 -0.12816891 0.32538277 0.10206008 -0.1811297 -0.21403901 0.11284158
0.27632022 -0.22654775 0.24762249 0.2741788 0.24419296 0.15500394 0.23846433 0.4587847
0.16708714 0.203098 0.095835805 0.12004328 -0.1657154 0.03250116 0.15400022 -0.19130972
-0.19574574 -0.024810255 -0.22622845 -0.18447098 -0.11148459 0.22399244 -0.21976385 0.07205489
00000000: c02b 5fbc 00c8 9339 b263 053e 58af 103d
00000010: de8d 44be 3430 aabd 8017 1a3d 90e1 fa3c
00000020: 388c 45bd a40b 3a3e 3038 8ebd 1e4b 0bbe
00000030: 0008 3e3b 9ad2 4fbe a82b 3fbd e8f8 483e
00000040: b67f 383e 881b 64bd 4032 2bbd 6876 e73d
00000050: e00f 7dbd acce 263e 2442 88bd 04bd 2ebe
00000060: 4c7d 3ebe b426 a53d 4cf7 55be b668 513e
00000070: f04c 983d a0f1 093e 8411 833d 8af7 023e
00000080: 6e36 783e d34d 393e 369d 323e 254c 243e
00000090: 7fa5 093f faa8 303e 971d 633d ec46 883e
000000a0: 4750 873e 064f 1b3e 0f44 013e eb0f e43e
000000b0: cc34 adbd f680 2bbe a44b 863d e452 d33d
000000c0: 9810 e3bd b844 8e3e 4420 2b3e a6ae a43e
000000d0: d536 153c 801e 12bd 31b7 02be 8293 28be
000000e0: 570c 8c3e d233 453e ddd5 253e 3ad6 a63e
000000f0: 7a5f 1dbe 709a 583e d85b d03d 9de1 b43e
00000100: 089c 55bd 7213 62be 5094 c8bc a294 60be
00000110: c8a3 47bd d0ca d2bc e41c 61be 80ce 3b3c
00000120: 2c95 34be ac70 d7bd 043d c73d e8d8 2f3d
00000130: f69f 2dbe 905b 543e ec8e 153e b013 083d
00000140: 06b7 1dbe 1b9f 8b3e d82f debd 641e 3f3e
00000150: 099d a03e c85e 6ebd f37d 833d 2dd7 53be
00000160: ea9a a73e 1cee 8cbd 57fa 86bd 89e9 5e3e
00000170: ebb2 b8bd 40d7 f33c 6cee 97bd e2ae 5a3e
00000180: 4483 37be becd 7cbd 5860 f7bd 9051 9c3e
00000190: 8b96 693e a00e c13d 52f0 d0bd ede0 993e
000001a0: 3c3d b63e 9cc9 12be 197d cc3e f0f6 953e
000001b0: 06a4 18bd e491 88bd 6667 2ebe 06ee 033f
000001c0: c87f 7b3e b107 f23d 2656 573e 60fb b6bd
000001d0: ca0d 853e 3457 63be d4c4 1fbe 6cc4 8c3e
000001e0: 7e11 973e d2a4 473e f0f5 003e 743f b33d
000001f0: 0067 ce3c 64ca 073e 004d 9e3c fa6c 963e
00000200: 5a13 27be 9460 ee3d 4ca1 2a3e d5fc 973e
00000210: 4660 723e 2088 18bc 3595 84bd 9f75 fe3d
00000220: 6252 083e a832 063d e07c aa3e 5088 d23e
00000230: 4005 28be 60e7 c2bd f6d2 53be e5a9 a43e
00000240: f89a 40bd 5ddd ae3d 7011 34bd 8025 ae3e
00000250: 1235 353e dce9 d53d 9a84 1e3e ecfc 403e
00000260: ec6b 263e 6424 aebd 388c 983e ae6f 5ebb
00000270: f88d 33be 501f aa3c 48aa 2abd 3e14 9c3e
00000280: 8c43 c63d e032 a93c e0f1 2abd da10 4bbe
00000290: 8235 3c3d 7a1b 17be 5ce0 1b3e b7bb 0bbe
000002a0: 9ea7 a13c 0830 423e 19bd 0e3d 30a0 493d
000002b0: 2a42 763e 60f2 30be bc34 6e3e 3c5d 263e
000002c0: 0654 183e e449 26bd 5a88 6d3e a6f9 b6bd
000002d0: d1b3 883e 5c1a 873d 13fc 5dbe cd3f 933d
000002e0: 68d6 923e 6c40 58be 6af9 413e a878 bd3e
000002f0: e6cd 70be cc39 53be 3c52 b53d fc62 9b3e
00000300: 9c85 2bbe 9efe 5e3d 1ad2 333e 351c 463e
00000310: 570d 223e 34d7 843d 6361 16be 2b44 35be
00000320: e06a 823e 4457 86bd 6b3b 7a3e dffb 00be
00000330: 941f de3d 8431 89bd 4c43 3b3e 0e0e e7bd
00000340: b403 933d b0d2 51be 7a75 4f3e 6e25 10be
00000350: a0f9 733d 7045 efbd 24b0 133e cc63 2fbe
00000360: 30d8 e5bd 98ed 4c3d 00cf 563c c8a5 da3d
00000370: e808 5c3d 1c49 edbd 6621 6d3e e02b c73c
00000380: 9815 a5bd ad57 8e3e b63e 03be 9298 a63e
00000390: e004 d13d 107a 39be 0b2d 5bbe 7c19 e73d
000003a0: d879 8d3e 22fc 67be c090 7d3e 2a61 8c3e
000003b0: b80d 7a3e 5ab9 1e3e fe2f 743e d4e5 ea3e
000003c0: e418 2b3e ecf8 4f3e 9045 c43d 40d9 f53d
000003d0: 4cb1 29be f01f 053d 3cb2 1d3e b2e6 43be
000003e0: 9271 48be e03e cbbc 6ea8 67be f6e5 3cbe
000003f0: 0852 e4bd 465e 653e c609 61be 8491 933d

conv1.lin_edge_compact.ap__downlink__ue.1.0.bias f4 [31]
0.036120594 -0.23320863 0.38413125 0.014702019 -0.122745335 0.033316724 0.3240597 -0.22868581
0.29895437 -0.03766718 -0.14288041 0.30511743 -0.12527123 -0.16742209 0.076714456 -0.12144101
-0.22024247 -0.022280017 -0.27281967 -0.0028680284 -0.20424302 -0.13246083 -0.24115714 -0.10386595
0.38274202 0.019857442 0.41797274 0.41311648 -0.17264867 -0.39690402 0.36846015
00000000: 30f3 133d 3ece 6ebe daac c43e bde0 703c
00000010: e861 fbbd 1e77 083d 27eb a53e 9d2c 6abe
00000020: 8c10 993e e748 1abd 3e4f 12be 5a38 9c3e
00000030: 1a47 00be b270 2bbe 781c 9d3d 10b6 f8bd
00000040: 3e87 61be 9584 b6bc 05af 8bbe 88f5 3bbb
00000050: 1525 51be d0a3 07be e6f1 76be acb7 d4bd
00000060: c3f6 c33e 13ac a23c 8600 d63e 0184 d33e
00000070: d0ca 30be 0137 cbbe cfa6 bc3e

conv1.lin_node_upd.ue.0.0.weight f4 [16, 1]
0.9181275 0.80954564 0.59456307 0.9188947 1.2549775 0.3834673 -0.94269323 -0.39045167
0.83188856 0.7271119 0.8523441 -0.5200428 -0.97508883 0.7357792 0.9049088 1.3555226
00000000: 670a 6b3f 623e 4f3f 4935 183f af3c 6b3f
00000010: 1aa3 a03f d355 c43e 5854 71bf 48e9 c7be
00000020: a6f6 543f 0124 3a3f 3933 5a3f 8621 05bf
00000030: 6c9f 79bf 075c 3c3f 1aa8 673f c481 ad3f

conv1.lin_node_upd.ue.0.0.bias f4 [16]
0.21265939 -0.059459075 1.2390589 -0.17428474 0.7794358 -0.28082463 0.5813365 -0.96102774
0.17048238 0.2514459 -0.67374593 0.19208086 0.39412308 0.60504603 0.6173659 -0.1943578
00000000: 62c3 593e 5c8b 73bd 7b99 9e3f b377 32be
00000010: 1b89 473f 3fc8 8fbe 78d2 143f ea05 76bf
00000020: ef92 2e3e 84bd 803e 9d7a 2cbf d8b0 443e
00000030: 80ca c93e 4ce4 1a3f b10b 1e3f bb05 47be

conv1.lin_node_upd.ue.1.0.weight f4 [31, 16]
0.10676703 0.22265244 0.15402368 -0.22027457 -0.054673254 0.23171261 -0.23565513 0.052568644
-0.08033067 0.20699435 -0.2273536 0.06204459 -0.175156 0.14590874 -0.20047224 -0.19746587
0.32646722 0.27048844 0.3954318 0.13841723 0.43908548 0.4236957 0.21718147 -0.07210606
0.49339664 0.4532805 0.40356198 0.015352637 0.19008043 0.35388482 0.3475885 0.37806627
-0.052176237 0.23223025 -0.24020657 0.1359978 -0.24784157 0.20240462 -0.16334474 -0.051146835
-0.17009023 -0.16207397 -0.09359297 -0.17040834 0.108367324 0.20971522 -0.18707603 -0.20964587
0.06226355 -0.19582719 -0.11561248 0.099718004 -0.15140179 0.21423051 0.20514733 0.061489582
-0.03777322 0.12447876 0.24032807 0.04989764 0.09176239 -0.17388937 -0.1381801 0.026230276
-0.0321458 0.14048928 -0.18604106 -0.13603374 -0.12141842 -0.24188638 -0.12493098 -0.059623986
-0.050328463 -0.09482691 0.05643043 -0.035161793 -0.0074496567 -0.08210802 0.19929248 0.07820648
0.20679773 -0.13296832 0.1600289 -0.07597973 -0.053271513 -0.13757701 0.20024979 -0.16753277
0.001837799 0.043758295 -0.0872535 0.08606553 0.18885022 -0.27219978 -0.23563646 0.18782331
0.085580036 -0.024376573 0.11704488 0.27045217 0.13554904 -0.0125524355 -0.08889365 -0.22641593
0.268704 -0.07929477 -0.07285315 -0.22120106 0.04170233 0.17866006 0.07027378 0.27864534
0.11498955 0.19739124 0.0259597 -0.11099365 -0.050569415 -0.1015867 -0.042485297 0.043542266
-0.22735825 0.0059536994 0.09220737 -0.24929991 0.14654815 -0.24490863 0.0063429773 -0.24382079
0.07765209 0.18268433 0.17376156 0.09603163 0.19373609 0.15821213 0.01214537 0.22307953
-0.25175723 -0.097917445 0.19864482 -0.07435951 0.13320526 -0.24031964 -0.26240084 -0.1977867
-0.060226794 -0.03206862 0.03335774 0.19599903 0.18431906 0.011632161 0.24720696 -0.09745887
-0.19396085 -0.12690215 -0.07046842 0.16673884 0.11749348 -0.062167782 0.08271913 -0.07436634
0.07134508 0.40920663 0.057586312 0.21140109 0.39131528 0.086829275 0.24789333 -0.07141495
0.31947324 0.18649572 0.36094823 0.24003088 0.20079166 0.4168861 0.4322646 0.4416544
0.037767727 0.15354228 0.04751558 0.23840272 0.39494705 0.019801974 0.03233981 -0.16705433
0.06643586 -0.03149627 0.3632737 0.11606422 -0.07422337 0.11007851 0.066824496 0.27410543
-0.20935261 -0.1143333 0.106998086 0.002808988 -0.17270952 0.20466873 0.1231364 -0.102277845
0.16677192 -0.23212382 -0.11205369 -0.114123106 -0.21071097 0.19775566 0.18489146 0.04075098
0.44044986 0.5211028 0.412405 0.39751503 0.46962222 0.24312669 -0.17315 0.065053016
0.5440571 0.2733526 0.42440677 0.003046304 -0.09892741 0.41431814 0.5661893 0.41068786
0.10259394 0.18958715 -0.0063836067 0.27229276 -0.008780437 0.23321137 0.107070595 -0.031071633
0.31042996 -0.014127599 0.008545863 0.1678307 0.23423287 -0.04231931 0.314205 0.27937266
-0.09271324 0.21045083 -0.09405935 0.20034027 -0.2088314 0.20427403 0.21199164 -0.07575172
-0.21113122 -0.11689186 0.1236417 -0.23458105 -0.19037983 -0.057329923 -0.10633102 0.18778712
00000000: aca8 da3d 00ff 633e 62b8 1d3e a88f 61be
00000010: 10f1 5fbd 1246 6d3e 944f 71be 3852 573d
00000020: 6884 a4bd 54f6 533e 62cf 68be 7822 7e3d
00000030: 185c 33be 1a69 153e 9848 4dbe 7e34 4abe
00000040: b626 a73e 767d 8a3e 0976 ca3e 3fbd 0d3e
00000050: d0cf e03e a5ee d83e d264 5e3e 58ac 93bd
00000060: 7c9e fc3e 6214 e83e ad9f ce3e a089 7b3c
00000070: 72a4 423e 6430 b53e 1ff7 b13e e791 c13e
00000080: c0b6 55bd c4cd 6d3e b6f8 75be 0243 0b3e
00000090: 2eca 7dbe 2843 4f3e d843 27be 587f 51bd
000000a0: 222c 2ebe b8f6 25be acad bfbd 867f 2ebe
000000b0: b0ef dd3d 96bf 563e dc90 3fbe 68ad 56be
000000c0: 1008 7f3d ec86 48be 3cc6 ecbd f438 cc3d
000000d0: 1209 1bbe 3e5f 5b3e 2412 523e 80dc 7b3d
000000e0: 18b8 1abd b8ee fe3d 9018 763e 7861 4c3d
000000f0: eced bb3d 0e10 32be 167f 0dbe e0e0 d63c
00000100: 50ab 03bd 6cdc 0f3e 8c81 3ebe 6e4c 0bbe
00000110: 38aa f8bd 10b1 77be d0db ffbd 4838 74bd
00000120: 3825 4ebd 9c34 c2bd 9823 673d d005 10bd
00000130: 401c f4bb 4028 a8bd 5413 4c3e b82a a03d
00000140: c9c2 533e d928 08be 9ede 233e 439b 9bbd
00000150: 3b33 5abd fde0 0cbe 480e 4d3e b68d 2bbe
00000160: 4de2 f03a e63b 333d f7b1 b2bd 2043 b03d
00000170: f461 413e c55d 8bbe af4a 71be c154 403e
00000180: 9644 af3d 61b1 c7bc 3ab5 ef3d b578 8a3e
00000190: 5ecd 0a3e bba8 4dbc e00d b6bd 94d9 67be
000001a0: 9293 893e 4c65 a2bd 0834 95bd 8882 62be
000001b0: 10d0 2a3d aaf2 363e b3eb 8f3d 9aaa 8e3e
000001c0: a47f eb3d ee20 4a3e 70a9 d43c a450 e3bd
000001d0: e021 4fbd b00c d0bd 1005 2ebd 6059 323d
000001e0: 9ad0 68be 4017 c33b 38d7 bc3d 7a48 7fbe
000001f0: b810 163e 54c9 7abe c0d8 cf3b 28ac 79be
00000200: 0f08 9f3d 9a11 3b3e 8dee 313e 3bac c43d
00000210: c162 463e 5c02 223e 60fd 463c f66e 643e
00000220: 53e6 80be f188 c8bd 8c69 4b3e cc49 98bd
00000230: f666 083e 5a16 76be 6759 86be 9988 4abe
00000240: 5fb0 76bd 635a 03bd 20a2 083d f8b3 483e
00000250: 23be 3c3e d294 3e3c d223 7d3e 8498 c7bd
00000260: ac9d 46be a3f2 01be bf51 90bd 96bd 2a3e
00000270: 6ca0 f03d a5a3 7ebd a668 a93d 614d 98bd
00000280: 5f1d 923d 8883 d13e a0df 6b3d 8779 583e
00000290: 7a5a c83e 8cd3 b13d c0d7 7d3e 0042 92bd
000002a0: ff91 a33e bcf8 3e3e 35ce b83e a8ca 753e
000002b0: 549c 4d3e 1872 d53e c951 dd3e 8720 e23e
000002c0: 55b2 1a3d 303a 1d3e b29f 423d d81f 743e
000002d0: 8036 ca3e c037 a23c c076 043d 4a10 2bbe
000002e0: 860f 883d 3c02 01bd 03ff b93e 14b3 ed3d
000002f0: 6c02 98bd d870 e13d 48db 883d 8c57 8c3e
00000300: 8860 56be 9427 eabd d021 db3d 0017 383b
00000310: c4da 30be ae94 513e f02e fc3d 0c77 d1bd
00000320: 42c6 2a3e deb1 6dbe 687c e5bd 60b9 e9bd
00000330: 9ec4 57be 7680 4a3e 3054 3d3e 80ea 263d
00000340: a582 e13e fe66 053f c026 d33e 1787 cb3e
00000350: 5372 f03e 34f6 783e 3c4e 31be 843a 853d
00000360: 5347 0b3f dff4 8b3e d84b d93e 80a4 473b
00000370: 749a cabd 8221 d43e c8f1 103f ae45 d23e
00000380: c61c d23d 2223 423e 932d d1bb f569 8b3e
00000390: d2db 0fbc f6ce 6e3e d447 db3d f089 febc
000003a0: adf0 9e3e 7277 67bc f303 0c3c d0db 2b3e
000003b0: beda 6f3e 0357 2dbd 7adf a03e ef09 8f3e
000003c0: 70e0 bdbd 6c80 573e 30a2 c0bd 0026 4d3e
000003d0: e6d7 55be 362d 513e 5614 593e b823 9bbd
000003e0: c832 58be 0065 efbd dc37 fd3d 0436 70be
000003f0: eef2 42be c8d2 6abd 14c4 d9bd 444b 403e

conv1.lin_node_upd.ue.1.0.bias f4 [31]
-0.070564896 0.14489731 -0.15358245 0.1182428 0.16879293 -0.0076450733 0.13283059 -0.24568757
0.13576286 -0.117157035 0.33730337 -0.06101995 0.21835011 0.60044265 0.17730576 0.06458247
0.2701239 0.10726088 -0.05666989 0.09755352 0.19039856 0.22024794 0.054953575 -0.20961094
-0.014629751 0.0843066 0.35374013 0.016858667 0.09600567 -0.21179476 0.24708779
00000000: 5484 90bd f65f 143e b844 1dbe 4829 f23d
00000010: 0ed8 2c3e 8683 fabb be04 083e 8695 7bbe
00000020: 6b05 0b3e 07f0 efbd 07b3 ac3e 0ef0 79bd
00000030: 2c97 5f3e 9cb6 193f a48f 353e d043 843d
00000040: ae4d 8a3e 98ab db3d b01e 68bd 24ca c73d
00000050: d7f7 423e ad88 613e 0017 613d 40a4 56be
00000060: a0b1 6fbc f0a8 ac3d 6d1d b53e 301b 8a3c
00000070: 9f9e c43d bae0 58be 9504 7d3e

conv1.lin_node_upd.ap.0.0.bias f4 [16]
0.0 0.0 0.0 0.0 0.0 0.0 0.0 0.0
0.0 0.0 0.0 0.0 0.0 0.0 0.0 0.0
00000000: 0000 0000 0000 0000 0000 0000 0000 0000
00000010: 0000 0000 0000 0000 0000 0000 0000 0000
00000020: 0000 0000 0000 0000 0000 0000 0000 0000
00000030: 0000 0000 0000 0000 0000 0000 0000 0000

conv1.lin_node_upd.ap.1.0.weight f4 [31, 16]
-0.13742086 -0.15105492 -0.015383959 0.22569966 -0.057062447 0.21625209 0.19894794 -0.053023636
0.020032197 0.1611653 -0.06652731 -0.06012422 -0.23994514 -0.14887467 -0.016513377 -0.17651242
-0.02378273 -0.023818612 0.17357919 0.022874236 0.11908737 -0.048491687 -0.18679583 -0.009595901
-0.23387054 0.21559942 -0.23521066 -0.0923444 -0.11262676 0.06126985 -0.109758705 -0.11944738
0.07658666 -0.14756611 -0.0499852 0.0043021142 -0.16931123 -0.056687117 0.24456203 -0.21040407
-0.15689671 0.16328362 -0.1096206 0.23870963 -0.10384175 0.16775587 -0.07021868 -0.096796334
-0.113164276 -0.20796603 0.18695557 0.12569815 -0.17813721 0.19329539 -0.12376207 0.21759287
-0.1453785 0.027755946 -0.21213457 0.21432316 -0.22272894 0.11723709 -0.0023681223 -0.056735635
0.0628227 0.18421522 -0.05602163 0.15680602 0.04975444 -0.049198806 0.2489703 -0.13441163
-0.23642781 0.10209766 0.014629811 -0.15705323 0.063537896 0.16033748 0.02242297 0.09364638
-0.14958528 0.047676444 0.06538278 -0.22916114 0.13093501 -0.19470116 -0.23012498 -0.18039626
-0.050787926 -0.1679452 -0.0076231062 0.029776633 -0.12834364 0.148612 0.20860228 -0.079734564
-0.14868557 -0.18541208 -0.09041104 0.10728702 -0.23645392 0.20226032 -0.022712946 0.10981628
-0.22773194 -0.1689263 -0.09805924 0.10436398 0.081974894 -0.061536312 -0.0012941957 0.17250583
0.06091681 -0.069432706 -0.058599055 0.22637859 0.031195909 -0.00846076 -0.16637436 0.043240994
0.15559995 -0.20233554 -0.010669053 -0.1057941 0.08721775 0.09244719 -0.083951235 -0.032449692
0.10788542 -0.22565046 -0.19458967 0.12831375 -0.04752654 -0.17098188 0.23630884 -0.18344581
-0.0016798675 -0.14027813 0.12786672 0.19626862 0.07714084 -0.14449641 0.07503176 -0.02725643
-0.03661388 0.044124335 0.22615975 -0.115641326 -0.16043821 0.003305912 -0.100102276 -0.19472528
0.1232636 0.028188825 -0.14855593 0.009354264 -0.070614755 0.17380351 -0.06848821 -0.012077063
0.21155989 0.18928808 -0.13456777 0.05802554 -0.24140686 -0.16892964 -0.19934651 0.09700757
-0.03595242 -0.15721029 0.03837067 0.106019974 -0.16986984 0.14190072 0.14605129 -0.20459968
0.112694114 0.019091278 0.017764598 -0.03109759 0.20271009 -0.19278422 -0.15052626 -0.051718622
-0.03290546 -0.14993304 0.2000125 -0.05755335 0.0029939413 -0.117726535 -0.19512683 -0.20226163
-0.091803074 -0.1558668 0.19335279 -0.1505076 -0.14623314 -0.14415687 -0.2229844 -0.10644841
-0.11566019 0.0395388 -0.19972575 0.017502308 0.020860046 0.23282805 0.2442632 -0.17211151
0.181856 -0.00894317 0.0082113445 -0.17230651 -0.21894443 0.08187255 -0.055816084 0.23817196
-0.119513035 -0.23188671 0.074038535 -0.19033656 0.2206159 0.0026026666 0.13440835 -0.16760507
0.10290417 -0.012062252 -0.23677304 0.059148252 0.11494368 -0.028202415 0.18926877 0.047358185
0.08245003 0.151369 -0.16187727 0.22024271 -0.18982348 0.012339383 0.06338465 -0.025197774
-0.09951097 -0.03512904 0.19789997 0.025866449 0.1944331 0.099781156 -0.22860539 0.0932506
-0.045084357 -0.22268364 -0.030774057 -0.20241037 -0.13561848 -0.18772525 0.1689834 -0.13389224
00000000: 0eb8 0cbe 24ae 1abe 000d 7cbc d01d 673e
00000010: 50ba 69bd 3071 5d3e 02b9 4b3e 502f 59bd
00000020: 901a a43c 8408 253e 783f 88bd d044 76bd
00000030: 2eb4 75be 9a72 18be 1047 87bc acbf 34be
00000040: 00d4 c2bc 401f c3bc bebe 313e c062 bb3c
00000050: 14e4 f33d 389f 46bd 6847 3fbe 2038 1dbc
00000060: c27b 6fbe 18c6 5c3e 10db 70be 101f bdbd
00000070: dca8 e6bd 18f6 7a3d 2cc9 e0bd d4a0 f4bd
00000080: 78d9 9c3d 921b 17be 48bd 4cbd c0f8 8c3b
00000090: ec5f 2dbe c030 68bd 786e 7a3e 2a74 57be
000000a0: 88a9 20be d233 273e c480 e0bd 4c70 743e
000000b0: fcaa d4bd 32c8 2b3e d0ce 8fbd 283d c6bd
000000c0: acc2 e7bd 0cf5 54be 4871 3f3e 04b7 003e
000000d0: 9a69 36be 3aef 453e f876 fdbd aad0 5e3e
000000e0: 1ade 14be 7060 e33c ce39 59be 8877 5b3e
000000f0: 0e13 64be 001a f03d 8032 1bbb a063 68bd
00000100: 30a9 803d eaa2 3c3e f076 65bd c291 203e
00000110: 50cb 4b3d b084 49bd 12f2 7e3e 34a3 09be
00000120: 221a 72be 9418 d13d e0b1 6f3c 90d2 20be
00000130: 2820 823d 822f 243e 60b0 b73c acc9 bf3d
00000140: e22c 19be 6048 433d 68e7 853d 38a9 6abe
00000150: d413 063e be5f 47be e2a5 6bbe ccb9 38be
00000160: 0007 50bd d4f9 2bbe 40cb f9bb 20ee f33c
00000170: 846c 03be be2d 183e d69b 553e e04b a3bd
00000180: 0841 18be aadc 3dbe 6c29 b9bd 4cb9 db3d
00000190: fa20 72be 541d 4f3e 8010 babc 5ce7 e03d
000001a0: 9032 69be 04fb 2cbe 48d3 c8bd c8bc d53d
000001b0: 74e2 a73d 800d 7cbd 00a2 a9ba 5ea5 303e
000001c0: e883 793d bc32 8ebd 9005 70bd cacf 673e
000001d0: 908e ff3c 009f 0abc 0a5e 2abe 781d 313d
000001e0: 9855 1f3e 0c31 4fbe 40cd 2ebc 94aa d8bd
000001f0: 389f b23d f454 bd3d a0ee abbd f8e9 04bd
00000200: 08f3 dc3d ea10 67be 8442 47be ae64 033e
00000210: 30ab 42bd e015 2fbe f2fa 713e 38d9 3bbe
00000220: 002f dcba 12a5 0fbe 7eef 023e a4fa 483e
00000230: 04fc 9d3d def6 13be 40aa 993d e048 dfbc
00000240: 70f8 15bd b8bb 343d 6c96 673e 5cd5 ecbd
00000250: ea49 24be 00a8 583b 6c02 cdbd 1066 47be
00000260: a071 fc3d 40ec e63c 0c1f 18be a042 193c
00000270: 789e 90bd 8cf9 313e 8c43 8cbd e0de 45bc
00000280: 28a3 583e bcd4 413e 22cc 09be 30ac 6d3d
00000290: 5c33 77be e4fb 2cbe 7e21 4cbe e8ab c63d
000002a0: d842 13bd bcfb 20be 902a 1d3d 0021 d93d
000002b0: 5cf2 2dbe 6c4e 113e 788e 153e 9482 51be
000002c0: 2ccc e63d 5065 9c3c 1087 913c 60c0 febc
000002d0: 3c93 4f3e 3a69 45be 8e23 1abe e8d6 53bd
000002e0: e0c7 06bd 0c88 19be 14d0 4c3e 10bd 6bbd
000002f0: 0036 443b 9c1a f1bd 54cf 47be ac1d 4fbe
00000300: 4003 bcbd 8c9b 1fbe 46fe 453e aa1e 1abe
00000310: 24be 15be dc9d 13be 0656 64be a001 dabd
00000320: 40df ecbd 70f3 213d e884 4cbe 0061 8f3c
00000330: b0e2 aa3c 7a6a 6e3e 2220 7a3e 003e 30be
00000340: 7638 3a3e 6086 12bc e088 063c 1e71 30be
00000350: f832 60be ccac a73d 689f 64bd 5ae3 733e
00000360: 40c3 f4bd b673 6dbe 84a1 973d 96e7 42be
00000370: 22e9 613e 8091 2a3b 58a2 093e aaa0 2bbe
00000380: 6cbf d23d c0a0 45bc a274 72be 7045 723d
00000390: 9867 eb3d c008 e7bc accf 413e a8fa 413d
000003a0: 90db a83d 7a00 1b3e 28c3 25be 4e87 613e
000003b0: 1661 42be 202b 4a3c d0cf 813d 906b cebc
000003c0: 68cc cbbd 78e3 0fbd 4aa6 4a3e e0e5 d33c
000003d0: 7819 473e 105a cc3d 8817 6abe 2cfa be3d
000003e0: 60aa 38bd 2e07 64be e019 fcbc aa44 4fbe
000003f0: 92df 0abe 0c3b 40be fc09 2d3e 0c1b 09be

conv1.lin_node_upd.ap.1.0.bias f4 [31]
-0.14553651 -0.18299645 0.04390207 0.025125355 0.20237142 -0.16791105 0.17811456 0.2050105
-0.21372133 -0.03186375 0.042372048 0.038932502 0.0785549 -0.19779605 -0.032735556 0.046360016
0.1550492 -0.12798592 -0.20000634 0.03480199 -0.24383873 -0.22836316 0.04908207 -0.121515155
0.0050525963 0.10801083 -0.07920146 0.010896981 0.2026684 -0.1647906 0.09005812
00000000: 8607 15be 6c63 3bbe a8d2 333d b0d3 cd3c
00000010: 743a 4f3e e0f0 2bbe aa63 363e 46ee 513e
00000020: c4d9 5abe 9083 02bd 508e 2d3d b077 1f3d
00000030: 64e1 a03d 0c8b 4abe b815 06bd 00e4 3d3d
00000040: 38c5 1e3e be0e 03be 76ce 4cbe 888c 0e3d
00000050: dcb0 79be 08d8 69be 480a 493d f0dc f8bd
00000060: 4090 a53b c834 dd3d 6034 a2bd 4089 323c
00000070: 4e88 4f3e debe 28be 6470 b83d

conv2.lin_node_msg.ue.0.0.weight f4 [16, 32]
0.11674951 -0.1389606 0.15091929 0.15434703 -0.065966584 -0.13949586 0.10865439 -0.0032425467
0.09810165 0.1424299 0.15436898 -0.13448873 0.040283326 -0.025229989 0.017866766 -0.04223871
0.08927312 0.07155816 -0.16629767 0.047114443 0.01822674 0.119762436 0.09239089 -0.11031187
0.054617785 0.05581526 -0.16541578 -0.13385807 0.044812806 0.092114694 0.024145465 -0.05602062
0.14314012 0.023247695 0.0042485707 -0.12000021 -0.14893632 0.1278012 -0.16006885 -0.16662546
0.058180563 -0.17582683 0.15134336 -0.15194719 0.13036965 -0.16140911 0.16060692 0.06907137
-0.0056204507 0.05945643 0.003464787 -0.06648503 -0.15931165 -0.048765756 0.028300092 -0.106447764
-0.036255457 0.025868008 0.10966907 0.10175941 0.0824629 -0.14634135 -0.15248998 -0.11432743
0.07115768 0.014019791 0.1681178 0.14057505 -0.06866851 -0.08748428 -0.10704334 0.06881687
0.14373787 -0.044916064 0.118114516 -0.11339942 -0.0425123 -0.13554254 0.06306576 -0.06273855
-0.07386707 0.13782008 0.016407093 -0.023365939 -0.074493945 0.15533859 -0.066924475 -0.13123716
-0.031177498 -0.08909608 0.09372972 0.16110949 -0.04750194 0.08712976 0.011170263 -0.055334218
-0.12888561 0.021064341 -0.10526369 0.09089975 0.046705704 -0.17487882 0.15289083 0.078737035
-0.00637823 -0.075997345 0.06929707 -0.001608408 -0.14788762 0.14126638 -0.120165005 0.15192872
0.03360383 0.058952082 -0.08024998 -0.13577108 0.14286779 0.09709972 -0.15583812 0.06678587
0.03894769 0.025259659 0.12077915 0.019415008 -0.1498423 0.034733914 -0.14966105 0.075687096
0.05242507 -0.0336414 -0.020242436 -0.031601664 0.118965045 -0.020299418 0.17248973 -0.07101657
-0.1713218 0.13570423 0.09484339 -0.107641764 0.104560785 -0.11969954 0.08421625 -0.074497566
-0.06185046 0.02735855 -0.07708429 0.14835495 -0.15948509 0.008667141 -0.12200777 -0.055083614
-0.14433262 -0.09594022 0.16541101 0.08893449 0.071217574 0.12235795 -0.020659985 0.13153817
-0.12662347 -0.10907343 -0.040936917 0.09580878 0.10622811 0.06633617 0.14931051 -0.044470318
0.046416514 0.038752425 -0.11203115 0.17494862 0.12701619 0.13664493 -0.0016963052 0.12136244
-0.12903744 0.043465875 -0.12832686 -0.1206405 -0.16032822 0.14591545 -0.014230083 0.04889696
0.012395367 0.061454635 0.06635408 0.105724335 -0.07058598 0.005334906 -0.09834567 -0.0059534106
-0.107126646 0.121972784 0.11555424 0.13551529 0.13926741 0.17108516 -0.14661007 0.028999455
-0.09103519 -0.09162333 -0.09100225 0.08627064 -0.1719261 -0.09640851 0.09182879 -0.013125351
0.10481493 0.09301156 -0.14684582 0.006825682 -0.10240639 -0.16478997 -0.037938442 0.16414419
0.11074508 -0.016346676 0.11495243 -0.060860153 0.045028407 -0.004776987 0.12656355 0.012590528
0.16215123 -0.105665326 -0.17100915 -0.082776174 -0.10096488 0.12877607 0.020014906 -0.16449963
-0.10900498 0.08448846 -0.15198404 -0.0007459571 -0.10615986 -0.09093593 0.04142951 -0.017885858
0.09907866 0.02221044 -0.04357672 -0.15136018 -0.13452439 -0.11217873 -0.009466899 -0.089462265
0.022485133 -0.11715797 -0.13790359 0.118042134 0.0776916 -0.17667457 -0.10424311 -0.09514834
00000000: 5e1a ef3d b04b 0ebe 968a 1a3e 260d 1e3e
00000010: 7d19 87bd 01d8 0ebe 3186 de3d e880 54bb
00000020: 85e9 c83d 25d9 113e e712 1e3e 6ab7 09be
00000030: 2100 253d 1faf cebc 535d 923c 7f02 2dbd
00000040: d3d4 b63d 168d 923d f049 2abe 13fb 403d
00000050: 3f50 953c 0246 f53d 6f37 bd3d 31eb e1bd
00000060: e6b6 5f3d 8b9e 643d c162 29be 1712 09be
00000070: a28d 373d a1a6 bc3d b6cc c53c e175 65bd
00000080: 5393 123e f371 be3c 9837 8b3b acc2 f5bd
00000090: c382 18be 51de 023e 17e9 23be dd9f 2abe
000000a0: be4e 6e3d f30b 34be c1f9 1a3e 0b98 1bbe
000000b0: 9f7f 053e 6e48 25be 2476 243e 4a75 8d3d
000000c0: c22b b8bb 9688 733d 7b11 633b 4e29 88bd
000000d0: 9822 23be 9abe 47bd 98d5 e73c 4901 dabd
000000e0: 9a80 14bd 25e9 d33c 2d9a e03d 3d67 d03d
000000f0: 4fe2 a83d 82da 15be 5526 1cbe 8024 eabd
00000100: 1ebb 913d 44b3 653c 1327 2c3e e8f2 0f3e
00000110: 13a2 8cbd f52a b3bd 8a39 dbbd dcef 8c3d
00000120: 0530 133e e8f9 37bd 06e6 f13d f53d e8bd
00000130: 6121 2ebd aacb 0abe 9f28 813d 127d 80bd
00000140: 9e47 97bd b520 0d3e 2b68 863c ed69 bfbc
00000150: 4890 98bd 1411 1f3e b30f 89bd 0963 06be
00000160: f467 ffbc 0178 b6bd 5ef5 bf3d e3f9 243e
00000170: 6591 42bd 1671 b23d 7b03 373c 22a6 62bd
00000180: 97fa 03be 208f ac3c 7d94 d7bd a629 ba3d
00000190: 7b4e 3f3d 6f13 33be 6a8f 1c3e e240 a13d
000001a0: 7900 d1bb 7fa4 9bbd 9feb 8d3d 38d1 d2ba
000001b0: da6f 17be 22a8 103e 1219 f6bd 3493 1b3e
000001c0: 2ba4 093d bd77 713d 1a5a a4bd 9307 0bbe
000001d0: ef4b 123e 38dc c63d 0794 1fbe 08c7 883d
000001e0: 9d87 1f3d 58ed ce3c 0f5b f73d 390c 9f3c
000001f0: 4370 19be 2645 0e3d bf40 19be d601 9b3d
00000200: acbb 563d 91cb 09bd 77d3 a5bc bf70 01bd
00000210: f2a3 f33d f74a a6bc 26a1 303e 2371 91bd
00000220: fb6e 2fbe 0df6 0a3e 403d c23d 4973 dcbd
00000230: f723 d63d 0825 f5bd 9279 ac3d 2e92 98bd
00000240: e856 7dbd 0a1f e03c 5ede 9dbd 5cea 173e
00000250: 0f50 23be a000 0e3c 36df f9bd 5b9f 61bd
00000260: eecb 13be 4e7c c4bd 8161 293e 4923 b63d
00000270: 85da 913d ce96 fa3d 213f a9bc f1b1 063e
00000280: 95a9 01be e461 dfbd 78ad 27bd 6537 c43d
00000290: 208e d93d 42db 873d dbe4 183e 8226 36bd
000002a0: 3e1f 3e3d ddba 1e3d 9670 e5bd bb25 333e
000002b0: 8810 023e a6ec 0b3e 8f56 deba df8c f83d
000002c0: 6422 04be 4609 323d 1e68 03be 5e12 f7bd
000002d0: 152d 24be dc6a 153e 4b25 69bc 2e48 483d
000002e0: f015 4b3c dbb7 7b3d a6e4 873d 0086 d83d
000002f0: 628f 90bd 6fd0 ae3b 7469 c9bd d414 c3bb
00000300: 3765 dbbd decc f93d b4a7 ec3d 85c4 0a3e
00000310: 1e9c 0e3e f330 2f3e f320 16be 4490 ed3c
00000320: a870 babd 03a5 bbbd 635f babd a9ae b03d
00000330: 650d 30be d371 c5bd bc10 bc3d b60b 57bc
00000340: 36a9 d63d d87c be3d c05e 16be f8a9 df3b
00000350: 71ba d1bd b4be 28be 5765 1bbd 6a15 283e
00000360: 51ce e23d 77e9 85bc 2e6c eb3d 7f48 79bd
00000370: b56f 383d 4588 9cbb e099 013e 8048 4e3c
00000380: f90a 263e 1067 d8bd 061d 2fbe 8e86 a9bd
00000390: adc6 cebd e0dd 033e 4df6 a33c 9772 28be
000003a0: 013e dfbd 4908 ad3d b4a1 1bbe 558c 43ba
000003b0: 576a d9bd 9e3c babd fdb1 293d 5d85 92bc
000003c0: c1e9 ca3d abf2 b53c 817d 32bd 2afe 1abe
000003d0: c3c0 09be f6bd e5bd 0d1b 1bbc fe37 b7bd
000003e0: be32 b83c 85f0 efbd 9936 0dbe 13c0 f13d
000003f0: c61c 9f3d 2eea 34be 697d d5bd 22dd c2bd

conv2.lin_node_msg.ue.0.0.bias f4 [16]
-0.17065476 0.174062 -0.086809106 0.05386993 -0.0050491714 -0.14102635 0.07382689 0.040166683
0.13944747 0.11934466 0.13057329 -0.08690237 0.079206064 -0.06771865 0.15248866 0.16003521
00000000: 1fc0 2ebe 4f3d 323e f9c8 b1bd b7a6 5c3d
00000010: 8573 a5bb 3669 10be 8d32 973d d285 243d
00000020: 51cb 0e3e f96a f43d 01b5 053e dff9 b1bd
00000030: ca36 a23d 13b0 8abd fd25 1c3e 45e0 233e
