Model/5000sam16batch_gpu.pth (torch, 121314 bytes, 79 tensors)

conv1.lin_node_msg_compact.ue.0.0.weight f4 [16, 1]
00000000: 0046 6abd 2e9d 6a3f fa25 36bf aa27 993e
00000010: e832 a8be b0c0 d1bd b458 963f d288 67bf
00000020: 26c2 473f bc8f 893f d628 08bf e0e7 49be
00000030: a00b c9bd c82b 86be 5058 aabd 0010 693f
-0.057195663 0.9164609 -0.711517 0.29913074 -0.32851338 -0.1024183 1.174582 -0.90443146
0.7803062 1.0746989 -0.5318731 -0.1971736 -0.098166704 -0.26205277 -0.083176255 0.9104004

conv1.lin_node_msg_compact.ue.0.0.bias f4 [16]
00000000: fa1b 533f c1db a93e 10c7 8b3e 0661 753f
00000010: 9062 6b3e ce27 7e3f bcf0 8a3f 7859 8a3e
00000020: d122 b83b d171 ac3e e80b 4f3e a8f6 2ebf
00000030: b06b 9bbe 8282 60bf d802 0fbe b52f 523f
0.82464564 0.3317547 0.2730031 0.9585117 0.22986817 0.9927949 1.0854716 0.27021384
0.005619385 0.33680585 0.20219386 -0.6834512 -0.30355597 -0.8769914 -0.13965929 0.82104045

conv1.lin_node_msg_compact.ue.1.0.weight f4 [32, 16]
00000000: a8f7 c43d a5d5 6c3e c018 3abe f97a bc3e
00000010: 3c9e 233e c0e7 febc 9db5 d23e b43f 133e
00000020: 7612 aa3d e3ef d33e 9670 0f3e 743b f33d
00000030: c425 84bd 46e3 71be f296 6d3e 6593 a3bc
00000040: 901d 14be 90ed 843d f2f0 183e 9e5d 66be
00000050: d05e ce3d 0078 7f3a 6cdc 133e 7cf0 423e
00000060: 90a9 093d 70e6 9bbc 483f 273e 382c 513e
00000070: 280e e13d 008f b6bc 3e1e 043e 02e5 73be
00000080: c806 673d 2046 73bd 4018 c4bb 8c0a d43d
00000090: 888a d93d e0e3 213d 72ec 06be 80b0 59bd
000000a0: a0b3 723d 3434 55be 7e50 743e c89d 743d
000000b0: 0026 693e 6ebc 10be ece1 ab3d ec65 f3bd
000000c0: c860 243e 603c 17bc 1829 7b3d e0e0 123d
000000d0: 0012 5ebb 1623 343e d2af 20be e478 343e
000000e0: 941e 75be 2a2d 473e c800 e9bd 5c3c 573e
000000f0: be4f 063e 4854 54be ca62 323e 7848 1abd
00000100: 0e53 56be 1087 a0bd 9031 b2bc e8d2 adbd
00000110: 20cd 0abc a482 773e c669 433e 8e3d 4abe
00000120: d4ef 12be b694 44be 645e b8bd 00b0 8739
00000130: 5e02 713e 70ee 293d 8efc 313e 9c70 c23d
00000140: d41f b43d d018 e0bd e4ea a9bd 08ef 16be
00000150: bc19 413e 44d2 fdbd 4c5e 4cbe 2801 3bbd
00000160: 608f c6bc 6841 8fbd ece2 0bbe 6888 023d
00000170: 1a65 2e3e 1094 803d 5856 e13d 30c0 18be
00000180: a010 aebd ea6d 533e f21d 313e c442 95bd
00000190: c8e4 b9bd f034 fabc 90a5 e0bd f41f 853d
000001a0: f4f1 9ebd 9e1f 5bbe 40a4 7fbd ce16 733e
000001b0: 80d5 48bd 4cab 313e 2013 88bd 000f 9f3d
000001c0: 7c46 e3bd cac1 083e 10d3 1ebe 310d 53be
000001d0: 00c9 733b fe58 2cbe 020e 5abd 0c82 fb3d
000001e0: 133a ee3d 5cf5 2cbe 281c e53d 6065 0b3c
000001f0: b020 4b3d 3e8a 47be 244e fd3d 6247 c23c
00000200: 6cd2 9f3d 7244 463b a483 04be 57f3 b9bc
00000210: d4c1 9fbd d0fe cfbd 7cec 0f3d 747b fc3d
00000220: a828 dc3d ef92 6b3c 401f 183c e084 983d
00000230: b6a0 2bbe 1e9e 18be 42ae 3c3e 0a77 2cbe
00000240: 1087 be3d 5280 2cbe c496 5b3e 204d 8cbc
00000250: dc83 66be 1651 393e ee0b 4cbe 80df cc3d
00000260: e8b9 873d 7805 643e 1292 28be ca37 15be
00000270: 0284 533e 3c09 7dbe a07b 393e 1cef 37be
00000280: a23c 343e 69fe 403e 589c 6bbd 6158 4b3e
00000290: d4ad 563e fc0a 6a3e ab8d 8f3d b2fb 40be
000002a0: c413 db3c 8417 5bbe f06a ddbd d869 7f3d
000002b0: 00fd e1bd 764e 1dbe 2447 90bd b446 7c3c
000002c0: 964c 423e b02c 3f3d 68a0 7bbd e003 8d3c
000002d0: 603d f7bc 84d5 5bbe 2c71 2dbe 6634 033e
000002e0: 48fb 35bd 988a eabd 0a53 0c3e d4af 91bd
000002f0: 62b7 7dbe 42a2 103e 74f4 83bd 00e4 103e
00000300: a272 4ebe 68f0 0b3e baff 5fbe ee22 e73c
00000310: 304d 633e a026 c83c 4c3e 3c3e 0003 e43a
00000320: a4bc 44be b168 16be 46e1 123e c058 273d
00000330: eee7 6e3e 5a14 00be 206d 793c dfd1 95bd
00000340: 104c a73c 7ee3 91bd fa31 673e 58a7 633d
00000350: cc5c 71be 20a0 d03c c9c5 3b3e 6456 eb3d
00000360: 68c4 9e3c 1cf0 b1bd f00c 20bd 8825 b83d
00000370: 3a22 58be bcd7 fc3d 74ac 863d d370 debd
00000380: 8831 5abd e48a b7bd 7a18 66be e0c7 a6bc
00000390: 3ae6 513e 1c8c bd3d 1087 263d 5026 c23d
000003a0: f8a4 4dbe 6201 78be 100a 88bd 7865 313e
000003b0: c8c1 8f3d 6edf 103e dc8b a6bd f4f2 b83d
000003c0: 0800 d43d 3ec3 133e 9ca3 11be 3913 e2bc
000003d0: dc56 acbd a889 ba3d 57c6 cebd 1211 353e
000003e0: ca8a 423e 7ebe 32be 12b0 45be 0051 90bd
000003f0: 1e0b 4ebe 50b2 173e 6a2c 14be 7a8b 353c
0.09617549 0.23128374 -0.18173504 0.3681257 0.1597833 -0.031116366 0.41154185 0.1437977
0.083043024 0.41393957 0.14007792 0.11876574 -0.06452516 -0.23621854 0.23202112 -0.019967744
-0.14464402 0.06490624 0.14935663 -0.2249665 0.10076678 0.00097453594 0.14439553 0.1903705
0.033608973 -0.01903078 0.16332734 0.20427024 0.10989028 -0.022284985 0.12902161 -0.23817828
0.05640295 -0.05939305 -0.005984336 0.10353574 0.10622126 0.03952396 -0.13176134 -0.05314684
0.059253335 -0.20820695 0.2385883 0.059720784 0.22768402 -0.1413438 0.083927006 -0.118846744
0.16052544 -0.009230703 0.061318487 0.03585899 -0.003388524 0.17591509 -0.1569207 0.17624241
-0.23937446 0.19450822 -0.11377102 0.21019119 0.13116357 -0.20735276 0.17420498 -0.037666768
-0.2093012 -0.07838261 -0.021752149 -0.08487493 -0.008471757 0.24170929 0.19083318 -0.19750044
-0.143493 -0.19197354 -0.090023786 0.00025880337 0.2353606 0.041487157 0.17381498 0.09494135
0.08795133 -0.109422326 -0.08296755 -0.1473962 0.18857473 -0.123936206 -0.19957846 -0.0456554
-0.024238288 -0.06994897 -0.13660783 0.03186837 0.17030755 0.06278241 0.11002797 -0.14917064
-0.08499265 0.20647398 0.1729658 -0.07288125 -0.0907684 -0.03054282 -0.109690785 0.06500235
-0.07760993 -0.2139878 -0.0624125 0.23739168 -0.049031734 0.17350501 -0.06644273 0.07766533
-0.11097428 0.13355175 -0.15510201 -0.20610501 0.0037198663 -0.16830823 -0.053236015 0.12280664
0.116321705 -0.16890472 0.11187011 0.008508056 0.04959172 -0.19486329 0.1236842 0.023715679
0.07803807 0.00302532 -0.12940842 -0.022699041 -0.07800642 -0.101560235 0.03513764 0.12328234
0.10749942 0.014378293 0.009284794 0.07447219 -0.16760525 -0.14904067 0.18425849 -0.16842285
0.09303105 -0.16845825 0.21444231 -0.01712662 -0.22511238 0.18097338 -0.19926426 0.10003567
0.06627256 0.22267711 -0.16461971 -0.14572063 0.20655826 -0.24710554 0.18113565 -0.17962307
0.17601255 0.1884705 -0.057522148 0.19857933 0.20964748 0.22855753 0.07009443 -0.18846014
0.026742823 -0.21395689 -0.10811412 0.0623568 -0.11034584 -0.15361962 -0.07044819 0.015397716
0.18974528 0.046673477 -0.061432272 0.017213762 -0.030180633 -0.21468168 -0.16937703 0.12812957
-0.044429094 -0.11452216 0.13703552 -0.07113615 -0.24776986 0.14124396 -0.0644311 0.14149475
-0.20160916 0.13665926 -0.21874896 0.028214898 0.22197413 0.02443248 0.1838314 0.0017395914
-0.19212586 -0.14688374 0.14343747 0.040856123 0.23330662 -0.12507764 0.015223771 -0.0731542
0.020422012 -0.07123469 0.22577658 0.055579513 -0.23570555 0.025466979 0.18337168 0.11491087
0.019380763 -0.08688375 -0.03907484 0.089915335 -0.21106806 0.123458356 0.065758616 -0.10861363
-0.053269893 -0.08962038 -0.22470275 -0.02035898 0.2049798 0.09255239 0.04065615 0.09479964
-0.20082462 -0.24219278 -0.06642544 0.17323864 0.07019383 0.14147732 -0.08132145 0.09030715
0.103515685 0.14429948 -0.14222568 -0.027597057 -0.084150046 0.09108287 -0.10096424 0.17682293
0.18998256 -0.1745548 -0.19305447 -0.070466995 -0.20121428 0.14814115 -0.14470068 0.011080617

conv1.lin_node_msg_compact.ue.1.0.bias f4 [32]
00000000: 6020 f23e 4465 fd3d b83d 273e 48a1 3cbd
00000010: 2ef2 77be 042d a2bd 7619 18be f46e 7dbe
00000020: ec1d 14be 0ec1 243e 61c7 86be b007 a4bd
00000030: 8c08 003e 0b82 f3bd 222b 6fbe f87e fd3d
00000040: 68b9 cf3d e43f 9ebd 9452 dc3d 405d 22bc
00000050: b808 ffbd 60da 0f3d 1574 e93d fb4f 023f
00000060: d8c5 a3bd 6c3b bf3e 2127 c3bd c099 583d
00000070: 937e 953e b045 8a3c 34f3 ac3d a323 3cbe
0.47290325 0.123728305 0.16332138 -0.046052247 -0.24213478 -0.07918742 -0.14853463 -0.24749357
-0.1446454 0.1608927 -0.2632399 -0.08009279 0.1250326 -0.11890038 -0.23356298 0.12377733
0.10142785 -0.0772703 0.10757938 -0.009909928 -0.12452835 0.035120368 0.11399094 0.5090329
-0.0799672 0.37350023 -0.095289476 0.052881002 0.2919813 0.016878933 0.08444825 -0.1837297

conv1.lin_edge_compact.ue__uplink__ap.0.0.weight f4 [16, 1]
00000000: b07a c8be 9d86 37bd 2eea 3f3f c146 5cbf
00000010: 06bb 0bbf 95b8 393f f674 b13e 1554 843f
00000020: e77f 29bf e943 87be 8d04 81bd 205d 243f
00000030: 1fc7 8b3f 507e 14be 4513 41be 981d acbe
-0.39156103 -0.04480611 0.74966705 -0.8604546 -0.5458225 0.72547275 0.34659547 1.033816
-0.6621079 -0.26419 -0.06299696 0.642046 1.0920142 -0.1450131 -0.18855007 -0.33616328

conv1.lin_edge_compact.ue__uplink__ap.0.0.bias f4 [16]
00000000: 60e5 1bbe 0099 153f 4110 38be a35e a13e
00000010: ba88 803f 7fd6 663f 0d13 94bf 6f38 543f
00000020: 2a30 ce3e 0a6c 193f a505 8a3f 244c d9bd
00000030: b755 02be 1eb6 42bf 83c7 7e3f aee4 44bf
-0.15224218 0.58436584 -0.1797495 0.31517515 1.0041726 0.90171045 -1.1568314 0.8289861
0.4027112 0.5993048 1.0782973 -0.10610226 -0.1272801 -0.7605914 0.9952318 -0.7691144

conv1.lin_edge_compact.ue__uplink__ap.1.0.weight f4 [32, 16]
00000000: 109c 51be 58a2 84bd 5c2b edbd 5496 c73d
00000010: 2288 77be c0ae 16bc 44dd 8c3d 50b4 143e
00000020: c812 b2bd 202b 26bc 906a bebd 1aab 18be
00000030: 1884 9dbd 50fa 39be d8e3 45be 60e0 11be
00000040: b89a 5d3d 8f8f fabc 3bfb 10be d311 a13e
00000050: 0361 2f3e 2a44 793d e3bb 91be 4dcc 353e
00000060: 3637 d03e 9187 5b3e 5c3a ac3e 51a4 5fbe
00000070: 8024 8cbc 0a6b 5cbe 47d2 b63e 1cc9 00be
00000080: 36f5 16be 83e0 68bd 5374 6cbe c52a 713e
00000090: 9491 a33c 12ea b83d 007d 46be 0cd3 ebbd
000000a0: df48 a0bc 6233 eb3d a0e7 54be 02e0 8ebe
000000b0: 7047 bc3d cc9b f53d 9967 463e a091 fb3d
000000c0: b072 3fbd 47ea 05be c675 263d 033c 8d3e
000000d0: ed0c babd fd2c 9c3e d546 b3bd 5896 e03d
000000e0: ffe9 b3bd 1b0a c13d 5007 3e3e c974 b13d
000000f0: 9c8f 0cbe 5820 5abe 76e7 27bd 9cde 233e
00000100: 38ba 6f3d 0c2d 96bd f95c ca3d 5f0c 24be
00000110: 0efc 2bbd 5592 c43d e0f8 793e 2560 db3d
00000120: 33f7 113e e3a1 9fbd 88be 7b3e 0f29 9f3d
00000130: 2ef1 893e e8f2 0ebe b576 673e b4bd 403e
00000140: a058 a5bd b658 973e 8aca 96bd ac1c 813e
00000150: 7a3d 093e 027e 9c3d fffb 93be 2aad 39be
00000160: 44e3 1ebd 54a1 123e 30a6 993d 5012 ba3d
00000170: eefe 1b3d 926f 5bbe 6aed d63e 9a2e 21be
00000180: 0430 34be b223 b9bd 01c8 5e3e 85df 0f3e
00000190: 7937 cbbe 2f1b 743e e829 4e3d fdc5 593e
000001a0: fcfd 803d fb87 aebc acce 0fbe d136 013d
000001b0: e577 7e3e d850 ca3d 1bbd 28be f0fd a03c
000001c0: d4c0 0dbe c05e 0e3c 00ea ed3a ac07 fe3d
000001d0: 5c1a e93d 6ca0 ecbd c46f ba3d 8266 14be
000001e0: 4224 35be 901d 9a3c 7a2c 48be c02b 1bbc
000001f0: 0601 49be e00d aabd 90a8 80bc 66cf 2cbe
00000200: 94d6 813d 8678 0bbd 6c67 f9bd ac83 8b3d
00000210: 06df f7bd 8da1 563e 9b31 6a3e a1ee b03e
00000220: d201 f4be 1a60 393c 14ef 51be 6d98 8b3d
00000230: f99e 9a3e ac52 cc3d 4d48 7bbe 7657 58be
00000240: 5015 d6bc d89a c73d 644e 26be 94e7 adbd
00000250: 7aa3 10be b8ff 39be 9008 6b3e eedc 6cbe
00000260: f83b 2f3e 26d9 26be be72 29be c0c1 c6bc
00000270: 10e5 66bd a214 343e 1c56 fb3d 8068 903c
00000280: 24e0 bcbd 3cf6 f0bd 7475 483e d00f e43d
00000290: 36d1 cfbd 56c8 f73d b018 673e 8e2b 353e
000002a0: 9420 aebd a105 7cbe 072b 6ebe e7d5 873e
000002b0: 8988 4a3d a8cc 1cbd 30d0 663d f8d6 26be
000002c0: 5ad9 1a3e 3b90 893e 0119 b5bd 8120 973e
000002d0: 23b9 453e 6ab6 9bbd 0729 bcbe fd90 073e
000002e0: 7682 c83e 0352 963c f1f7 e63c 4f0d 45be
000002f0: 094d e3bd 8027 363c 21a1 ae3e 90b5 68be
00000300: ce87 26be b982 e6bd de0c 943e 2365 0bbe
00000310: 8c99 ebbd 0f3d 943e c1d6 9e3e 1a94 a93e
00000320: 1021 41be 3493 cbbc 0537 1bbd 6d29 12bd
00000330: 2fb2 c7bd e298 1c3e 705e a0be 0c0e b2bd
00000340: ec2b c1bd 64af 73be 3fdf 073e 14ba b4bd
00000350: 5c93 27be 9f67 f9bd dad8 86bc abc0 a83d
00000360: 2efc 48be 008a cfba a3de 66be 742a 133e
00000370: 5ac1 3cbe 788a 113d 906d 023d 1ef5 353e
00000380: c00c a23d b304 e4bd af2b ccbd c497 5a3e
00000390: 1df3 febe 5a5c 9d3e 2110 74bd 0bda 40bd
000003a0: 0c35 4cbe 2cc2 bebe ed1f 0d3c 7969 2b3e
000003b0: 39fe 4e3e ec3d 883d 336c bdbe 582a 243e
000003c0: 2047 73bc cc24 413e f520 6a3e 5018 86bd
000003d0: 6948 e4be 26c9 613d 9f4e 6f3e be09 08be
000003e0: 7c17 a53d 0847 8ebd 6603 9ebd b23e a03e
000003f0: 76d1 9f3e 784f 253e 1ca9 9abe 8010 0abd
-0.2046969 -0.06476277 -0.11580536 0.0974547 -0.24173024 -0.009196937 0.068781406 0.14521909
-0.086949885 -0.010142118 -0.09297669 -0.1490902 -0.076912105 -0.18161893 -0.19325197 -0.14245749
0.05410263 -0.030586032 -0.14158337 0.3145891 0.17126851 0.060856022 -0.2846366 0.17753716
0.40667123 0.21438433 0.33638275 -0.21840025 -0.017107248 -0.21525207 0.35707304 -0.12576717
-0.14741978 -0.056854736 -0.23091249 0.23551472 0.019966878 0.0902902 -0.19383621 -0.11514863
-0.019565998 0.1148441 -0.20791483 -0.2790528 0.09193313 0.119926065 0.19375457 0.12283635
-0.046740234 -0.13077651 0.04063966 0.27584848 -0.09084497 0.30503073 -0.087537445 0.10966176
-0.087848656 0.094257556 0.18557477 0.08664853 -0.13726658 -0.213014 -0.040992223 0.16002887
0.0585272 -0.07332811 0.098810144 -0.16020344 -0.041988425 0.09598223 0.24411345 0.107116975
0.14254455 -0.07794549 0.245844 0.07771503 0.26941818 -0.13959849 0.22603877 0.18822366
-0.080735445 0.2955987 -0.0736285 0.25217187 0.13402358 0.076412216 -0.28903195 -0.18132463
-0.038790956 0.14319354 0.07502401 0.09085524 0.038084917 -0.2142928 0.41978008 -0.15740433
-0.17596442 -0.090400115 0.21755983 0.1405011 -0.3969076 0.23838495 0.050332934 0.21266933
0.06298444 -0.021305075 -0.14043683 0.031546418 0.24850424 0.09878701 -0.16478388 0.019652337
-0.1384309 0.008689582 0.0018151402 0.12403807 0.11381981 -0.115540355 0.09103349 -0.14492229
-0.17689613 0.018812925 -0.19548216 -0.00947088 -0.19629297 -0.08303428 -0.015705377 -0.16875991
0.06339756 -0.034050487 -0.12177929 0.06812224 -0.12103085 0.20960064 0.22870485 0.3455706
-0.4765764 0.011314416 -0.20501357 0.06816182 0.30199412 0.09976706 -0.245393 -0.21127114
-0.02613321 0.09746331 -0.16240841 -0.08491436 -0.14124861 -0.18163955 0.22952485 -0.23131153
0.1711272 -0.16293773 -0.16547677 -0.02426231 -0.056370795 0.17585996 0.122722834 0.017627954
-0.09222439 -0.117657155 0.19576055 0.111358285 -0.10147326 0.12098758 0.22568011 0.17692396
-0.085023075 -0.24611522 -0.23258601 0.26530382 0.049446616 -0.038281113 0.056350887 -0.16292942
0.15121976 0.26867852 -0.0884266 0.29516986 0.19308905 -0.07603152 -0.3675005 0.13238902
0.39162034 0.018349653 0.0281944 -0.19243358 -0.11098678 0.011117816 0.34107307 -0.2272551
-0.16262743 -0.11255402 0.28916067 -0.136128 -0.11503896 0.28952834 0.3102322 0.33120805
-0.18860269 -0.024850465 -0.037894268 -0.035684038 -0.09750783 0.15292695 -0.3132205 -0.086940855
-0.094322056 -0.23797375 0.13268755 -0.08824554 -0.16364807 -0.12177967 -0.016460825 0.082398735
-0.19627449 -0.0015833974 -0.22545867 0.14371663 -0.18433133 0.035532445 0.03184277 0.17769286
0.07912588 -0.11133709 -0.099692695 0.21346956 -0.49794856 0.3073452 -0.059585694 -0.047082942
-0.19942111 -0.37257516 0.008613569 0.16739453 0.20214166 0.06652436 -0.36996612 0.16031778
-0.0148485005 0.18861693 0.22864135 -0.06547606 -0.44586495 0.05512347 0.23369835 -0.13284966
0.0806112 -0.06947142 -0.07715492 0.31297833 0.31214494 0.16143596 -0.30207145 -0.033707142

conv1.lin_edge_compact.ue__uplink__ap.1.0.bias f4 [32]
00000000: c076 373d db3e 713e c65d dbbd 76d2 0ebe
00000010: bec7 debc 0e8b 813e 3197 aebe e672 3fbe
00000020: b688 d8be 3006 58bd 4b7d 2dbd 181c 5e3e
00000030: 6aa4 1dbe fab3 aebe 64e9 bebe 707b 59be
00000040: 9a9d 8abe aa50 a6bd 6e13 463e b7af b2bd
00000050: 7223 903d 3180 b7be 1713 da3d f61a f63d
00000060: 282b 1dbe fae6 2dbe 169c 1f3e aa86 eb3e
00000070: dba9 b33e e3b9 ebbd 33c0 aa3e 033d e73d
0.044790983 0.23559134 -0.10711245 -0.13947472 -0.027194854 0.25301403 -0.34099725 -0.18696174
-0.42291802 -0.052740276 -0.042355817 0.21690404 -0.1539475 -0.34121686 -0.37287438 -0.21238494
-0.27073365 -0.08120854 0.1934335 -0.08724921 0.07038011 -0.3583999 0.10648172 0.12016861
-0.15348494 -0.16982642 0.15586886 0.46001178 0.35090527 -0.115100645 0.3334976 0.11290934

conv1.lin_edge_compact.ap__downlink__ue.0.0.weight f4 [16, 1]
00000000: 590e 923e f0e8 073e 4ae1 2f3f 00d8 19bd
00000010: 2eee 3b3f 1ed9 38bf 1dae 523f 0039 1ebd
00000020: 5e0a 383f d986 893f b713 073f 00f4 cf3e
00000030: 6015 90bd 5e16 04bf 3ff4 55be 847d 153f
0.2852657 0.13272452 0.6870314 -0.03755951 0.7341031 -0.72206295 0.82296926 -0.03862858
0.7189082 1.0744277 0.5276446 0.40615845 -0.07035327 -0.5159663 -0.20893954 0.58394647

conv1.lin_edge_compact.ap__downlink__ue.0.0.bias f4 [16]
00000000: 661c 06bf e45e f73e 70d5 263f 709c bdbe
00000010: ea78 70bf d8bd e1be bb19 813e 22c8 03bf
00000020: 68e7 b3bd 4b51 343e 22ad 22bf e974 e1be
00000030: a4f3 b1be 60a2 703f adf2 013f 12c9 30bf
-0.5238708 0.48314583 0.6516943 -0.37033415 -0.939345 -0.44090152 0.25214943 -0.51477253
-0.087843716 0.17609136 -0.6354543 -0.44034508 -0.34756196 0.93997765 0.5076092 -0.6905681

conv1.lin_edge_compact.ap__downlink__ue.1.0.weight f4 [31, 16]
00000000: 15cc a2bd 3e40 53bd 58db e2bd e854 5bbe
00000010: 0478 c63c f0d4 17bd 7196 293e 0642 1e3e
00000020: 6a96 da3d 96c8 473d 99ce 573b cf2d 87be
00000030: d8db 283e 2426 b03d 8e01 0dbe 6838 71be
00000040: 7010 27be d528 603e c8e1 933e f8b1 5ebd
00000050: 146b a43d f84e f4bd 7c00 e03d 9054 2f3e
00000060: c086 783e f3a2 e7bd 58c1 f23d f061 863e
00000070: d439 eebd 81c5 44be 639c e3bc ef4a 9ebc
00000080: 4026 64bd d0d2 8bbc 3e2f 23be a6df 493e
00000090: a078 ca3c 96ad 1bbe 0a9b 22be e62b 31be
000000a0: d885 0bbe 10c1 62be 384a 2ebd 102d 683d
000000b0: b6aa 253e d822 11be bc70 71be 302e dfbc
000000c0: 333e 09be d367 ac3d efad bc3d 86f9 2fbe
000000d0: 4bff 16be daf5 2f3e bc4a 0c3e e889 4d3e
000000e0: 9c3a 913e 0bd7 703e 5c2e 9e3c afa6 37be
000000f0: 5482 c73d f3a9 913e 6d14 c83d e309 c7bb
00000100: 7bd6 5f3e 40b6 223e 55b7 943c c094 963c
00000110: 1ca2 2b3e d2d8 4ebe 61c7 62bc ccbc 16be
00000120: f75f 983e fd7e ed3d fed4 ef3d e12a a5bd
00000130: ce34 58be 3cb7 933e 875b c4bd 9b75 a23d
00000140: b405 d4bd 72ec cd3b 6625 97bd 903e 883c
00000150: 346f 82bd f29b 013e 58d6 83bd c02b a9bc
00000160: 205e d53d 108a 62be d455 b53d 18f9 3abe
00000170: 082c 70be c902 003e 8423 213e 003a c8bb
00000180: 7a7f 38bd 3f61 163e 02da 67bd 60ae 7c3d
00000190: 0485 853c 00a2 353b d685 3c3e 8cc1 923d
000001a0: 2041 97bd b584 493e 6065 b13d cfe5 a7bd
000001b0: cc87 3dbe fcab e23e a9bd cc3e 0637 01be
000001c0: bbaa 74be 3962 a83d ba6d 42be 3e2a 32be
000001d0: 8a9d 1cbe 80b9 aabc 74c4 313d d892 2c3e
000001e0: 4f91 0fbe d32e 643e 1f21 103e 2ea7 3bbe
000001f0: 664e 52be 9c88 bebc 43a3 30bd 15d8 d0bd
00000200: 25db 923e a0ba 093d 8100 193e b8c7 70be
00000210: 2e42 9a3e 6434 d53d 324e 4d3e 1ce1 3d3e
00000220: 9c51 b33d de48 b6bd e769 9e3e e67a c53d
00000230: 18ef 5bbe b653 15bd 29e6 313d 5f2f 813e
00000240: c2c3 bdbd d999 41be 2a17 0c3e e08a 7cbc
00000250: 739b 8f3d 6a42 5c3e 0930 2b3e 6c69 0b3e
00000260: 6551 a8bd 958d 65bd 3593 cfbd d6b3 8cbe
00000270: 60fd 6bbe 0d73 2a3e e28d b63d c493 01be
00000280: 775a dfbd 1487 ad3e 536e 5e3e 882e 9ebd
00000290: 3d19 b4bd bc08 4c3e 668f 25bd 1265 373e
000002a0: f8c1 983e 1c07 71bc 394f fdbd 2c47 543d
000002b0: bc49 a5bd 7595 a93e 8a00 943e 6adf 9ebd
000002c0: fed7 33be c45b f23d 049d f73d 1c30 1e3e
000002d0: 1287 1dbe 1037 adbd b45f 00be a266 683e
000002e0: f4ba dcbd 486d 6bbe 0841 693e 68c8 c13d
000002f0: 885f 8e3d 80c0 2b3b 58ab d0bd 083f 853d
00000300: 1084 ecbd f03e 263d 583a 653d b457 323e
00000310: 084c cd3d f072 d83d 4cbf 74be e656 36be
00000320: fac9 763e 0039 40be 0646 063e 00c7 113d
00000330: f2cc 383e 7cd7 003e fc2f 31be b6b2 29be
00000340: 5adb aa3c df14 16be 00e1 b3bd 0058 92ba
00000350: a7e6 693e 1039 263e 81cc 083e 5a77 4cbe
00000360: de2c 763e 84cd 9fbd 2b5e 393d 8f04 7e3e
00000370: 5cde f63d 53f6 dabe db90 d0bd df63 463d
00000380: 4bdc 5cbe 6d6f 47be 0cb9 2b3e fc4a ddbd
00000390: 016d 003e 5cc2 e73d 433c 733e c6ae 7ebe
000003a0: 1b8e cc3d eefb 2a3d d71d 1c3e 001f b23c
000003b0: 5a40 663e 8bd3 12be 669d 063d c46f 47be
000003c0: 5349 953e f7bd 9a3e a2fe bc3d 9ed8 19be
000003d0: a6f1 7d3e 56a6 133e 238e 063e f86e 233e
000003e0: b49e a03e eda0 a03d cfd9 053e b196 77bd
000003f0: 0c0c c43d 9104 303e f2f8 303e 3c87 063e
-0.07949082 -0.051574938 -0.11076993 -0.21419108 0.02422715 -0.037068307 0.16561295 0.15454873
0.106732205 0.048775278 0.0032929538 -0.26402137 0.16490114 0.08601025 -0.13770124 -0.23556674
-0.16314864 0.21890576 0.28883195 -0.054368943 0.08028236 -0.119291246 0.109375924 0.17122102
0.24270153 -0.11310377 0.11853284 0.26246595 -0.116321236 -0.19215967 -0.027784532 -0.01932284
-0.05570054 -0.017068297 -0.1593599 0.19714221 0.024715722 -0.15202937 -0.15879455 -0.17301902
-0.13625276 -0.2214396 -0.04255125 0.0566836 0.16178402 -0.14173448 -0.23578161 -0.027243704
-0.13402633 0.084182404 0.09212863 -0.1718503 -0.14745824 0.17183629 0.13700384 0.20072138
0.28365028 0.23519532 0.019309215 -0.17934678 0.09741655 0.28449973 0.09769521 -0.0060741766
0.21859162 0.15889835 0.018153826 0.018381476 0.16761059 -0.20199898 -0.013841481 -0.14720458
0.29760715 0.11596487 0.11710547 -0.08064819 -0.21113893 0.28850734 -0.0958777 0.07932588
-0.1035265 0.00628429 -0.0738018 0.016631395 -0.063688666 0.12657145 -0.06437367 -0.020650744
0.104183435 -0.22122979 0.08854261 -0.18259084 -0.23454297 0.12501062 0.15736204 -0.0061104298
-0.045043446 0.14685534 -0.056604393 0.061689734 0.016298778 0.0027714968 0.1841043 0.071658224
-0.073854685 0.1967953 0.08661914 -0.081981294 -0.18508834 0.4427184 0.3998845 -0.12618646
-0.23893254 0.082218595 -0.1898717 -0.17398927 -0.15294471 -0.020840406 0.043400243 0.16852891
-0.14020275 0.22283487 0.14075135 -0.18325493 -0.20537719 -0.0232585 -0.04312445 -0.101974644
0.2868282 0.033625245 0.14941598 -0.23513687 0.30128616 0.10410383 0.2004936 0.18542904
0.087558 -0.08900617 0.30940172 0.09642582 -0.21477926 -0.036456786 0.04343239 0.25231454
-0.092658535 -0.18906344 0.13680711 -0.01541397 0.070120715 0.2150971 0.16717543 0.13614434
-0.0821865 -0.056043226 -0.101354994 -0.27480954 -0.23045874 0.16645451 0.08913781 -0.12654024
-0.10905927 0.3389212 0.21721773 -0.07723719 -0.08793876 0.19925207 -0.04041996 0.17909649
0.29835486 -0.014711168 -0.12368626 0.051825687 -0.08070704 0.3312184 0.2890666 -0.077574566
-0.17562863 0.11833909 0.12090495 0.1544804 -0.15383556 -0.08457768 -0.12536508 0.22695401
-0.10777846 -0.22990906 0.22778714 0.094620526 0.06951815 0.0026207268 -0.10188931 0.06506163
-0.115486264 0.040587366 0.055963844 0.17416269 0.100242674 0.105687976 -0.23901099 -0.17806587
0.24100485 -0.18771744 0.1311265 0.03559017 0.1804693 0.12582201 -0.17303461 -0.16572079
0.020856548 -0.14656399 -0.0878315 -0.0011165142 0.22841893 0.16232705 0.13359262 -0.19967404
0.24040553 -0.07802871 0.04525582 0.24806426 0.120541304 -0.42766055 -0.10183879 0.04843509
-0.2156841 -0.194761 0.16769809 -0.10805318 0.12541582 0.11316368 0.23753457 -0.24871358
0.09988042 0.041744165 0.15245758 0.021743298 0.22485486 -0.1433851 0.03286495 -0.19476229
0.29157504 0.30223057 0.09228255 -0.15024039 0.24799213 0.14418921 0.13140158 0.159603
0.3137108 0.07843194 0.13071369 -0.060446445 0.0957261 0.17189242 0.17282465 0.13137525

conv1.lin_edge_compact.ap__downlink__ue.1.0.bias f4 [31]
00000000: cd97 48be 9638 1a3c a26c 68be 8877 babd
00000010: e058 e13d 73a3 06be 2227 d23e 14df 07bd
00000020: 2db7 123c 6f7f f73e 5062 8b3e 847b 94bd
00000030: 7894 5fbd 0bda d43b 4b6d 8e3c e8cd 1dbe
00000040: 3c1f 4c3e 2b1e 913e 45c1 72be a8c7 2ebe
00000050: a4d4 a2bd 0888 d3bd 2273 393d ec0a 6fbe
00000060: ce21 1abe acdb 0bbd c813 62be 3ce9 513e
00000070: 891a 5e3e 5b97 a23c d0e7 b3bd
-0.19589157 0.009412905 -0.2269769 -0.0910483 0.1100328 -0.13148288 0.4104548 -0.03317173
0.008954805 0.48339412 0.27223444 -0.07250121 -0.05458495 0.0064957193 0.0173861 -0.15410578
0.1993379 0.2834333 -0.23706539 -0.1706835 -0.07950714 -0.1032868 0.045275815 -0.2334401
-0.15051958 -0.034145042 -0.22077858 0.20499128 0.2168981 0.019847563 -0.08784449

conv1.lin_node_upd.ue.0.0.weight f4 [16, 1]
00000000: 8f53 0e3f 7b6f 203f 920e 04bf 6cd4 94be
00000010: e034 73bf 604e 3ebe 226c 4f3f e686 53bf
00000020: b081 893f 85ed 863f b079 dd3e 26dd 74bf
00000030: 2c74 eebe 163e 673f ac83 5a3f 903e 193f
0.5559625 0.62670106 -0.5158473 -0.29068315 -0.95002556 -0.18584585 0.8102437 -0.82627714
1.0742702 1.0541235 0.43256903 -0.95649946 -0.46573007 0.9032911 0.85357165 0.5986109

conv1.lin_node_upd.ue.0.0.bias f4 [16]
00000000: 75d2 3e3f 056a 513f f66a 6cbf 704c 45be
00000010: d08a ef3d 90d7 a23e 402e df3d 0000 ceb8
00000020: fb7d 243e ee62 a43b ba1d 35bf 94b3 353f
00000030: 0427 38bf 87da 45bf ad4d 3bbf 1de8 483f
0.7453988 0.818024 -0.9235071 -0.1926744 0.11696398 0.31805086 0.10897493 -9.8228455e-05
0.16063683 0.005016676 -0.70748484 0.7097714 -0.71934533 -0.7728657 -0.731654 0.78479177

conv1.lin_node_upd.ue.1.0.weight f4 [31, 16]
00000000: b841 cc3e f7c4 5a3e 90f7 86bc a067 183d
00000010: 6eb9 7bbe b0b3 e7bd e810 eb3e f092 1e3e
00000020: 2b57 ba3e ff4b ff3e da78 a13e 78ba 723d
00000030: acb0 ecbd 96e4 b43c 5618 223e 33de c33e
00000040: 9028 c0bd 6a92 1a3e e665 7a3e b0ad 9d3d
00000050: fcec 803d 66be 41be dafb 58be 60fb ee3c
00000060: 2081 6e3c dc27 b53d 10c1 2abe 1819 443e
00000070: aeda 1a3e 00c6 99bd 68ff 3c3d d058 493d
00000080: dac5 663e c0bb 8bbc 0a09 603e 5099 2c3d
00000090: ace0 6cbe e82a 713d 5c6f 6fbe d8f2 e1bd
000000a0: 000b 853d c07f d6bb 5c51 153e 30b4 7f3d
000000b0: 004c baba e88f 6bbe fcbd 963d 048c 1fbe
000000c0: a2ed 5b3d e7f4 0abe 4004 563e e082 0dbe
000000d0: 821a 193e 4e8c 7c3e 957c 223d d44e 883d
000000e0: fb43 903e f810 5f3e 776c 9e3d 847b 09be
000000f0: 98c7 003e 711e 6a3d ee8e 183d 916c 623e
00000100: e1a4 00be 7d4f 723e c0ce 2a3c 7e6d 5fbe
00000110: 088d 2a3d 780d 2fbe 3240 7d3e c860 2e3e
00000120: f0fa cc3d 242d 08be db17 523e a837 4a3d
00000130: e000 c9bc 1a27 35bd 4adf 193d cbdc 733d
00000140: b867 ce3e 565b f53e b8eb e9bd 3426 e2bd
00000150: 1c21 86bd 8e3b 58be 8385 9f3e d88f 3bbd
00000160: 1183 ca3d 4f81 8a3e 9935 d73e 2ebd 513e
00000170: 28d1 533e 7986 9d3e 7922 a33e 3c2a d13e
00000180: 175c a73d 9def 473e 32c4 2d3e 7c96 0dbe
00000190: b49c 8bbd 5854 963d 8a2f 283e 5817 783e
000001a0: 3981 923e 1a5d f03e 1df1 b03e 3888 003d
000001b0: 3081 96bc 1e23 073f e741 ee3e ee08 8e3e
000001c0: 6038 983c 4072 e2bb 8c2d 32be 8ee7 0bbe
000001d0: 6082 6a3d fca3 34be ec0c dc3d 180c 9c3d
000001e0: d89d 60bd be63 22be 601b 38be 44a8 ce3d
000001f0: 3cc3 f9bd f8d8 06bd 6674 533e a09c c13c
00000200: f15d 5b3e ff77 2cbe 88c1 5fbe d0a7 08be
00000210: 221b 27be 743b 653e 7f22 71bc 0065 a0bb
00000220: f9d4 183e 674c abbd 9bdc 633e 8073 1a3d
00000230: 4c85 21be 086e 663e f676 e93d dceb 4bbe
00000240: 8a0c 053e 08b3 6e3d 84cc 243e 6c95 3d3e
00000250: e012 15be ceee 673e 5c34 07be 48f6 143e
00000260: 9a6e 51be fc87 24be debe 113e f28f 10be
00000270: d89d 003d 80e0 ffbc 7039 86bc 542b 29be
00000280: cb24 803e 958e cb3e f44b 793e a228 053e
00000290: ac66 d7bd ec27 61be 01bc 7d3d 3a05 403e
000002a0: 95ca 0a3e f452 bf3e 8630 a83e 5afd 79be
000002b0: 3867 a5bd 560c a83e d9b1 063e c220 02bd
000002c0: 7cbc b9bd 8038 8e3c 9858 733e 5820 413e
000002d0: 384c ee3d 50b8 09be c099 ddbb 941a bebd
000002e0: 0c0b c0bd 4cc7 39be 08f7 6cbe b495 d53d
000002f0: b831 69be e20a 3b3e 48b1 05be fec3 52be
00000300: 8cd3 1abe 24ce 52be cca2 1bbe e424 e23d
00000310: ae08 0dbe 72f8 22be 8c82 0fbe fa6c 013e
00000320: 4871 353e 58db 5f3d 24fd 8fbd 606d 543e
00000330: a02f 77be c0e5 46bd 3cc4 0cbe 5a39 753e
00000340: 1e51 2a3e a88b 88bd 22bc 063e 1ca9 f33d
00000350: 0002 df3a fc4e 8dbd f858 7c3d b67d 08be
00000360: 54e7 ddbd 3017 e03c b04f e9bd 18b1 83bd
00000370: 509e 813c 28b5 993d 8498 5ebe 7445 c03d
00000380: 4670 56be 84ba 543e 0c2b c33d 1cb3 b03d
00000390: 1c5e 8f3d 60ea 473e 08e3 d43d 2e26 4e3e
000003a0: 688d 293d 908f 6f3d 70cd c0bd 7055 7a3e
000003b0: 4843 3e3e 62e7 75be 2cd6 76be e0a4 bbbd
000003c0: e51c 44bd 38d2 c43d 00ad c4bd 0c23 66be
000003d0: c0c3 073e bac5 733e 8706 0b3c d4ec ebbd
000003e0: bb08 0fbe fdac 373e 3209 25be 688a b2bd
000003f0: 0080 ea3d 9ea3 ca3d cf83 493d adcf 5d3e
0.3989389 0.21364199 -0.016475469 0.0372082 -0.24582455 -0.113135695 0.45911336 0.1548574
0.3639463 0.49862668 0.31537515 0.05925986 -0.11557135 0.022081655 0.15829596 0.38255462
-0.09382737 0.15094915 0.24452934 0.07699144 0.06295201 -0.18920287 -0.21189824 0.0291726
0.014557153 0.08845493 -0.1667521 0.19150198 0.15122482 -0.07508469 0.046142012 0.049156964
0.22536412 -0.0170573 0.21878448 0.042138398 -0.2313258 0.05887881 -0.23382324 -0.11032647
0.06496239 -0.0065459907 0.14581817 0.0624277 -0.0014213324 -0.23004115 0.073604554 -0.15580755
0.05369342 -0.13569985 0.20900059 -0.13819456 0.14951518 0.24662897 0.039669592 0.0665566
0.28176865 0.21783817 0.07735532 -0.13426024 0.12576139 0.057157937 0.037245683 0.22111727
-0.12562896 0.23663135 0.01042527 -0.21819112 0.041638404 -0.17094982 0.2473152 0.17029107
0.100088 -0.1329847 0.20516913 0.049369484 -0.02453655 -0.044226743 0.03756646 0.059536736
0.40313506 0.47921246 -0.11421913 -0.11042443 -0.06549284 -0.21116468 0.3115655 -0.045791477
0.0988828 0.2705178 0.4203308 0.20482323 0.20685256 0.30766657 0.31862238 0.40852535
0.081718616 0.19524999 0.16969374 -0.13826936 -0.06816998 0.07340306 0.16424385 0.24227655
0.28614214 0.4694603 0.34558955 0.03137991 -0.018372148 0.5278796 0.46534654 0.27741188
0.01858157 -0.0069105923 -0.17400187 -0.1366255 0.05725324 -0.1764068 0.10744652 0.07619494
-0.05483803 -0.15858361 -0.17979193 0.10090688 -0.12195441 -0.03292176 0.20649871 0.023634255
0.21422555 -0.1684265 -0.2185117 -0.13345265 -0.16318944 0.22385961 -0.014717697 -0.0048948526
0.14924993 -0.08364182 0.22252123 0.037707806 -0.15773505 0.22502911 0.11399643 -0.19914192
0.12993065 0.058276206 0.16093642 0.18514031 -0.14557981 0.2264969 -0.13203567 0.14547074
-0.20452347 -0.16067499 0.14232966 -0.14117411 0.03140053 -0.03123498 -0.01638481 -0.16520435
0.2502807 0.3975722 0.2434538 0.13003781 -0.1051763 -0.21987885 0.061946873 0.18751994
0.13553841 0.37367976 0.3284952 -0.24413052 -0.08076328 0.32821912 0.13153781 -0.03176952
-0.09069154 0.017360926 0.23764265 0.18859994 0.11635631 -0.13449216 -0.006762713 -0.09282413
-0.09377107 -0.18142432 -0.2314111 0.10428944 -0.22772872 0.1826587 -0.13055909 -0.20582578
-0.15119761 -0.20586449 -0.15198821 0.110421926 -0.13772842 -0.15915087 -0.14014643 0.12639228
0.17718995 0.054652542 -0.070307046 0.20744848 -0.24139261 -0.04855895 -0.13746732 0.23947659
0.16632506 -0.06667262 0.13157704 0.118974894 0.0017014146 -0.06899831 0.061608285 -0.13329205
-0.10835138 0.027354807 -0.11392152 -0.06430262 0.01582256 0.07505256 -0.21737868 0.09388247
-0.20941266 0.20774275 0.09529695 0.086279124 0.07000372 0.19523 0.10394865 0.20131752
0.04139462 0.05848652 -0.09414184 0.24446654 0.18580353 -0.24014047 -0.24105138 -0.09162307
-0.04787912 0.096104085 -0.0960331 -0.22474307 0.13258266 0.23805895 0.008485443 -0.11519781
-0.13968174 0.17937084 -0.16116789 -0.08717805 0.11450195 0.09894489 0.049197968 0.21661253

conv1.lin_node_upd.ue.1.0.bias f4 [31]
00000000: d88f 443e 8cc2 1a3e 4e9f 7dbe 908e 4a3e
00000010: 8579 153e 76d2 b33e 4510 da3e 80f5 3d3c
00000020: a3ff 6d3e 887d 463d 0a35 873c 1816 6e3d
00000030: 3c69 29be 8083 683b d421 e83d cc92 34bd
00000040: e5c1 153e 76c2 003e 7086 64be c026 1fbc
00000050: c4d2 7c3e 90df 4fbe 1d49 543e 16b2 b03b
00000060: caf4 5cbe 072b 373e efcf 3a3d 3116 1a3e
00000070: dbc8 e7bc 24fb 723e 5c2f 7cbe
0.19195497 0.15113276 -0.24767801 0.19780946 0.14597137 0.35121506 0.42590538 0.011594176
0.23242049 0.04845956 0.016504783 0.05812654 -0.1654405 0.003547877 0.11334577 -0.04408531
0.14624746 0.12574181 -0.22316909 -0.009713829 0.24689776 -0.20300126 0.20731016 0.0053923232
-0.21577755 0.17887507 0.045608457 0.15047528 -0.028294018 0.23728615 -0.24627441

conv1.lin_node_upd.ap.0.0.bias f4 [16]
00000000: 0000 0000 0000 0000 0000 0000 0000 0000
00000010: 0000 0000 0000 0000 0000 0000 0000 0000
00000020: 0000 0000 0000 0000 0000 0000 0000 0000
00000030: 0000 0000 0000 0000 0000 0000 0000 0000
0.0 0.0 0.0 0.0 0.0 0.0 0.0 0.0
0.0 0.0 0.0 0.0 0.0 0.0 0.0 0.0

conv1.lin_node_upd.ap.1.0.weight f4 [31, 16]
00000000: 8041 40bd 9c96 ffbd dcd2 a7bd d069 743e
00000010: 902f af3c 503f 7d3d 92a6 6abe 6c91 74be
00000020: 026b 2cbe 1414 243e fc4f 503e 102f 34bd
00000030: 6026 9e3d f6bd 383e 2e10 21be 78b0 8cbd
00000040: 1201 33be b06a 893c 9211 0a3e 843f 433e
00000050: 20fb f73d 42f2 6dbe 54be aabd c27a 3e3e
00000060: d833 313d f078 8bbc 9cdf d83d ae9b 733e
00000070: 68b0 4c3e 0c94 e7bd 884b 09be a6e1 703e
00000080: 9840 40bd d8e9 4c3e f461 39be 381e 2d3e
00000090: cec2 10be 06ae 1e3e 505c f93d 00d3 c1bc
000000a0: fabf 373e c007 eebd 7255 06be 30ac 4d3d
000000b0: c026 46bc f25d 5bbe fe35 68be b254 783e
000000c0: 4467 af3d 9a8f 3d3e 2874 ce3d 5c24 59be
000000d0: ac62 81bd 7070 083e 50ca a0bc 5c81 efbd
000000e0: 3ccd 2abe e8cb 5c3d 2834 753d f0f4 7d3e
000000f0: 7810 a23d f8bd 70bd 1a82 44be 3880 c73d
00000100: 947b c93d 1485 7d3e c8a0 cabd 3c4d 0fbe
00000110: 74ec fa3d c06f e73b a0cf c53c e0b7 df3d
00000120: c0a6 6f3e 588a efbd 5a0a 5fbe 9480 ac3d
00000130: 528a 783e 10eb a33d 9488 83bd 546c cabd
00000140: 000c de3a 00a4 49be 38a7 b73d 3295 0d3e
00000150: dc0d 6ebe 246f 813d dca5 753e b401 ca3d
00000160: a411 103e f873 1c3d b0c1 c03c 10e5 3dbd
00000170: 1897 4f3e 0c69 0cbe 00dc 42bd c289 713e
00000180: 2e30 7bbe 1c2b c2bd 5247 3dbe 9c94 45be
00000190: 20e2 adbc ee56 1d3e e468 debd c05c 36bc
000001a0: ca06 183e 3828 393d 04da 0abe e47e 9bbd
000001b0: a07b 3bbd f891 32be 20d7 b2bc 00d2 bebd
000001c0: d04e 68bd eec1 793e a093 77bc 54ae b13d
000001d0: d88a 933d c21a 57be 1a47 543e 70f1 cd3c
000001e0: 2c81 cf3d 3059 d03c 28a8 463e 6889 b53d
000001f0: 4e20 4e3e 4ca4 2abe b2d8 64be 8040 7f3c
00000200: 8c70 003e fc06 42be d2f4 31be e80b 48be
00000210: 240b 123e 3830 723e 801e 6d3e 8ea5 63be
00000220: d051 6dbe 9e2b 3bbe 88be 55bd 20f3 26bc
00000230: dcd3 be3d 0605 4a3e 9231 35be a60e 683e
00000240: 38e3 8fbd b646 553e 3a3e 7c3e d8f9 763e
00000250: 146f d7bd de0a 48be a481 443e 96e8 163e
00000260: b291 19be 4891 003e 701f 75bd 00cc e0bb
00000270: e8db 473e 28ec 54bd 2a31 3f3e 1ed2 69be
00000280: 767e 073e 80a4 6fbd 1c37 0dbe dcb1 39be
00000290: d099 c6bd 9050 a3bd d072 2f3d 0c5f d0bd
000002a0: c09a d6bd e0fc 02bc 7c4e 9dbd 5877 4d3e
000002b0: 5e47 48be e01a 2ebc d0e2 1fbd b094 adbc
000002c0: e40d 133e 9407 a8bd 4eb4 703e 607a d9bc
000002d0: 904f c1bc 4c99 bc3d d443 58be 94eb 7fbe
000002e0: 8045 e6bc 14b7 083e b0c6 063d 5843 99bd
000002f0: 14a7 ca3d d660 17be 38f2 89bd d6fb 0b3e
00000300: bc69 e43d 54ab 69be a887 6dbd 946b 41be
00000310: c071 483d 2058 423d 54f8 c5bd 3823 3dbe
00000320: c859 9a3d 78e7 bf3d a0d7 6a3c 00f9 76be
00000330: 6053 1fbd 1c3c 9bbd a655 7d3e 00ea 913d
00000340: 9a9f 5dbe 14d2 f0bd 9cdc 81bd 30e3 1a3d
00000350: c4c6 9bbd 70e4 3fbe b483 013e 2aed 1ebe
00000360: 803a 1a3b 0026 263d 8cb5 68be 4495 6d3e
00000370: 9845 88bd c0f8 20bd bccc 38be 00c0 66b9
00000380: f471 f03d a0c7 053d 80d8 6d3e 28d9 5cbe
00000390: e0ad 453e 7ac9 4c3e bc85 88bd f8f7 13be
000003a0: 50e5 bdbc e047 c0bc f0e3 6e3e 08e7 77be
000003b0: 58b3 fdbd 8248 2f3e a8d9 5e3e 301a 743d
000003c0: e491 d0bd f8de abbd a0ab 24be 4833 19bd
000003d0: d6d5 303e ac0d 383e ca80 3d3e 3e08 30be
000003e0: dc78 333e b802 36be 0aa1 6b3e 4cda 303e
000003f0: 8889 d5bd 92c1 42be 5846 2c3e 5ca7 ffbd
-0.046937466 -0.12479898 -0.08194515 0.2386849 0.021384984 0.061827958 -0.22915104 -0.23883599
-0.16837695 0.16023284 0.20343012 -0.043990195 0.07722163 0.18041214 -0.15728828 -0.06869596
-0.17480877 0.016774505 0.13483265 0.19067198 0.12108445 -0.23236945 -0.083370835 0.18601516
0.043262333 -0.01702544 0.10589525 0.23789856 0.19989169 -0.113075346 -0.13407719 0.23523578
-0.0469366 0.2001108 -0.18103772 0.16906059 -0.14136812 0.15496072 0.1217581 -0.023660183
0.17944327 -0.11622572 -0.13118532 0.05021304 -0.0120942 -0.21422556 -0.22676846 0.24251059
0.08564618 0.18511811 0.10080749 -0.21205276 -0.06317648 0.13324142 -0.01962772 -0.11694595
-0.16679853 0.053905398 0.059864193 0.24800467 0.079132974 -0.05877492 -0.19190255 0.09741253
0.09838024 0.24757797 -0.09893948 -0.13994306 0.12252131 0.007062882 0.024146855 0.10923743
0.23403454 -0.11696309 -0.21781293 0.08422962 0.24271515 0.08003819 -0.064225346 -0.09883943
0.0016940832 -0.19691467 0.08967441 0.13826445 -0.23247474 0.063200265 0.23989052 0.09863606
0.1406923 0.038196534 0.023529857 -0.04636103 0.20272481 -0.13711947 -0.04757309 0.23587707
-0.24530098 -0.09480879 -0.18484238 -0.19294971 -0.021225989 0.15365192 -0.1085985 -0.011130512
0.1484634 0.04520437 -0.13559729 -0.07592562 -0.045772195 -0.17438495 -0.021831095 -0.09317398
-0.056715786 0.24390385 -0.01511088 0.086758286 0.07204217 -0.21006301 0.20730248 0.02513954
0.101320595 0.025433153 0.19400084 0.08864099 0.20129511 -0.16664237 -0.22348288 0.015579343
0.12542933 -0.18947977 -0.17378548 -0.19535792 0.14262062 0.23651206 0.23156166 -0.22231123
-0.2317574 -0.18278357 -0.052183658 -0.010189801 0.09317753 0.19728479 -0.17694691 0.22661838
-0.070257604 0.20827755 0.24633113 0.24118745 -0.10519233 -0.19535396 0.19190079 0.14737162
-0.14996985 0.1255542 -0.059844434 -0.006860256 0.19517481 -0.05198303 0.18671098 -0.2283406
0.13231835 -0.05850649 -0.13790554 -0.18134254 -0.09697306 -0.079743505 0.042834103 -0.10174379
-0.10478735 -0.00799486 -0.07680985 0.20065057 -0.19558474 -0.010626525 -0.039034665 -0.021189064
0.14360768 -0.082045704 0.23506281 -0.02654761 -0.023597509 0.092089266 -0.21119624 -0.2499221
-0.028109312 0.13351089 0.032904327 -0.07483548 0.09895149 -0.14783034 -0.06735653 0.13670287
0.1115298 -0.22819263 -0.0579907 -0.18888694 0.048936605 0.047447324 -0.096665055 -0.18470466
0.07536656 0.09370321 0.014333636 -0.24118423 -0.038897872 -0.07579824 0.24739704 0.0712471
-0.21642914 -0.11758819 -0.06340906 0.03781432 -0.07606271 -0.18739486 0.12647897 -0.15520158
0.0023533404 0.040563583 -0.22725505 0.23201472 -0.06653899 -0.039299726 -0.1804685 -0.00022006035
0.11740485 0.03266108 0.2322712 -0.21567214 0.1930461 0.19998732 -0.06666133 -0.14450061
-0.023180634 -0.023471773 0.23329139 -0.24209225 -0.12387723 0.17117503 0.21762717 0.059595287
-0.101840764 -0.08392137 -0.16081095 -0.03740242 0.17269072 0.17973965 0.1850616 -0.17190644
0.17526573 -0.17774475 0.2301065 0.17270774 -0.10426623 -0.19019154 0.16823709 -0.12483093

conv1.lin_node_upd.ap.1.0.bias f4 [31]
00000000: 84de 273e c4eb f8bd f40c 113e 863f 0fbe
00000010: 488c 73be 525f 0dbe 1a1e 29be 72dd 263e
00000020: d2bb 79be c83e 62bd 6e25 443e fe27 58be
00000030: 7855 743d d6e2 3cbe a86b 4ebd a08d 7cbc
00000040: d613 79be 7e78 60be de6f 7dbe e8d5 633d
00000050: a056 4cbc bcf8 2b3e e01c 373d 9285 233e
00000060: 6aec 133e 80f6 553c 90de c7bd fc79 7d3e
00000070: 2acb 68be 9c82 133e 28e8 44be
0.16393477 -0.12154344 0.14165097 -0.13989076 -0.23783982 -0.13805893 -0.16515389 0.16295412
-0.24388054 -0.055235654 0.19154903 -0.21109006 0.05965182 -0.18445906 -0.050395638 -0.015414625
-0.24323973 -0.21920964 -0.24749705 0.05562392 -0.012471825 0.16794103 0.04470527 0.15968922
0.14445654 0.013059258 -0.09759247 0.24753565 -0.22733751 0.14405292 -0.19229186

conv2.lin_node_msg.ue.0.0.weight f4 [16, 32]
00000000: d2b9 013e 60c4 68bd 8a8f 1cbe 6e2a 673d
00000010: c5a2 17bd dabc b3bc a442 03be 0978 b03d
00000020: 576b 04be 824c fdbd 2b6c 3d3d 0f44 f6bd
00000030: a67a 9ebd ae78 2dbe 2f07 80bd 835f 09bc
00000040: ef41 cfbc 6a05 703d 5802 aebd 8cb1 3abd
00000050: 3040 a13a cd7a e6bd e80b 363c 4bc1 b53d
00000060: 6100 d43d ff14 06bc af9d 103e 2330 03be
00000070: 7eab d93d dcfc b9bc e3aa 85bc 9977 77bd
00000080: e12c 8fbd ab2a d73d a79b b93d 2543 823d
00000090: ead2 0b3e 16a9 09be 3490 ea3d b33b 2a3e
000000a0: 763e 2abe 7b74 273d fcc7 5abd 68d3 d6bd
000000b0: 8f18 083e eab6 0bbe c4af 9bbc 69bf f9bd
000000c0: 124d a53c 053a 1dbc d21f 933c c8ce d73c
000000d0: 6cb5 cdbb e6ed 05be 07b3 ecbd d558 30be
000000e0: 2814 d4bd cf0a 9fbd b751 873d d852 2c3d
000000f0: 9ad1 b9bd c0bf 7abd 6fa4 663d c5ac 333e
00000100: d6a7 01be ed21 163e 566e 343e 756a 69bd
00000110: d8d1 30be 994f 2b3e 51a1 553d f989 c8bd
00000120: 97f0 893d d16d cb3d 536b 1dbe 8005 b5bd
00000130: 1814 afbd d38a b5bd 55fc 0dbe a498 4bbd
00000140: d61f 2fbe ba28 95bd a799 0cbe 95cf 56bd
00000150: b421 cfbd bb85 6cbc cacd 5b3d 059d d1bd
00000160: ae39 773c ede7 3a3d 5ce9 dabd 0070 d23d
00000170: c171 f4bc a1f7 2fbd 7e80 ffbd 86c2 063d
00000180: 3b58 833d 1060 113e d90c 0abe 2f3f 62bd
00000190: 1b29 c5bc 6a78 183e b884 73bd 6f4e 013e
000001a0: bdad 6ebd a80c b6bd bf0e 92bd 19ce 293a
000001b0: 12aa e53c 8dcb d43d 7d01 27bd 6479 bbbd
000001c0: 19f3 c03d aef8 103e e03d 9fbd 9c80 1f3d
000001d0: 3885 dc3d 74c3 de3c 1d0e aebd e372 b0bd
000001e0: 024a 23be 5a5c 96bd 36e2 273e e9af c73d
000001f0: 456b 6abc 4faa 493c a969 54bc 4846 993d
00000200: 260e c03c 1641 e1bb f15d 403d 24cd 153e
00000210: eeb1 9bbd e493 e63d 9eeb 143d 5211 cf3d
00000220: face f5bc 5f16 cabd 8da3 0fbe 3b11 26be
00000230: b47b 06bc bfc8 a33d 4c9f 243d cbd1 303c
00000240: aea9 683d eb33 8f3d fc69 b8bd 68ff 923d
00000250: 07c7 343e afe6 133e d00e 96bb 274b f4bd
00000260: 9cf7 8dbc a110 283e 533d 273d d46c d9bd
00000270: 5532 13be 6eeb ec3d 1831 90bd 47e8 343e
00000280: 7618 a4bd 946d abbd b354 223e 0f5f 2dbd
00000290: 6a4b 263e ed1d bcbd 1106 273e 1833 5abd
000002a0: b57d 2dbe 2547 32bb 237f 80bb b9b1 9a3d
000002b0: f4fe e83d 0b07 283e f71c e83c 04dc 4f3d
000002c0: 4895 acbd 1abc 3b3c 4988 b7bd 7dbf 903c
000002d0: 3d0f febc e0ec 0cbd 817a 1c3e 3e32 0c3d
000002e0: 7845 c9bd 1352 0a3e 1d02 88bc 21be f93d
000002f0: df66 33be 29ae 61bc 9ef7 a7bd caf8 29bd
00000300: ba94 fabb 03de 823a 2f6d 1abe 6b66 c4bd
00000310: 9eed 233e a3c5 f6bd 2f94 133d 342d 153d
00000320: 3694 f3ba d485 2a3e 3b36 23bc c0a4 943d
00000330: 792f 9abd cdd5 933d 69f1 f8bc f7a1 b0bd
00000340: b542 16be a672 d5bd c678 113d bf68 e03d
00000350: 520a 00be d2dd 0dbe 6241 d3bd ef43 05bd
00000360: b7c3 e3bd 3b19 183e 8453 c43c 1f7c a8bd
00000370: 110e 27be a792 303e 567e 5e3c e51b 7bbd
00000380: ce8b ffbd e745 9ebd fab0 8fbc 6b6a 333e
00000390: a193 0b3d 2d72 0e3e 52db ab3d 7e72 fdbd
000003a0: d50c 083d d2a2 c43d 061a 473d 566a 493d
000003b0: e3c8 8f3c 59f4 dfbc 9315 40bd 436e 2d3d
000003c0: a9d5 9bbd 0ef0 083e ed0d b03d 2fc3 743d
000003d0: ad93 2c3b 930f 57bd 391a cbbd b42e 20be
000003e0: 5d0a a43b 2347 0e3e 2c6c 7fbd fb38 6dbc
000003f0: 8ee7 5b3d dc85 cf3c a6e8 5d3d 84e5 dcbd
0.12668541 -0.056827903 -0.15289131 0.05643695 -0.037020463 -0.021940637 -0.1281839 0.08616645
-0.12931572 -0.12368108 0.046245735 -0.120247 -0.07738237 -0.16940567 -0.0625137 -0.008384588
-0.025299994 0.058598913 -0.08496541 -0.04557948 0.0012302455 -0.11253891 0.011111237 0.08874758
0.10351635 -0.008183717 0.14122652 -0.12811331 0.10628413 -0.02270358 -0.016316837 -0.06041679
-0.06990982 0.10506185 0.090628915 0.06360463 0.13654676 -0.13443407 0.11453286 0.16624336
-0.1662539 0.04088257 -0.053413376 -0.10489541 0.13290618 -0.13643995 -0.01900471 -0.12194712
0.020178352 -0.009596352 0.017959509 0.026343718 -0.0062777307 -0.13079032 -0.11557584 -0.17221387
-0.10355407 -0.077657335 0.06607383 0.042071193 -0.090731815 -0.061218023 0.05630916 0.17546375
-0.1266168 0.14661379 0.17620215 -0.05698629 -0.17267549 0.16729583 0.052155796 -0.09791941
0.06735342 0.09933055 -0.15372972 -0.0883894 -0.085487545 -0.08864369 -0.13865788 -0.049706116
-0.17101988 -0.072831586 -0.13730489 -0.05244406 -0.1011385 -0.014436181 0.053663053 -0.10235027
0.0150894355 0.045631338 -0.10689041 0.102752686 -0.029839398 -0.042960767 -0.1247568 0.032900356
0.06413313 0.14196801 -0.13481463 -0.055236038 -0.024067452 0.14889684 -0.059452742 0.12627576
-0.05827116 -0.08889133 -0.07131719 0.00064775493 0.028035197 0.10390387 -0.040772904 -0.09154013
0.09421367 0.14157364 -0.077754736 0.03894101 0.10767597 0.027192809 -0.08498786 -0.08615663
-0.159462 -0.073418334 0.16394886 0.09750349 -0.014307802 0.012308671 -0.0129646445 0.07484108
0.023444247 -0.006874214 0.04696459 0.14629036 -0.07602297 0.11258677 0.036357515 0.101107255
-0.03000592 -0.09867548 -0.14027233 -0.1621751 -0.008208204 0.07997274 0.04019098 0.010792206
0.056802444 0.069923244 -0.0900459 0.07177621 0.17654048 0.14443468 -0.0045794025 -0.11928397
-0.017329983 0.16412593 0.040829968 -0.106164604 -0.14374669 0.11568342 -0.07040614 0.17666732
-0.08012478 -0.0837051 0.15852623 -0.042326983 0.16239706 -0.091853954 0.16310908 -0.053271383
-0.16942485 -0.002720305 -0.003921406 0.07553429 0.113767534 0.16408937 0.028334124 0.050746933
-0.08426911 0.011458421 -0.08961541 0.017669434 -0.031013126 -0.03440559 0.15281107 0.034227602
-0.09827703 0.13507871 -0.01660257 0.12194467 -0.17519711 -0.013774433 -0.08201526 -0.04149703
-0.007647124 0.0009984378 -0.15080713 -0.09589847 0.16008613 -0.12049415 0.03602999 0.036420062
-0.0018583599 0.16652614 -0.00996166 0.07257986 -0.07528586 0.07218514 -0.03038855 -0.08624642
-0.14673884 -0.10422258 0.03551557 0.10957479 -0.12503937 -0.13854149 -0.10315205 -0.03253549
-0.11121314 0.14853375 0.023965605 -0.08226799 -0.1631396 0.17243443 0.0135799255 -0.0613059
-0.124778375 -0.077281766 -0.017540444 0.17521064 0.034076337 0.13910742 0.083914414 -0.12375353
0.033215363 0.09601368 0.048608802 0.049173675 0.017551845 -0.027338194 -0.046895575 0.042341482
-0.07609112 0.13372824 0.08596406 0.059756454 0.0026333139 -0.052505087 -0.09917111 -0.15642816
0.005006118 0.13894324 -0.06235902 -0.014478917 0.053687625 0.025332384 0.05417695 -0.10785964

conv2.lin_node_msg.ue.0.0.bias f4 [16]
00000000: 4e29 1d3e b3d4 fe3c 7188 183e 001b cf3c
00000010: 0feb 2a3d cea4 343e c468 c3bd c056 033e
00000020: 6b55 bb3d 0669 3abd 772f 273e 1330 6d3d
00000030: 1aff 1bbe d463 1dbe 8fd0 17be 6725 d83d
0.15347788 0.031107282 0.14895798 0.02528143 0.041728076 0.17640993 -0.09541467 0.12826061
0.091471516 -0.045510314 0.163267 0.057907175 -0.15234032 -0.15370113 -0.14825653 0.10554009
