Model/5000sam16batch_cpu.pth (torch, 120162 bytes, 79 tensors)

conv1.lin_node_msg_compact.ue.0.0.weight f4 [16, 1]
-0.5016645 -0.25585043 1.0986987 0.8025432 0.056085933 -0.12620652 0.15168777 -0.04333198
-0.055116534 0.3154723 -0.01699807 -0.5569744 -0.4785905 -0.9932618 -0.15363193 -0.6270652
00000000: 166d 00bf d4fe 82be 29a2 8c3f 7973 4d3f
00000010: 5dba 653d 483c 01be 0a54 1b3e e07c 31bd
00000020: e0c1 61bd 9685 a13e 893f 8bbc e095 0ebf
00000030: d009 f5be 6846 7ebf b051 1dbe 5887 20bf

conv1.lin_node_msg_compact.ue.0.0.bias f4 [16]
0.819172 0.49696517 0.42667595 -0.47694147 -0.16019121 -0.6116607 0.26473126 -0.662089
-0.33295405 -0.56811 0.32587072 0.121827364 -0.68320036 0.2963792 0.1419015 -0.94686174
00000000: 42b5 513f 3872 fe3e 4575 da3e ac31 f4be
00000010: 2a09 24be cc95 1cbf db8a 873e aa7e 29bf
00000020: f478 aabe a86f 11bf 87d8 a63e a080 f93d
00000030: 38e6 2ebf 04bf 973e a04e 113e 8865 72bf

conv1.lin_node_msg_compact.ue.1.0.weight f4 [32, 16]
0.09737378 -0.1844509 -0.23396552 0.041543156 0.020971984 0.12399316 -0.016090333 -0.12223068
0.059789747 0.14221647 -0.02440846 -0.18995443 -0.19684744 -0.15762463 -0.2016634 0.22703817
-0.18388626 -0.10143149 -0.044804275 -0.13292775 -0.24171093 -0.18946633 -0.20239955 -0.20911232
0.06923735 -0.102501035 0.068294615 0.16008899 0.05882913 -0.069553345 0.20551684 0.23286423
-0.09881386 -0.033826083 0.33362773 0.19342814 -0.14173129 0.18432668 0.044455007 -0.07612154
0.21922296 0.26972818 0.0852616 0.066550046 -0.20058903 0.176994 0.007403016 0.21981925
-0.19179255 -0.08879125 0.035985373 -0.14154108 0.06102266 -0.2456635 0.11493381 0.24209219
0.08781752 -0.20238446 0.13087909 0.21527267 -0.16862103 0.1488919 -0.13197243 -0.052237153
0.20169827 -0.10045537 -0.12164426 -0.17496765 -0.0015921593 -0.19029233 -0.21520281 0.032482
-0.0353854 0.10489917 0.093692034 -0.16141489 -0.023025721 0.13396204 0.10290098 0.01622948
-0.2243844 0.10724932 0.05536425 -0.1273065 0.124189556 0.038797736 0.023408135 0.23684496
0.12083188 -0.009234058 -0.10658614 -0.17263469 -0.05297327 0.043667167 -0.021470398 0.084181905
-0.24642962 0.12883154 0.0826717 -0.18370971 0.041358788 -0.097316206 -0.050126817 0.24217096
-0.11889449 0.031420358 0.12671128 -0.105376214 0.05433148 -0.18314624 -0.07023746 -0.060112268
-0.07131502 -0.0951083 -0.17771268 -0.021544367 0.11069897 -0.030240417 0.08910093 0.1200909
0.22964305 0.21972075 0.039051145 -0.22321326 -0.058586538 -0.07174981 0.13673154 -0.05944383
0.14944437 -0.09065765 0.11045726 -0.051856942 -0.16408204 -0.21595722 -0.122800075 0.07797104
0.035012484 0.24582517 -0.07921063 0.13418877 -0.17235443 -0.16937569 0.16406384 -0.11561102
-0.24935833 0.09081897 0.408963 0.29328537 -0.026940083 0.2492803 0.28713116 0.17056742
0.0056381524 0.07628858 0.2175725 0.12809998 -0.11275411 0.23402557 0.10411653 -0.06875336
-0.03596452 -0.1669114 0.1888171 -0.12614499 -0.090842515 0.1459336 -0.11353097 -0.13181874
0.20656192 0.16988036 0.021640886 -0.0031285286 -0.013566941 -0.09648538 0.16866311 0.091652036
0.109138906 -0.07967901 -0.10365811 0.0062229335 0.026358157 0.08637786 0.001639843 0.17074513
0.0008868575 -0.1837826 0.23278332 -0.15375277 0.20146033 -0.1678868 -0.19073471 -0.2072638
-0.047603816 -0.1538161 0.020181626 -0.09792897 -0.24522328 0.052066863 0.12105733 -0.108679324
0.103633046 -0.21427271 0.0075234175 0.13527057 -0.21803686 0.10091722 0.056339443 0.17504427
0.17062256 -0.07402447 0.009775728 -0.06286499 -0.22514766 0.093711525 -0.18555844 -0.2356548
0.01933086 0.11456609 -0.19912854 0.030518949 -0.18605754 0.17390957 0.10547981 0.1501657
-0.1696049 -0.021105856 0.042448282 -0.008042067 0.033389926 0.14773968 -0.16464233 0.037293285
-0.053318262 -0.24718368 0.20549992 -0.17776665 -0.14936692 -0.12746507 -0.11692944 0.11824298
0.062104672 -0.18093386 -0.23057741 -0.24596807 -0.1143212 -0.05618936 -0.081516296 0.24693298
0.10262394 -0.11086136 -0.24026725 0.0834488 -0.1390062 -0.14043355 -0.0888648 0.19826281
00000000: e86b c73d b2e0 3cbe a894 6fbe 2829 2a3d
00000010: 70cd ab3c 20f0 fd3d e0cf 83bc 1454 fabd
00000020: 18e6 743d 32a1 113e 40f4 c7bc 6a83 42be
00000030: 6092 49be 5a68 21be da80 4ebe b27c 683e
00000040: ae4c 3cbe 50bb cfbd b084 37bd 361e 08be
00000050: 1283 77be 7603 42be d441 4fbe 8a21 56be
00000060: 50cc 8d3d 10ec d1bd 0cde 8b3d 5eee 233e
00000070: d0f6 703d fc71 8ebd 0273 523e f673 6e3e
00000080: ec5e cabd 388d 0abd 41d1 aa3e 0712 463e
00000090: 0222 11be 22c0 3c3e 7416 363d 9ce5 9bbd
000000a0: fc7b 603e d019 8a3e a29d ae3d 644b 883d
000000b0: 3667 4dbe ea3d 353e 0095 f23b 4c18 613e
000000c0: 4465 44be 30d8 b5bd 6665 133d 25f0 10be
000000d0: e6f2 793d 368f 7bbe 6b62 eb3d 04e7 773e
000000e0: acd9 b33d df3d 4fbe 2b05 063e 7070 5c3e
000000f0: feaa 2cbe 1e77 183e c823 07be a0f6 55bd
00000100: fe89 4e3e 8cbb cdbd a020 f9bd b82a 33be
00000110: 00b0 d0ba fedb 42be 205e 5cbe d80b 053d
00000120: 48f0 10bd 60d5 d63d 9ce1 bf3d f249 25be
00000130: 70a0 bcbc 582d 093e c0bd d23d b0f3 843c
00000140: 06c5 65be 88a5 db3d a0c5 623d a35c 02be
00000150: 1857 fe3d 60ea 1e3d 6bc2 bf3c 7c87 723e
00000160: b476 f73d 724a 17bc d649 dabd 26c7 30be
00000170: 80fa 58bd 58dc 323d b0e2 afbc 9067 ac3d
00000180: 0c58 7cbe 6aec 033e c84f a93d 661e 3cbe
00000190: d567 293d b84d c7bd c751 4dbd aafb 773e
000001a0: f47e f3bd a2b2 003d 9ac0 013e 7ccf d7bd
000001b0: b08a 5e3d b08a 3bbe a8d8 8fbd 4838 76bd
000001c0: 9c0d 92bd 24c8 c2bd 50fa 35be d07d b0bc
000001d0: 24b6 e23d c0ba f7bc 8c7a b63d 38f2 f53d
000001e0: 8c27 6b3e 7afe 603e 18f4 1f3d 0492 64be
000001f0: 70f8 6fbd 90f1 92bd 5a03 0c3e 607b 73bd
00000200: f207 193e b8aa b9bd 6a37 e23d f267 54bd
00000210: 1f05 28be e423 5dbe 9b7e fbbd 48af 9f3d
00000220: 4069 0f3d 98b9 7b3e 2f39 a2bd c868 093e
00000230: ae7d 30be d270 2dbe 5a00 283e 78c5 ecbd
00000240: ca57 7fbe 4cff b93d 9963 d13e 8029 963e
00000250: 73b1 dcbc 5643 7f3e db02 933e 3aa9 2e3e
00000260: 40c0 b83b 303d 9c3d 53cb 5e3e a42c 033e
00000270: a0eb e6bd 66a4 6f3e 0c3b d53d 90ce 8cbd
00000280: 884f 13bd d2ea 2abe 4559 413e 272c 01be
00000290: a40b babd 9e6f 153e ed82 e8bd 7efb 06be
000002a0: f884 533e 1ef5 2d3e 3a48 b13c 0008 4dbb
000002b0: e047 5ebc 209a c5bd 06b6 2c3e 10b4 bb3d
000002c0: 3884 df3d c02e a3bd b44a d4bd c0e9 cb3b
000002d0: 10ed d73c e0e6 b03d 00f0 d63a d0d7 2e3e
000002e0: 007c 683a 8231 3cbe c05e 6e3e 5e71 1dbe
000002f0: 9e4b 4e3e 84ea 2bbe f64f 43be f63c 54be
00000300: 38fc 42bd f881 1dbe f053 a53c fc8e c8bd
00000310: d01b 7bbe 1044 553d e8ec f73d 4493 debd
00000320: 903d d43d 4e6a 5bbe 0087 f63b 5e84 0a3e
00000330: 0e45 5fbe b0ad ce3d 30c4 663d ce3e 333e
00000340: aeb7 2e3e 249a 97bd 602a 203c 5cbf 80bd
00000350: 1c8d 66be d4eb bf3d 0803 3ebe 7e4f 71be
00000360: c05b 9e3c a0a1 ea3d 5ae8 4bbe e002 fa3c
00000370: de85 3ebe 5a15 323e cc05 d83d 0ac5 193e
00000380: e8ac 2dbe 30e6 acbc 40de 2d3d e0c2 03bc
00000390: e0c3 083d 1249 173e 0098 28be d8c0 183d
000003a0: 4064 5abd b81d 7dbe 926e 523e 7608 36be
000003b0: a4f3 18be 3486 02be b478 efbd 6029 f23d
000003c0: 7861 7e3d ba46 39be 7c1c 6cbe 0edf 7bbe
000003d0: 3c21 eabd d026 66bd 04f2 a6bd 00dc 7c3e
000003e0: 802c d23d 480b e3bd 9e08 76be 34e7 aa3d
000003f0: a457 0ebe d0cd 0fbe c0fe b5bd 6805 4b3e

conv1.lin_node_msg_compact.ue.1.0.bias f4 [32]
-0.099986285 0.049602747 0.36184004 -0.05283132 -0.21610314 -0.086570546 -0.1929261 0.039258868
-0.1853684 0.29025862 0.24614722 0.22295001 -0.17469367 -0.03326708 0.079693675 0.088614404
-0.061919898 -0.09332254 -0.0016770902 0.1623883 0.057493303 -0.13597704 0.02902013 0.36689526
-0.025241893 0.06533623 -0.13774016 0.023757696 -0.07334098 -0.14021203 0.06610427 -0.07394284
00000000: 9cc5 ccbd 402c 4b3d 1943 b93e a765 58bd
00000010: 244a 5dbe e64b b1bd 6b8e 45be e8cd 203d
00000020: 37d1 3dbe c79c 943e 040e 7c3e 024d 643e
00000030: e6e2 32be 1043 08bd 7036 a33d 787b b53d
00000040: b89f 7dbd e31f bfbd cfd1 dbba 1e49 263e
00000050: 197e 6b3d 913d 0bbe a0bb ed3c b2d9 bb3e
00000060: 16c8 cebc 00cf 853d c20b 0dbe 809f c23c
00000070: cc33 96bd be93 0fbe ad61 873d 586f 97bd

conv1.lin_edge_compact.ue__uplink__ap.0.0.weight f4 [16, 1]
0.9437662 -0.54624605 -0.53616834 1.052431 -0.09273958 -0.5544441 0.56680244 -0.05189356
-0.060389843 -0.18163097 0.9179903 0.022285802 -0.03638859 -0.29352593 -1.0234281 -0.0009756695
00000000: a99a 713f c8d6 0bbf 5442 09bf 0fb6 863f
00000010: 40ee bdbd 0cf0 0dbf f719 113f 578e 54bd
00000020: 575b 77bd 78fd 39be 6a01 6b3f b790 b63c
00000030: 340c 15bd 0849 96be b1ff 82bf 12c4 7fba

conv1.lin_edge_compact.ue__uplink__ap.0.0.bias f4 [16]
0.22251147 -0.20238197 -0.013987959 -0.9728653 -0.45601583 -0.36343598 -0.98730016 0.8836457
0.87257046 -0.523126 -0.029650155 0.5625326 1.1556917 0.9793042 -0.0043482576 -0.08479394
00000000: 0cda 633e 383d 4fbe c12d 65bc b30d 79bf
00000010: e87a e9be 4814 babe b4bf 7cbf 9b36 623f
00000020: c760 5f3f 96eb 05bf e2e4 f2bc 2302 103f
00000030: b5ed 933f aeb3 7a3f d47b 8ebb 72a8 adbd

conv1.lin_edge_compact.ue__uplink__ap.1.0.weight f4 [32, 16]
-0.13832176 0.014314979 -0.1375573 -0.09792057 -0.08155802 0.03534335 -0.0070980787 0.12132737
0.05912289 0.08041522 -0.024488986 0.09393942 -0.23662215 0.033930033 -0.0011073053 0.18291685
0.05297008 -0.15393674 0.025983423 -0.118842065 0.17739278 -0.017581075 0.054229796 -0.005806297
0.12380475 0.20145744 -0.08609074 -0.06244743 -0.19221073 -0.10711926 -0.23268706 -0.2123428
0.17210785 0.21238968 -0.04476948 0.17224929 -0.11066738 -0.008122057 0.16061257 0.53373194
0.4977703 -0.13483039 0.5187424 0.22779225 0.54911476 0.5064419 0.232423 0.0069014905
-0.0102402065 0.2074337 -0.1520957 -0.0047372477 0.2204842 -0.07764214 0.12606744 -0.19778791
-0.17016253 -0.038738012 -0.11544729 -0.19925526 0.015577823 0.15675896 -0.20956835 -0.2630089
0.42361742 -0.071308106 -0.19118223 0.38623533 0.08669573 0.07705322 0.46688634 -0.5209214
-0.16182125 -0.08534491 0.33180854 -0.37829578 -0.0801116 -0.0979524 0.13693519 0.06552275
-0.060524985 -0.07349113 -0.0032958984 0.16597709 0.15953183 -0.06416723 -0.23064956 0.00012779236
0.11232893 -0.23488253 -0.09391488 -0.11854443 -0.17598084 0.13177326 -0.17145693 0.19893911
-0.1971717 0.0043129325 0.067911424 0.03966035 0.14801502 -0.15325376 -0.014620774 0.14047563
0.08666554 0.11021826 0.1362308 0.21122071 0.027017416 -0.16757466 0.048362333 0.08624473
-0.24185878 0.10496536 0.025529027 0.15589601 0.05208835 -0.14880666 0.01845774 0.059291035
0.076060385 -0.018954247 -0.15398961 -0.22078368 0.008001596 -0.17041487 -0.05173096 0.0073151886
0.069421165 -0.23403737 0.060353387 0.24608988 0.1592105 0.038496196 0.3594174 -0.15959285
-0.13614865 0.17196387 0.44166383 -0.06769221 -0.32616448 -0.49607554 -0.19996217 0.16999549
-0.19262794 0.12215027 0.026046604 0.06974414 -0.076180845 0.22414151 -0.019560844 -0.06574854
0.0073533654 -0.21293655 -0.14881405 -0.12937301 -0.19884181 -0.15575811 -0.21064436 0.19315454
0.25986138 0.020782202 0.096230276 0.37882516 0.038170606 0.15039381 0.44911143 -0.29667175
-0.42046255 -0.24974623 0.068298064 -0.39683226 -0.38485536 -0.052742485 -0.219765 -0.20360802
0.14913315 -0.17223608 -0.05545968 -0.22264156 -0.05089584 0.21940413 0.031641006 -0.1849176
-0.1770052 -0.053689122 -0.12636942 0.11184177 0.05668354 -0.2302782 -0.028084248 -0.11484045
-0.05455885 0.05619389 0.15781909 -0.027677217 0.198917 0.10725108 -0.12483162 -0.0696119
-0.22135517 -0.17422417 0.12999211 -0.12416392 -0.36322376 0.0996753 -0.2334441 0.118372254
0.21405385 0.19890943 0.05131379 0.057454918 0.15791559 -0.006582737 -0.20574817 0.20282896
0.18536074 0.18567246 0.17529918 0.2507224 0.5989244 0.2837239 -0.07822021 -0.20543563
0.17833182 -0.10809633 0.20107254 -0.08002559 -0.123025924 -0.001982659 -0.116700694 -0.18167111
0.0828586 0.24219385 -0.093224816 -0.28105476 -0.027630148 -0.3154976 -0.12082892 -0.23716
0.08825403 0.11828861 0.19561763 -0.09356701 -0.10479003 -0.029791236 0.1348593 0.17036171
-0.071303874 -0.17864165 -0.08412453 0.05983765 -0.17361787 0.12465847 0.056899715 0.03711317
00000000: 38a4 0dbe 6089 6a3c d2db 0cbe 948a c8bd
00000010: e407 a7bd 30c4 103d 0097 e8bb 7c7a f83d
00000020: d82a 723d bcb0 a43d 209d c8bc 5063 c03d
00000030: 144d 72be 38fa 0a3d 0023 91ba 8e4e 3b3e
00000040: 28f7 583d 98a1 1dbe 30db d43c 7863 f3bd
00000050: 74a6 353e 3006 90bc 1020 5e3d c042 bebb
00000060: 588d fd3d dc4a 4e3e 5850 b0bd e0c8 7fbd
00000070: e4d2 44be 5861 dbbd 8445 6ebe 6470 59be
00000080: 0a3d 303e ae7c 593e 3460 37bd 1e62 303e
00000090: 94a5 e2bd 6012 05bc 9f77 243e a8a2 083f
000000a0: c0db fe3e fa10 0abe 4dcc 043f 5f42 693e
000000b0: c992 0c3f 2da6 013f 4b00 6e3e e625 e23b
000000c0: 8ac6 27bc 8069 543e fabe 1bbe ea3a 9bbb
000000d0: 9cc6 613e d802 9fbd d317 013e ea88 4abe
000000e0: 163f 2ebe c0ab 1ebd a16f ecbd 9209 4cbe
000000f0: 203a 7f3c 6c85 203e 1699 56be 1aa9 86be
00000100: 62e4 d83e fc09 92bd 46c5 43be a3c0 c53e
00000110: 888d b13d 14ce 9d3d ba0b ef3e 1b5b 05bf
00000120: 78b4 25be 50c9 aebd cfe2 a93e fcaf c1be
00000130: 8d11 a4bd 459b c8bd bd38 0c3e cb30 863d
00000140: 0ce9 77bd 8482 96bd 0000 58bb e6f5 293e
00000150: 505c 233e 1c6a 83bd 662f 6cbe 0000 0639
00000160: b60c e63d 0c85 70be 7256 c0bd 6cc7 f2bd
00000170: 5234 34be 92ef 063e 6892 2fbe b2b6 4b3e
00000180: 61e7 49be 8053 8d3b 2515 8b3d e472 223d
00000190: 4091 173e 8eee 1cbe f98b 6fbc d8d8 0f3e
000001a0: b47d b13d 1cba e13d 1680 0b3e 3e4a 583e
000001b0: a153 dd3c b198 2bbe 9517 463d 14a1 b03d
000001c0: d4a9 77be 14f8 d63d 4022 d13c 34a3 1f3e
000001d0: 985a 553d c660 18be b034 973c 28db 723d
000001e0: 8cc5 9b3d f045 9bbc 74af 1dbe 1e15 62be
000001f0: 2019 033c 3c81 2ebe d8e3 53bd 40b4 ef3b
00000200: af2c 8e3d 7ea7 6fbe 1d35 773d fcfe 7b3e
00000210: 1408 233e 30ae 1d3d 8f05 b83e 4f6c 23be
00000220: 8d6a 0bbe 4c17 303e c321 e23e 37a2 8abd
00000230: 08ff a6be 9dfd fdbe e2c2 4cbe 4c13 2e3e
00000240: 4240 45be ec29 fa3d b05f d53c 04d6 8e3d
00000250: b404 9cbd 5a85 653e 103e a0bc 2ca7 86bd
00000260: 80f4 f03b 0a0c 5abe b662 18be 5c7a 04be
00000270: 309d 4bbe 0e7f 1fbe 28b3 57be 4eca 453e
00000280: 8d0c 853e 703f aa3c 6114 c53d 5ff5 c13e
00000290: c858 1c3d d600 1a3e eff1 e53e 5ce5 97be
000002a0: de46 d7be 7abd 7fbe dbdf 8b3d 992d cbbe
000002b0: c30b c5be 8108 58bd 130a 61be 9f7e 50be
000002c0: 5cb6 183e a85e 30be b029 63bd 26fc 63be
000002d0: 2878 50bd 7aab 603e 009a 013d 0a5b 3dbe
000002e0: da40 35be 20e9 5bbd fc66 01be 4c0d e53d
000002f0: 002d 683d 0cce 6bbe f010 e6bc 7831 ebbd
00000300: 1a79 5fbd 902b 663d 549b 213e 55bb e2bc
00000310: e6b0 4b3e 74a6 db3d b8a7 ffbd af90 8ebd
00000320: eeaa 62be d267 32be a71c 053e a749 febd
00000330: 77f8 b9be 9022 cc3d f80b 6fbe 276d f23d
00000340: ef30 5b3e eaae 4b3e 692e 523d d955 6b3d
00000350: a0b4 213e 00b4 d7bb a6af 52be 65b2 4f3e
00000360: 35cf 3d3e ec20 3e3e a181 333e b05e 803e
00000370: 1c53 193f 4244 913e eb31 a0bd b85d 52be
00000380: 9e9c 363e 9c61 ddbd f6e5 4d3e 75e4 a3bd
00000390: 04f5 fbbd 80ef 01bb c600 efbd fe07 3abe
000003a0: c5b1 a93d aa01 783e a7ec bebd 69e6 8fbe
000003b0: 9f58 e2bc e788 a1be 2775 f7bd 12da 72be
000003c0: 87be b43d 4c41 f23d fd4f 483e 0fa0 bfbd
000003d0: 289c d6bd c00c f4bc 8e18 0a3e 4d73 2e3e
000003e0: c407 92bd d6ed 36be 7b49 acbd 5318 753d
000003f0: e2c8 31be f14c ff3d ad0f 693d fb03 183d

conv1.lin_edge_compact.ue__uplink__ap.1.0.bias f4 [32]
0.015484601 -0.17191643 0.12295516 -0.2262595 0.13193667 -0.21903457 -0.21993864 0.10980412
-0.14619452 -0.050976545 0.25220576 -0.12201828 -0.3604217 0.59452355 -0.026311027 -0.105632566
-0.1585575 -0.13468185 0.10654235 0.057930917 -0.04060495 -0.3716486 0.20085637 -0.058869153
-0.12030048 0.62378883 -0.17104441 -0.04535184 -0.016449489 -0.18825495 -0.0012312123 0.022419542
00000000: 20b3 7d3c dc0a 30be eacf fb3d 92b0 67be
00000010: 681a 073e 994a 60be 9837 61be fce0 e03d
00000020: 04b4 15be c8cc 50bd 1d21 813e b8e4 f9bd
00000030: 3189 b8be b232 183f 398a d7bc e355 d8bd
00000040: e65c 22be 0aea 09be e032 da3d f848 6d3d
00000050: 6051 26bd ba48 bebe 4bad 4d3e c820 71bd
00000060: 1960 f6bd a0b0 1f3f 4426 2fbe dac2 39bd
00000070: 14c1 86bc e8c5 40be a160 a1ba 30a9 b73c

conv1.lin_edge_compact.ap__downlink__ue.0.0.weight f4 [16, 1]
0.37694168 -0.78515923 -0.896629 -0.0037109035 -0.20503214 0.056018148 0.5516754 0.028720152
-0.7665597 -0.23897994 -0.21075165 0.29023978 -0.015456915 -0.12352136 0.8481954 0.34018913
00000000: 80fe c03e 3200 49bf 7a89 65bf a132 73bb
00000010: f2f3 51be 4973 653d 993a 0d3f 8646 eb3c
00000020: 423d 44bf 28b7 74be 48cf 57be 4f9a 943e
00000030: 003f 7dbc c4f8 fcbd 5523 593f 452d ae3e

conv1.lin_edge_compact.ap__downlink__ue.0.0.bias f4 [16]
-0.23132966 -0.39384508 -0.28197026 1.0050727 0.9467094 -0.15698102 -0.27092424 1.1791618
-0.09025192 -0.7170038 1.0918943 -0.47434735 -0.23338771 0.9357863 0.33994624 -0.08958763
00000000: afe1 6cbe 10a6 c9be 685e 90be 39a6 803f
00000010: 8c5b 723f a2bf 20be 95b6 8abe c6ee 963f
00000020: 00d6 b8bd 908d 37bf 31c3 8b3f a8dd f2be
00000030: 30fd 6ebe b18f 6f3f 6f0d ae3e b879 b7bd

conv1.lin_edge_compact.ap__downlink__ue.1.0.weight f4 [31, 16]
-0.08848907 0.08477479 0.11379856 0.14484206 -0.20666084 -0.20106262 0.059985977 0.024733461
0.23225677 0.16188961 -0.19947037 0.14905253 0.02378416 -0.113097385 -0.018355357 -0.1673186
0.105966255 0.21654788 -0.20817983 -0.24306327 0.091777116 0.103687085 0.0053907596 -0.1267251
0.23611942 0.19942081 0.12261513 0.059278723 -0.13221073 -0.2168633 -0.070011154 -0.079524696
-0.053385176 0.10929969 0.22528759 -0.17847303 -0.006762442 -0.25957906 0.16665243 -0.26478556
0.18790868 0.10440105 0.16836056 0.065104045 0.14854038 0.0039811614 -0.020865493 -0.29792434
0.063976064 -0.033295423 -0.07510626 0.55514616 0.59397125 0.11195331 0.19007926 -0.45497653
0.09629616 -0.13462323 0.44738847 0.051703222 0.10163826 0.34710726 0.3376114 0.024475101
0.212108 0.21716964 0.15333465 0.26953438 0.08358301 0.063820176 0.042179924 -0.08263843
-0.24009424 0.032381237 0.117835514 -0.117413476 0.1275101 0.17896749 0.12981476 -0.020672008
-0.03476374 0.08184084 0.21010143 -0.0019477343 0.18185975 0.045929402 0.08651367 0.18466283
-0.22164243 0.086622 -0.23628442 -0.01764068 0.10351008 -0.10838465 -0.23166241 -0.21793225
-0.24320975 0.07503688 0.21810919 0.1695639 0.13491927 -0.056113105 0.053267054 -0.1760916
-0.10989776 -0.014701366 -0.15184367 0.003406455 -0.21870813 -0.11287487 0.11594252 -0.11011212
0.039169714 0.05323577 0.22380835 -0.22571358 0.08545616 0.20560862 -0.1701873 -0.0018186974
-0.12774625 -0.22899076 0.16290066 0.123677224 0.14810738 -0.18899022 0.083362795 -0.14209248
-0.2114644 0.15886351 -0.10887921 0.11617341 -0.09810686 0.0071295486 0.07057139 -0.15691946
0.121257156 -0.07208988 -0.00013719776 -0.0829585 -0.09961423 -0.2354246 0.10188515 -0.08841617
0.042441566 -0.20882383 -0.057977915 -0.1887843 -0.22234593 -0.10655972 0.14039092 -0.13156404
-0.04652095 -0.12004349 0.0024697592 -0.11292371 0.13598594 0.20328327 -0.10113141 -0.17434339
0.14908022 -0.00773558 -0.06982544 0.48661453 0.6436254 0.063009374 -0.099037856 0.57825226
-0.13476285 -0.0974206 0.6186535 0.14613995 -0.09080416 0.6682738 -0.041209925 0.18326493
-0.004383424 -0.23353344 -0.12592924 0.035760224 0.044320624 0.03557962 -0.025497317 0.11701879
-0.09788361 -0.03776902 0.014167945 0.18503964 0.051516443 -0.13367552 -0.23080395 -0.13424397
-0.034997556 0.14944783 0.1889781 -0.12060147 -0.14324385 0.20260815 0.1310651 -0.043192104
0.1453855 0.134278 -0.21621399 -0.06550145 -0.018782496 0.06483156 -0.09957737 -0.030663805
-0.28403273 -0.24339038 -0.021519274 -0.104885414 -0.14677581 -0.23664834 0.20091297 -0.022879083
0.048488975 -0.027404547 0.1657002 0.1184189 -0.00140962 0.19803794 -0.1289695 0.028723078
-0.1131456 -0.0485923 0.07613075 0.6273157 0.986538 -0.003779714 -0.21061917 0.37051567
0.021570444 -0.13431242 0.5914742 0.112882994 -0.0073410273 0.38084558 0.18455768 -0.014721445
-0.027666349 -0.14229745 0.036554158 -0.28922823 -0.084666006 -0.049069677 -0.0877097 -0.3638865
-0.12070462 0.05384174 0.07477226 0.012160667 0.026798308 0.029355941 0.14190227 -0.17473692
00000000: c239 b5bd 689e ad3d 380f e93d 7a51 143e
00000010: e69e 53be 5ce3 4dbe dbb3 753d d49d ca3c
00000020: b8d4 6d3e 64c6 253e f641 4cbe 3aa1 183e
00000030: 00d7 c23c 9a9f e7bd f95d 96bc 9155 2bbe
00000040: d604 d93d babe 5d3e 182d 55be 94e5 78be
00000050: a4f5 bb3d e559 d43d f8a4 b03b 3ac4 01be
00000060: 4ac9 713e f834 4c3e a41d fb3d 3fce 723d
00000070: 4062 07be 6a11 5ebe 0262 8fbd d8dd a2bd
00000080: 6aaa 5abd 84d8 df3d cab1 663e a2c1 36be
00000090: 7a97 ddbb 8ce7 84be efa6 2a3e f991 87be
000000a0: 226b 403e 38d0 d53d b666 2c3e 4555 853d
000000b0: f81a 183e 6774 823b 1cee aabc 8a89 98be
000000c0: e205 833d c860 08bd 50d1 99bd 0f1e 0e3f
000000d0: 800e 183f c747 e53d 23a4 423e aff2 e8be
000000e0: ec36 c53d acda 09be 1a10 e53e c2c6 533d
000000f0: b827 d03d 0bb8 b13e 67db ac3e 0280 c83c
00000100: d732 593e b861 5e3e c203 1d3e 6900 8a3e
00000110: 922d ab3d 27b4 823d dbc4 2c3d 563e a9bd
00000120: 44db 75be 30a2 043d bf53 f13d 7a76 f0bd
00000130: 0292 023e 4143 373e 29ee 043e 5858 a9bc
00000140: 6c64 0ebd 2c9c a73d d424 573e 1e4b ffba
00000150: 7139 3a3e 7820 3c3d 142e b13d 4118 3d3e
00000160: 3cf6 62be e066 b13d 8bf4 71be 3083 90bc
00000170: 18fd d33d c5f8 ddbd e938 6dbe a229 5fbe
00000180: fa0b 79be f0ac 993d 0458 5f3e 29a2 2d3e
00000190: 4728 0a3e dbd6 65bd 8e2e 5a3d 5b51 34be
000001a0: 1412 e1bd 00de 70bc e87c 1bbe d53e 5f3b
000001b0: 06f5 5fbe f12a e7bd 4673 ed3d 7782 e1bd
000001c0: 6c70 203d c00d 5a3d 042e 653e 7621 67be
000001d0: a403 af3d 118b 523e 9445 2ebe 5c61 eeba
000001e0: eacf 02be 8e7c 6abe 6ecf 263e 7c4a fd3d
000001f0: 76a9 173e a786 41be 1dba aa3d b180 11be
00000200: 208a 58be 1ead 223e 10fc debd 53ec ed3d
00000210: 40ec c8bd fd9e e93b bc87 903d 7faf 20be
00000220: ac55 f83d dca3 93bd bedc 0fb9 25e6 a9bd
00000230: 8c02 ccbd 2513 71be 29a9 d03d 8913 b5bd
00000240: 35d7 2d3d ead5 55be 407a 6dbd ac50 41be
00000250: a7ae 63be fc3b dabd a3c2 0f3e b9b8 06be
00000260: c08c 3ebd 5cd9 f5bd afdb 213b 8c44 e7bd
00000270: e63f 0b3e 7d29 503e fc1d cfbd 1387 32be
00000280: 7ca8 183e c07a fdbb a400 8fbd 8a25 f93e
00000290: a2c4 243f 0f0b 813d 5cd4 cabd 5708 143f
000002a0: 46ff 09be 7484 c7bd 1360 1e3f b6a5 153e
000002b0: 88f7 b9bd fe13 2b3f bdcb 28bd cda9 3b3e
000002c0: d3a2 8fbb 6423 6fbe 98f3 00be 5079 123d
000002d0: 8b89 353d f0bb 113d c0df d0bc 8ca7 ef3d
000002e0: 3477 c8bd b0b3 1abd ab20 683c 087b 3d3e
000002f0: e802 533d 3ce2 08be df57 6cbe 4077 09be
00000300: 9959 0fbd da08 193e 7a83 413e e7fd f6bd
00000310: 84ae 12be 8378 4f3e ee35 063e 34ea 30bd
00000320: f0df 143e 2c80 093e 3367 5dbe a025 86bd
00000330: c0dd 99bc 69c6 843d 38ef cbbd a932 fbbc
00000340: bd6c 91be 543b 79be 3049 b0bc 2ace d6bd
00000350: 664c 16be f153 72be 21bc 4d3e ea6c bbbc
00000360: 609c 463d 807f e0bc 50ad 293e 9c85 f23d
00000370: 00c3 b8ba 75ca 4a3e 9510 04be a94c eb3c
00000380: e1b8 e7bd b808 47bd 70ea 9b3d c397 203f
00000390: c18d 7c3f 14b5 77bb 8dac 57be 3bb4 bd3e
000003a0: 80b4 b03c 3289 09be da6a 173f 332f e73d
000003b0: 008d f0bb 31fe c23e b0fc 3c3e 3732 71bc
000003c0: 8aa4 e2bc 6cb6 11be d0b9 153d b915 94be
000003d0: 5f65 adbd 49fd 48bd 25a1 b3bd 554f babe
000003e0: fc33 f7bd 2889 5c3d 3322 993d 893d 473c
000003f0: 2088 db3c df7b f03c d44e 113e 3cee 32be

conv1.lin_edge_compact.ap__downlink__ue.1.0.bias f4 [31]
-0.06856957 -0.082744546 0.08542346 0.14479904 -0.0074472963 -0.059235454 -0.051853564 -0.20725887
0.024300337 -0.02396659 0.47330105 -0.11462222 -0.07879811 -0.22774392 0.6126163 0.008185716
0.10988693 -0.06468808 -0.01552042 0.014220308 0.7473908 -0.035298377 -0.44196352 -0.0024196075
-0.041526914 0.013433271 0.8792308 0.11980478 -0.19011165 -0.1408542 -0.11133006
00000000: 346e 8cbd f975 a9bd 7ff2 ae3d 3346 143e
00000010: 7308 f4bb e0a0 72bd 6764 54bd ab3b 54be
00000020: 8011 c73c 9555 c4bc 8454 f23e 0ebf eabd
00000030: e760 a1bd b435 69be 6cd4 1c3f 621d 063c
00000040: 660c e13d 2f7b 84bd 5c49 7ebc 4bfc 683c
00000050: 0155 3f3f 0895 10bd 0b49 e2be 4792 1ebb
00000060: 2018 2abd 3917 5c3c 4515 613f 355c f53d
00000070: a1ac 42be 153c 10be 0401 e4bd

conv1.lin_node_upd.ue.0.0.weight f4 [16, 1]
-0.66593134 0.0012649299 -0.67176354 -0.6481936 -0.5698497 -0.6904105 1.002509 -0.41522014
0.977461 -0.7319696 -0.14510703 -0.13306606 0.37369767 1.013704 -0.49471295 1.1390883
00000000: 7a7a 2abf 01cc a53a b2f8 2bbf 04f0 25bf
00000010: ace1 11bf bebe 30bf 3752 803f bc97 d4be
00000020: e23a 7a3f 5c62 3bbf f096 14be 7842 08be
00000030: 4d55 bf3e 0dc1 813f 044b fdbe a5cd 913f

conv1.lin_node_upd.ue.0.0.bias f4 [16]
0.43765807 -0.108544864 -0.1301794 -0.7431035 0.08345246 -0.8076221 0.2753487 0.67624426
0.8377836 0.3422637 -0.9531282 0.21542788 0.27898568 -0.11349315 -0.5395541 0.8920183
00000000: b814 e03e c54c debd c04d 05be 083c 3ebf
00000010: 20e9 aa3d 52c0 4ebf 81fa 8c3e 581e 2d3f
00000020: fc78 563f 303d af3e 3600 74bf 2099 5c3e
00000030: 36d7 8e3e 196f e8bd 3820 0abf 505b 643f

conv1.lin_node_upd.ue.1.0.weight f4 [31, 16]
-0.071618766 -0.23190257 0.07368162 -0.085173756 -0.02909547 0.15550497 -0.025852233 0.005119592
-0.10085553 -0.13491827 0.24009192 0.20075244 -0.21877608 0.2306799 0.12604156 -0.16660213
0.12269318 0.15667209 -0.15832606 -0.011543274 0.19579896 -0.24029365 -0.1575712 0.13429475
0.23714447 0.0046869516 0.24793062 -0.15478528 -0.02089119 -0.035568923 -0.053320915 -0.09699476
0.1809575 0.0454441 0.24256086 -0.08984956 0.016907573 0.080332965 -0.17771998 0.19455594
-0.021622956 0.24376374 0.21663904 -0.07866216 0.18888536 -0.17353866 0.2046482 -0.0915938
-0.07758978 -0.24810779 -0.097269624 0.19002968 0.23022631 0.052791953 0.08735518 0.026470602
0.038854998 -0.048524827 0.072232306 -0.049753666 -0.116218686 0.084786505 -0.110560834 -0.16670787
0.12772876 0.09679139 -0.048246175 0.08125025 0.21421608 -0.23883894 -0.08926955 0.029399216
0.059153974 0.20718649 0.07588941 -0.24983549 -0.05715838 0.004836172 0.19791394 -0.14464897
-0.10690269 0.24887344 -0.05367151 -0.06653997 0.2040551 0.08555138 -0.013581216 -0.1369093
0.16099715 -0.1825288 0.009338468 0.23582447 0.050619096 -0.22175476 0.14139894 -0.22645685
-0.19207829 -0.064991504 -0.13217089 -0.061662585 -0.0127568245 -0.24706829 -0.07342926 0.20177945
0.08518347 -0.18998304 -0.08283138 -0.13568625 0.032030493 -0.23038477 -0.20219165 -0.02537632
-0.11620113 0.13886578 -0.060573876 0.18266141 -0.022154778 -0.083076954 0.06371593 0.03256449
-0.08059861 0.09205556 -0.12392947 0.04478559 0.15395868 0.10464733 0.12640965 -0.15453252
0.1890226 -0.14211848 0.24906677 0.24386546 -0.09951186 -0.23496729 -0.24335009 -0.038954586
0.10694659 -0.16512698 -0.06670666 -0.0070958436 -0.17138675 -0.13245347 -0.17623603 0.08281091
-0.12098983 0.14894514 0.056829333 -0.19231895 0.12797174 -0.22132522 -0.153592 -0.21697557
0.0032344437 -0.019179106 0.0030067563 0.17308098 -0.010475603 0.06321954 -0.15073824 0.044077348
-0.08695006 0.14568195 -0.24578378 0.19382599 0.13937661 0.0002258122 -0.11843479 0.082547545
0.06499782 -0.14864174 0.06070152 0.14688635 -0.22999144 -0.17538184 0.21031493 0.030615836
0.12980852 -0.15522377 -0.06994781 0.17365137 0.14245644 -0.12832776 -0.0710369 -0.13148221
-0.1359268 -0.09309545 -0.09579614 0.18209839 0.1370453 -0.04784998 0.18025807 0.15785424
0.02085355 0.2405034 -0.1744451 -0.24848711 0.15769362 -0.11961827 0.072855175 0.016699195
0.13516298 -0.2290571 -0.17723104 -0.113818824 -0.067335546 -0.044843107 -0.19908085 -0.17463985
0.022793114 -0.21917145 -0.061675727 0.038564652 0.11327234 -0.03529498 0.018074336 0.12302694
0.034297224 0.1980893 -0.22471595 -0.2185764 -0.011572634 -0.27867675 -0.14564559 0.15526704
-0.15584847 0.10855603 -0.056671143 -0.0830425 0.12780803 0.19825119 -0.091328755 -0.14744878
0.011455408 -0.24032697 -0.020078182 -0.19211704 -0.20336215 -0.17563123 0.07177514 0.21762538
0.008226424 -0.027079135 0.10698557 0.22745866 0.025163889 -0.015823454 -0.3130805 0.024000913
-0.0903723 0.16573924 0.01757747 0.13194707 0.035082534 0.10415336 0.03638968 0.16188735
00000000: dcac 92bd de77 6dbe 64e6 963d 946f aebd
00000010: a059 eebc b23c 1f3e 10c8 d3bc 40c2 a73b
00000020: 588d cebd 0428 0abe a8da 753e 0c92 4d3e
00000030: d606 60be 5a37 6c3e 0a11 013e c099 2abe
00000040: 9046 fb3d a66e 203e 3a20 22be 0020 3dbc
00000050: 867f 483e 8a0f 76be 585a 21be 9084 093e
00000060: 00d6 723e 0095 993b 86e1 7d3e 0880 1ebe
00000070: 0024 abbc b8b0 11bd 0867 5abd 30a5 c6bd
00000080: ec4c 393e 9823 3a3d e061 783e 0c03 b8bd
00000090: c081 8a3c 9c85 a43d 3afc 35be ac39 473e
000000a0: a022 b1bc 349d 793e a0d6 5d3e a019 a1bd
000000b0: 2a6b 413e 1eb4 31be 4c8f 513e 8895 bbbd
000000c0: 64e7 9ebd f80f 7ebe 4c35 c7bd 2497 423e
000000d0: 72c0 6b3e 603c 583d 46e7 b23d e0d8 d83c
000000e0: 6b26 1f3d f8c1 46bd 88ee 933d 80ca 4bbd
000000f0: 1004 eebd 8ca4 ad3d b86d e2bd 78b5 2abe
00000100: 54cb 023e 903a c63d c89d 45bd 8866 a63d
00000110: 765b 5b3e 3292 74be f4d2 b6bd a0d6 f03c
00000120: 704b 723d b228 543e e86b 9b3d e0d4 7fbe
00000130: e81e 6abd c078 9e3b f4a9 4a3e dc1e 14be
00000140: ccef dabd aed8 7e3e a8d6 5bbd 1c46 88bd
00000150: d2f3 503e 9035 af3d c083 5ebc f431 0cbe
00000160: 70dc 243e d4e8 3abe 6000 193c f87b 713e
00000170: f855 4f3d ae13 63be e2ca 103e 4ee4 67be
00000180: 2cb0 44be 441a 85bd ce57 07be e891 7cbd
00000190: 0002 51bc 78ff 7cbe 1462 96bd 469f 4e3e
000001a0: ac74 ae3d ea8a 42be 80a3 a9bd 56f1 0abe
000001b0: 6832 033d fce9 6bbe 540b 4fbe 00e2 cfbc
000001c0: dcfa edbd d532 0e3e 501c 78bd 980b 3b3e
000001d0: f07d b5bc 4024 aabd 7f7d 823d 5862 053d
000001e0: e210 a5bd a087 bc3d bcce fdbd 1871 373d
000001f0: 58a7 1d3e 5751 d63d 8871 013e c63d 1ebe
00000200: 248f 413e 8287 11be 5c0b 7f3e deb7 793e
00000210: e0cc cbbd 449b 70be c430 79be d88e 1fbd
00000220: d006 db3d 0c17 29be 809d 88bd 4084 e8bb
00000230: 0280 2fbe e2a1 07be 3877 34be c498 a93d
00000240: 84c9 f7bd 1385 183e e0c5 683d 42ef 44be
00000250: 060b 033e 14a3 62be 3947 1dbe d82e 5ebe
00000260: f6f8 533b 801d 9dbc 000d 453b 243c 313e
00000270: dda1 2bbc 3f79 813d 205b 1abe 738a 343d
00000280: e012 b2bd a62d 153e beae 7bbe 527a 463e
00000290: beb8 0e3e 00c8 6c39 f08d f2bd b00e a93d
000002a0: 941d 853d 8a35 18be 28a2 783d 6069 163e
000002b0: e082 6bbe 4c97 33be cc5c 573e 10ce fa3c
000002c0: 86ec 043e fbf2 1ebe cc40 8fbd aad1 313e
000002d0: 1ae0 113e 5a68 03be cb7b 91bd 46a3 06be
000002e0: 6530 0bbe d4a8 bebd c430 c4bd 0078 3a3e
000002f0: 9a55 0c3e 57fe 43bd 9295 383e 8ba4 213e
00000300: 10d5 aa3c 8646 763e bca1 32be 6873 7ebe
00000310: 707a 213e 6cfa f4bd 1835 953d c0cc 883c
00000320: 2a68 0a3e f28d 6abe 0e7c 35be d819 e9bd
00000330: 38e7 89bd 68ad 37bd dadb 4bbe cad4 32be
00000340: a0b8 ba3c 7b6e 60be b09f 7cbd f8f5 1d3d
00000350: 54fb e73d 7891 10bd a110 943c 8cf5 fb3d
00000360: 3f7b 0c3d ecd7 4a3e f01b 66be 7ed2 5fbe
00000370: 259b 3dbc b8ae 8ebe 1e24 15be 53fe 1e3e
00000380: be96 1fbe a052 de3d 0020 68bd 3012 aabd
00000390: 1ce0 023e 5c02 4b3e 920a bbbd d0fc 16be
000003a0: 77af 3b3c 4618 76be 007b a4bc 54ba 44be
000003b0: 2b3e 50be acd8 33be d8fe 923d 30d9 5e3e
000003c0: 20c8 063c 10d5 ddbc 401b db3d ecea 683e
000003d0: 8024 ce3c 30a0 81bc 164c a0be 909d c43c
000003e0: 1d15 b9bd 8cb7 293e a0fe 8f3c 221d 073e
000003f0: b4b2 0f3d 5b4e d53d 580d 153d ccc5 253e

conv1.lin_node_upd.ue.1.0.bias f4 [31]
0.19151297 0.13454077 0.0343886 -0.2541294 0.081799656 0.09997931 0.022061944 -0.1743686
-0.19350609 0.058225743 0.24267867 0.101734936 0.003537625 -0.1630903 -0.004149595 0.017095553
-0.14144206 -0.05206402 0.061203003 -0.06548032 0.7447555 0.07108876 0.07673318 -0.18194102
0.13522932 0.11300087 0.15017706 0.13071454 -0.120133996 -0.23757158 0.18054137
00000000: fa1b 443e 0ec5 093e 10db 0c3d 401d 82be
00000010: 9486 a73d f4c1 cc3d 40bb b43c af8d 32be
00000020: 7626 46be 1e7e 6e3d c280 783e 685a d03d
00000030: 80d7 673b 2501 27be 53f9 87bb f90b 8c3c
00000040: 30d6 10be 1541 55bd 00b0 7a3d 8c1a 86bd
00000050: 4ca8 3e3f fc96 913d 4926 9d3d bf4e 3abe
00000060: 8e79 0a3e 006d e73d 04c8 193e 08da 053e
00000070: d008 f6bd f745 73be d6df 383e

conv1.lin_node_upd.ap.0.0.bias f4 [16]
0.0 0.0 0.0 0.0 0.0 0.0 0.0 0.0
0.0 0.0 0.0 0.0 0.0 0.0 0.0 0.0
00000000: 0000 0000 0000 0000 0000 0000 0000 0000
00000010: 0000 0000 0000 0000 0000 0000 0000 0000
00000020: 0000 0000 0000 0000 0000 0000 0000 0000
00000030: 0000 0000 0000 0000 0000 0000 0000 0000

conv1.lin_node_upd.ap.1.0.weight f4 [31, 16]
0.05597955 0.03135723 -0.12983212 -0.13620767 0.17435917 0.06321487 0.13851902 0.17774048
0.023097008 -0.053657413 0.028723776 -0.019529969 0.14811373 0.12148145 0.18649492 0.03208539
-0.053058714 0.23920283 -0.20029622 0.063004375 -0.11152884 0.0065704584 0.03011781 -0.05338207
-0.033480316 0.1430453 0.13187447 -0.12399447 0.17441699 -0.12047815 -0.13657436 -0.24882329
-0.0026344955 0.19261765 0.23545569 -0.2198526 0.037216067 0.05200991 0.1049974 0.07624468
0.18938023 -0.05555114 -0.21923703 0.15569413 -0.056896627 0.19012606 0.13526666 0.14635053
-0.20820615 -0.21021914 0.0638333 0.22187606 0.087831914 -0.16067672 0.09670839 -0.020013124
0.09819561 0.18082011 -0.04911384 -0.08928949 -0.23365742 0.22779793 -0.041567504 0.1685569
0.063578516 -0.035351157 -0.011320174 0.24726918 -0.18466744 -0.12759164 -0.22346583 -0.21896356
0.16716924 0.04208812 -0.0086039305 -0.20563191 -0.014900297 0.20142338 0.2119686 0.008088231
-0.16377595 -0.03794524 -0.009521991 -0.22139111 -0.09066564 -0.14417231 0.042539746 -0.05706057
-0.1961886 0.2280373 0.16695955 -0.10137737 -0.12691545 -0.09067559 -0.23358214 -0.2427215
0.056460768 0.10737884 0.12737572 0.22573867 0.09555429 -0.09622005 0.23910499 0.14296332
-0.19235554 0.21929717 -0.007947564 0.03180179 0.13195279 0.13868374 0.15237367 0.1182988
-0.14867973 0.1285123 -0.14867541 -0.103621244 0.083889276 -0.179943 0.19581643 0.2498694
-0.14146125 -0.23613694 -0.24426913 -0.17537859 -0.09743047 0.2347694 -0.12226403 0.18432358
0.041392297 -0.18139279 -0.10797861 -0.0637171 0.037510544 -0.17936483 0.12900501 0.09695712
-0.10252017 0.011245221 0.06287986 -0.008878559 0.18737948 -0.015768945 -0.24185434 -0.14986214
0.12279707 0.078666896 0.13304088 -0.21002245 0.059640795 -0.109223485 0.08343789 -0.24929255
-0.24885824 -0.23901433 -0.20410988 0.010625124 0.1971718 0.11491269 -0.010837734 0.08141503
0.2081716 0.1841237 -0.21501347 0.18336543 0.02281934 0.02154538 -0.14751065 0.016868502
-0.0317533 0.09555289 -0.23200285 0.22589105 0.17364481 -0.11199647 0.0011398792 -0.05197978
-0.0830636 0.21393985 0.20906726 0.2470164 -0.13837516 0.09964648 -0.17011514 0.0043982863
0.1037814 -0.151703 0.0045790374 0.1900801 -0.001113534 -0.19433215 -0.043577164 -0.23964092
-0.15452376 0.06480917 -0.016745657 0.15545464 0.1644594 0.22067532 0.06673604 -0.05077851
0.053210735 0.22275907 0.112743765 -0.12967372 -0.19288516 -0.03317243 0.18683326 -0.13319251
0.21140817 -0.19467962 0.10611993 -0.11551708 -0.24822006 0.14637262 -0.113574 -0.17773551
-0.09766847 0.06818029 0.11055526 0.016170144 0.17487884 -0.07364097 -0.22491205 -0.21225926
-0.11541921 -0.18547246 0.015541375 -0.0028600097 -0.011336982 0.10878405 0.19334522 0.22084126
-0.17274225 0.07360771 -0.13921037 0.15674895 0.11698741 -0.20842582 -0.03109464 0.12577543
0.06880751 0.16064835 -0.17733026 0.2104029 -0.046990037 0.23554322 -0.08714941 -0.097474426
0.22826153 0.19084784 0.16556215 0.15533689 -0.09150505 0.091272086 0.22289467 0.12666109
00000000: d04a 653d 7070 003d b6f2 04be 067a 0bbe
00000010: 368b 323e cc76 813d eed7 0d3e 9a01 363e
00000020: f035 bd3c e0c7 5bbd 204e eb3c 50fd 9fbc
00000030: 20ab 173e 44cb f83d 86f8 3e3e f86b 033d
00000040: 1854 59bd 96f1 743e 741a 4dbe 7008 813d
00000050: 3c69 e4bd 004d d73b a0b9 f63c 28a7 5abd
00000060: a822 09bd 787a 123e 1a0a 073e d0f0 fdbd
00000070: 5e9a 323e 40bd f6bd 26da 0bbe 88cb 7ebe
00000080: 80a7 2cbb 903d 453e 4c1b 713e 0a21 61be
00000090: e06f 183d 5808 553d e008 d73d 2c26 9c3d
000000a0: e4ec 413e 9889 63bd ac7f 60be 486e 1f3e
000000b0: 700c 69bd 68b0 423e 5883 0a3e eadc 153e
000000c0: fe33 55be b043 57be 08bb 823d 7a33 633e
000000d0: 38e1 b33d 7088 24be 0c0f c63d 90f2 a3bc
000000e0: c81a c93d e828 393e 982b 49bd 68dd b6bd
000000f0: e443 6fbe dc43 693e b042 2abd 2e9a 2c3e
00000100: 7435 823d 60cc 10bd 4078 39bc 2234 7d3e
00000110: 7619 3dbe 62a7 02be 3ad4 64be fc37 60be
00000120: 6a2e 2b3e 9864 2c3d 80f7 0cbc 2c91 52be
00000130: 6020 74bc ee41 4e3e 4c0e 593e 8084 043c
00000140: e2b4 27be 786c 1bbd 2002 1cbc 5ab4 62be
00000150: e8ae b9bd e8a1 13be 283e 2e3d 58b8 69bd
00000160: aae5 48be 9c82 693e 72f7 2a3e f09e cfbd
00000170: 20f6 01be 20b4 b9bd 2830 6fbe fc8b 78be
00000180: 6843 673d 70e9 db3d c86e 023e 0a28 673e
00000190: f8b1 c33d 040f c5bd f0d7 743e fa64 123e
000001a0: daf8 44be 708f 603e 8036 02bc 9842 023d
000001b0: a21e 073e 1c03 0e3e d807 1c3e a446 f23d
000001c0: 803f 18be ba98 033e 5e3e 18be 6037 d4bd
000001d0: 24ce ab3d fa42 38be 1a84 483e c4dd 7f3e
000001e0: 38db 10be e2cd 71be b021 7abe 7296 33be
000001f0: a089 c7bd 6467 703e 9065 fabd 52bf 3c3e
00000200: f88a 293d 08bf 39be e423 ddbd 1c7e 82bd
00000210: a8a4 193d 6aab 37be e419 043e 7491 c63d
00000220: 18f6 d1bd e03d 383c 28c7 803d 6077 11bc
00000230: 68e0 3f3e e02d 81bc aaa8 77be 7675 19be
00000240: 087d fb3d 1c1c a13d de3b 083e 2010 57be
00000250: e849 743d 90b0 dfbd 7ce1 aa3d 8c46 7fbe
00000260: b2d4 7ebe 2cc0 74be 2e02 51be 0015 2e3c
00000270: 68e7 493e 5857 eb3d c090 31bc ecbc a63d
00000280: f02a 553e ec8a 3c3e 7e2c 5cbe 26c4 3b3e
00000290: a0ef ba3c f07f b03c 080d 17be d02f 8a3c
000002a0: c00f 02bd 3cb1 c33d 2892 6dbe fc4f 673e
000002b0: f2cf 313e 685e e5bd 0068 953a c0e8 54bd
000002c0: 401d aabd 0c13 5b3e ba15 563e def1 7c3e
000002d0: 38b2 0dbe 7413 cc3d aa32 2ebe 801f 903b
000002e0: 588b d43d 0858 1bbe c00b 963b 5ca4 423e
000002f0: 00f4 91ba 02ff 46be f87d 32bd 6e64 75be
00000300: 7a3b 1ebe acba 843d 302e 89bc 802f 1f3e
00000310: 0c68 283e b6f8 613e e8ac 883d 20fd 4fbd
00000320: 80f3 593d f41a 643e 34e6 e63d 30c9 04be
00000330: b083 45be d0df 07bd 3851 3f3e 9e63 08be
00000340: 627b 583e 185a 47be 6855 d93d 3894 ecbd
00000350: 662d 7ebe b4e2 153e 7c99 e8bd 4c00 36be
00000360: 6806 c8bd 1ca2 8b3d cc6a e23d 4077 843c
00000370: 7013 333e 14d1 96bd 584f 66be 7e5a 59be
00000380: e860 ecbd 7eec 3dbe 40a1 7e3c 006f 3bbb
00000390: c0be 39bc 2cca de3d 4afc 453e 3624 623e
000003a0: 58e3 30be a4bf 963d 2a8d 0ebe cc82 203e
000003b0: 1897 ef3d 946d 55be 30ba febc 46cb 003e
000003c0: f4ea 8c3d 0081 243e 1096 35be dc73 573e
000003d0: a078 40bd 3e32 713e 647b b2bd aca0 c7bd
000003e0: 64bd 693e 9e6d 433e 2089 293e a210 1f3e
000003f0: 0067 bbbd dcec ba3d 803e 643e 72b3 013e

conv1.lin_node_upd.ap.1.0.bias f4 [31]
-0.18331465 -0.08432239 0.1474041 -0.23803383 -0.11525118 -0.04062 -0.11800003 -0.18685731
-0.24434242 -0.11539787 -0.17542332 0.044216633 -0.028771937 -0.05023545 -0.083841056 0.12609416
0.24507442 -0.16342622 0.22929963 0.199469 0.04918006 0.003261894 0.038366914 -0.04008484
-0.07793939 0.15524235 -0.030514032 0.17766103 0.033238024 -0.15680656 -0.08534789
00000000: d6b6 3bbe 38b1 acbd 1af1 163e 24bf 73be
00000010: d008 ecbd 2861 26bd 00aa f1bd 8657 3fbe
00000020: e634 7abe b855 ecbd 2ca2 33be 801c 353d
00000030: 20b3 ebbc b0c3 4dbd dcb4 abbd d41e 013e
00000040: caf4 7a3e 3459 27be 86cd 6a3e 9a41 4c3e
00000050: 0871 493d 80c5 553b a026 1d3d 0030 24bd
00000060: b09e 9fbd daf7 1e3e 90f8 f9bc c6ec 353e
00000070: 9824 083d e691 20be e0ca aebd

conv2.lin_node_msg.ue.0.0.weight f4 [16, 32]
-0.0006634335 -0.14029574 0.14656541 -0.1259197 0.023233028 -0.026014151 -0.08737783 -0.029568205
0.004640937 0.12906913 -0.030594397 0.059190273 -0.12295696 0.09922521 0.036201403 0.15672341
0.0077921725 0.16368563 -0.024758196 -0.15535098 -0.076075606 -0.019971073 0.13998954 -0.1040067
0.100094505 -0.029150741 -0.1081191 -0.08799172 -0.020818498 0.12736523 -0.036628414 -0.1534465
0.048916876 -0.15141273 0.021713192 0.17177516 -0.16131942 0.15221812 -0.07848441 -0.095453486
-0.0037015048 -0.1437568 0.07868555 0.16080393 0.032435477 0.089867465 0.044230737 -0.08095712
-0.10113665 0.051315684 0.067213625 -0.13799255 0.04115707 0.0040230853 -0.10564255 0.15201679
0.1460827 -0.09820418 -0.034973666 0.061912876 0.01566651 0.13918334 0.023648111 -0.055716194
-0.08228295 0.010243033 -0.03667705 0.112084396 0.08583893 -0.14609136 -0.1263765 0.07969579
0.06526608 0.042646416 -0.09666091 0.06738714 0.13371302 -0.09613987 -0.14524974 0.03797197
-0.035615478 0.054860443 0.15788098 0.11599312 -0.02470977 0.036181573 -0.09248171 -0.0121649075
-0.15783595 0.022958905 0.09954125 0.021765728 0.10071381 0.08547111 -0.05294759 0.025196986
-0.053241648 -0.023943624 0.07546884 -0.08581448 -0.1391313 -0.09488103 0.020646118 -0.06357182
0.012258137 -0.050253395 -0.009461462 0.03070204 -0.047039255 -0.13347724 -0.14715616 0.051671844
0.105843864 0.09664565 0.053205084 0.005364156 0.0132807875 -0.011521789 -0.099086456 -0.12009824
0.0056622606 0.002887923 0.050241657 -0.030576969 0.003445863 -0.17204098 0.012718359 0.17641349
0.06992706 0.15834434 -0.17237799 0.153539 0.109785855 0.0071025444 -0.117260456 -0.005478816
0.17491892 -0.031766754 -0.059397258 0.11952197 -0.08106352 0.17320955 -0.044841107 -0.05384677
0.13174179 -0.079421565 0.03958748 0.08576917 0.15207149 0.06721307 0.038969945 -0.09050481
-0.070705175 -0.13594158 -0.06781565 0.042450704 0.028426321 -0.118732706 -0.06271963 -0.029022656
0.027941043 -0.16964845 -0.13651876 0.13547228 0.17518972 -0.035206273 -0.0683769 -0.10764836
0.07895816 -0.07956946 0.11979399 -0.1597779 -0.010338853 -0.037583757 0.10700147 0.03369396
-0.16999881 -0.15793172 0.017638857 -0.015836215 -0.16135082 -0.009112676 -0.13190112 0.12826775
0.124227054 0.12210861 -0.13279969 0.1342557 -0.14056657 -0.16899693 0.04147111 -0.036192108
-0.04066646 -0.08774675 0.1272084 0.002325642 0.13807672 0.097992346 -0.041376676 0.13624164
-0.08409247 -0.112635784 0.08200596 0.11313836 0.1605121 0.084589735 0.1630325 -0.13046975
-0.013206883 -0.03804893 -0.10665658 0.059045143 -0.014830738 0.017401231 -0.031673986 0.13044424
-0.10591222 0.05728789 -0.015588454 0.0417113 0.029049778 -0.07479489 0.16640283 0.12961023
-0.10543875 0.12645955 -0.12680484 -0.004492285 0.07017667 0.16766545 -0.17364016 0.007630729
0.08148967 -0.113674834 -0.14892742 -0.029463787 -0.096040845 -0.015001496 0.005026433 -0.1332715
-0.10093886 0.12416379 0.09892601 0.031827256 -0.09712486 0.033583514 0.100620374 -0.07820982
-0.12665863 0.16621108 -0.047399588 -0.017146159 0.10725132 -0.0038160388 0.0123059945 0.0064721964
00000000: 45ea 2dba b0a9 0fbe 3e15 163e 18f1 00be
00000010: 3153 be3c a11b d5bc 26f3 b2bd 0539 f2bc
00000020: 0013 983b b32a 043e 1aa1 fabc 8071 723d
00000030: dcd0 fbbd 9636 cb3d ec47 143d 1a7c 203e
00000040: 7b55 ff3b 359d 273e b3d1 cabc 5414 1fbe
00000050: 87cd 9bbd 609a a3bc 6b59 0f3e 7701 d5bd
00000060: 59fe cc3d 89cd eebc 8c6d ddbd 0135 b4bd
00000070: 8e8b aabc 086c 023e ad07 16bd 1421 1dbe
00000080: 105d 483d f00b 1bbe dddf b13c d4e5 2f3e
00000090: eb30 25be 11df 1b3e 6fbc a0bd 1e7d c3bd
000000a0: f294 72bb fc34 13be e425 a13d c9a9 243e
000000b0: 10db 043d 6f0c b83d 4a2b 353d d9cc a5bd
000000c0: bb20 cfbd 6530 523d 4ca7 893d eb4d 0dbe
000000d0: 5194 283d 16d4 833b 1f5b d8bd 4aaa 1b3e
000000e0: b496 153e 461f c9bd 8c40 0fbd 5b98 7d3d
000000f0: 0e57 803c 1486 0e3e afb9 c13c aa36 64bd
00000100: f783 a8bd 65d2 273c ad3a 16bd 818c e53d
00000110: 52cc af3d f998 15be d768 01be 8c37 a33d
00000120: 39aa 853d 02ae 2e3d 28f6 c5bd 4502 8a3d
00000130: 11ec 083e fbe4 c4bd 59bc 14be 7f88 1b3d
00000140: 89e1 11bd 58b5 603d 8dab 213e cd8d ed3d
00000150: 256c cabc 2133 143d 0d67 bdbd 524f 47bc
00000160: bf9f 21be 5014 bc3c 48dc cb3d 0a4e b23c
00000170: 0b43 ce3d 7a0b af3d 92df 58bd e969 ce3c
00000180: ea13 5abd 6b25 c4bc 688f 9a3d 81bf afbd
00000190: 6f78 0ebe fc50 c2bd 0c22 a93c f131 82bd
000001a0: 5ad6 483c 81d6 4dbd 3f04 1bbc d882 fb3c
000001b0: 3cac 40bd 42ae 08be 1bb0 16be dba5 533d
000001c0: abc4 d83d 28ee c53d 93ed 593d cdc5 af3b
000001d0: a997 593c e3c5 3cbc d7ed cabd 11f6 f5bd
000001e0: 7c8a b93b 4f43 3d3b 32ca 4d3d 8d7c fabc
000001f0: fdd3 613b 832b 30be aa60 503c bda5 343e
00000200: eb35 8f3d 0525 223e db83 30be 5439 1d3e
00000210: 68d7 e03d 76bc e83b 4026 f0bd a487 b3bb
00000220: f21d 333e db1d 02bd 8a4a 73bd efc7 f43d
00000230: a104 a6bd d85d 313e 4fab 37bd 6e8e 5cbd
00000240: 52e7 063e c6a7 a2bd 7b26 223d bfa7 af3d
00000250: a1b8 1b3e 02a7 893d f39e 1f3d 965a b9bd
00000260: e0cd 90bd 4534 0bbe eee2 8abd cae0 2d3d
00000270: 51de e83c 222a f3bd 2673 80bd ecc0 edbc
00000280: 9de4 e43c 53b8 2dbe 93cb 0bbe 3fb9 0a3e
00000290: ef64 333e 7434 10bd 3009 8cbd be76 dcbd
000002a0: d1b4 a13d 50f5 a2bd 8d56 f53d d19c 23be
000002b0: 4b64 29bc 6df1 19bd 9623 db3d ae02 0a3d
000002c0: 2b14 2ebe dab8 21be 5d7f 903c f3ba 81bc
000002d0: 2639 25be 554d 15bc 1611 07be 9f58 033e
000002e0: c16a fe3d 1414 fa3d a4fc 07be 547a 093e
000002f0: aff0 0fbe 880d 2dbe 9cdd 293d 2d3e 14bd
00000300: e091 26bd 91b4 b3bd eb42 023e cc69 183b
00000310: fc63 0d3e 36b0 c83d 977a 29bd ee82 0b3e
00000320: ac38 acbd 97ad e6bd bef2 a73d 16b5 e73d
00000330: 495d 243e 623d ad3d fef1 263e dd99 05be
00000340: af61 58bc 32d9 1bbd c46e dabd 52d9 713d
00000350: a0fc 72bc 078d 8e3c 95bc 01bd 2d93 053e
00000360: 82e8 d8bd b5a6 6a3d b766 7fbc 78d9 2a3d
00000370: cdf9 ed3c 102e 99bd 8165 2a3e 8bb8 043e
00000380: 45f0 d7bd 9d7e 013e 21d9 01be 0534 93bb
00000390: c9b8 8f3d 7eb0 2b3e bace 31be 320b fa3b
000003a0: 0ee4 a63d 5ace e8bd 6e80 18be 0a5e f1bc
000003b0: 10b1 c4bd d6c8 75bc c7b4 a43b 5378 08be
000003c0: 08b9 cebd 9649 fe3d b899 ca3d 4c5d 023d
000003d0: 66e9 c6bd de8e 093d 0e12 ce3d 782c a0bd
000003e0: cdb2 01be 3d33 2a3e 1226 42bd 1a76 8cbc
000003f0: 94a6 db3d 8216 7abb 159f 493c b814 d43b

conv2.lin_node_msg.ue.0.0.bias f4 [16]
-0.047341805 0.0826416 0.085726544 -0.16317149 -0.04504653 -0.055685554 -0.14620057 0.030181274
-0.042603657 -0.08292816 -0.04999767 -0.01353388 0.0527464 -0.049610823 0.0014964871 -0.09768701
00000000: 7be9 41bd 0040 a93d 6691 af3d 6d16 27be
00000010: b682 38bd 8916 64bd 9ab5 15be b83e f73c
00000020: 2c81 2ebd 3dd6 a9bd 5bca 4cbd 35bd 5dbc
00000030: 9c0c 583d b834 4bbd c625 c43a 2110 c8bd
